server/models/stunting_model_v2.pth (torch, 342776 bytes, 8 tensors)

l1.weight f4 [512, 20]
000000 2e 32 0e 3d d5 2c 2b be 6d f8 5a 3e 26 6a 60 3e
       0.034715824 -0.16716321 0.2138383 0.21915492
000010 a3 4d d1 3d 4c 77 c7 bb a0 02 23 be fb db e9 bc
       0.10219886 -0.0060872193 -0.1591897 -0.028547278
000020 46 08 be 3d 34 65 53 be a4 bb 4e be c7 24 5a be
       0.09278922 -0.20644075 -0.20188767 -0.21303092
000030 47 57 92 bd e6 07 40 3d 0e f3 07 bb 3f a9 9a bd
       -0.07145553 0.046882533 -0.0020744237 -0.075518124
000040 f2 37 5f be 34 0d 97 3d 21 b6 4c 3e 01 67 49 3d
       -0.21798685 0.07375565 0.19991352 0.049170498
000050 2e 4a a0 3d 67 88 a2 bd 90 c7 21 3e 99 0a b9 3d
       0.07826649 -0.07936173 0.15798783 0.090352245
000060 25 c6 c7 3d f1 11 ec bd f8 ea 3e bc da b0 86 bd
       0.0975459 -0.115268596 -0.011652701 -0.065767005
000070 b0 5f 8f bd f1 8c b0 3d f4 b3 78 bd 1e c9 6c ba
       -0.07000673 0.086206324 -0.06071849 -0.00090326543
000080 ab 02 11 3d 9f 51 0d 3d d0 92 82 3c 1e 8e fc bd
       0.035402935 0.034501668 0.015939146 -0.12331794
000090 a1 c1 11 3d ab 18 48 be 42 b9 64 3e b9 83 04 3e
       0.03558505 -0.1954066 0.22336295 0.12940873
0000a0 c7 3b d1 3c ca 8c 75 bd ab e6 c0 3d 7a 0b 4c 3e
       0.0255412 -0.05994872 0.094189964 0.19926253
0000b0 56 d0 f0 bc 53 5f 4d bc 73 2c 8d bb 80 48 4c 3e
       -0.029396217 -0.012534934 -0.0043082773 0.19949532
0000c0 7d 65 3b 3e 90 e8 26 be 75 2f d4 bd 98 a3 1c 3e
       0.18300433 -0.16299653 -0.10360614 0.15296781
0000d0 25 ec 3c be 11 89 34 bd 0a a9 f0 bc 9c 47 a7 bc
       -0.18449457 -0.04407603 -0.02937748 -0.020419888
0000e0 54 7a 5f 3d 6d 9a 3e 3e 1a e5 8a 3d 99 73 4f 3e
       0.05456002 0.18613596 0.06781979 0.20258941
0000f0 27 ba 91 bd 5a b4 3a be f6 4b 4d be 42 e2 fa bd
       -0.07115584 -0.18232861 -0.20048508 -0.122501865
000100 b4 2e af 3d e2 2f 3a be 5f be 37 3b 55 72 cd bb
       0.0855383 -0.18182328 0.0028037054 -0.006269733
000110 e0 15 50 bd 2c 8b 4e be e5 c4 63 3e 76 a1 23 3e
       -0.05080211 -0.20170277 0.22243078 0.15979561
000120 c1 63 a6 3c dd 22 bb 3c 00 53 f4 bd 10 27 03 3d
       0.020311238 0.022843773 -0.119298935 0.032019675
000130 bc dd 4e be 73 57 0c 3e 8f 5f 22 be a7 60 b6 3c
       -0.20201772 0.13705234 -0.15856765 0.022262884
000140 4f 35 8d 3d 98 29 fb 3b 92 03 14 c0 e2 42 c7 bf
       0.068949334 0.0076648705 -2.312718 -1.5567286
000150 eb 70 bd 3d 8b 7d 21 c0 12 0b 1c c0 ee 53 2d 3e
       0.09250053 -2.5232875 -2.4381757 0.16926548
000160 90 dc f5 bf cf 8a ef bf e8 7a ef bf 3d 91 d3 bf
       -1.9207935 -1.8714236 -1.8709383 -1.6528698
000170 56 72 03 c0 cf 5d 78 3d 0d 23 66 bd ae b6 43 3e
       -2.0538535 0.060636338 -0.05618577 0.19112656
000180 c6 bf f2 bf f4 0d 00 3f 9d 57 12 c0 14 4f 1b c0
       -1.8964775 0.5002129 -2.2865975 -2.4267015
000190 95 46 5d 3b be fb 97 bb ef bd ce bf da 24 7e bf
       0.0033763994 -0.0046381643 -1.6151713 -0.9927498
0001a0 2d c0 ce 3c 64 85 cd bf d6 f0 b4 bf 2b dd f1 bb
       0.02523812 -1.6056333 -1.4135997 -0.0073811016
0001b0 67 60 ba bf 23 c9 97 bf 23 9f ac bf 16 fb a3 bf
       -1.456067 -1.1858257 -1.3486065 -1.2811
0001c0 37 c9 ac bf 97 ad 1a 3e 34 25 de bc 2e 20 ea 3d
       -1.3498906 0.15105282 -0.02711735 0.11431919
0001d0 bf f6 aa bf 87 b1 64 3e cf d5 d7 bf fe 34 c2 bf
       -1.3356551 0.22333346 -1.6862124 -1.5172422
0001e0 03 b1 88 3d be 48 4f bc 8d ad 07 c0 64 9a 7f 3f
       0.06674387 -0.01265162 -2.1199677 0.99844956
0001f0 c4 b4 4a 3c ab 94 e7 bf 51 74 f2 bf 79 d7 f5 3b
       0.012372199 -1.8092245 -1.8941747 0.007502493
000200 48 48 e9 bf 44 81 c5 bf 68 c6 f2 bf e7 98 1a bf
       -1.8225183 -1.5430074 -1.8966799 -0.6038956
000210 e6 53 98 bf a1 6a 5f be e7 f4 4a 3e d3 1c 34 be
       -1.1900604 -0.2181802 0.19819985 -0.1758912
000220 b8 f3 e2 bf eb 4d ba 3e 44 7b fd bf 89 67 ee bf
       -1.7730627 0.36387572 -1.9803243 -1.8625346
000230 81 3f 5e be 89 04 b1 bb d4 b9 ab 3f 50 0c a7 3e
       -0.21703912 -0.005402152 1.3416085 0.3262658
000240 48 05 56 3e 22 b3 97 3f f0 6f 6c 3f 39 2e 55 3e
       0.20900452 1.1851542 0.92358303 0.20818414
000250 97 95 4a 3f 3a f5 5f 3f d0 c2 86 3f 6e 3b 40 3f
       0.79134506 0.8748356 1.0528202 0.7509068
000260 65 0d 2f 3f 7a 09 19 bc 7c 8c 96 be 94 9c 81 be
       0.68379813 -0.009340638 -0.29404056 -0.25314772
000270 f6 b1 2f 3f 6f 2b 67 be 26 87 95 3f ed 2e 7e 3f
       0.6863092 -0.22575162 1.1681869 0.99290353
000280 b7 8e 4d 3b 1a ac bd bc 3b 82 80 3f 58 56 08 3f
       0.0031365582 -0.023153353 1.0039743 0.5325675
000290 bf af 05 3d 49 f4 9f 3f 0a d9 7a 3f ba 84 35 3e
       0.032638308 1.2496425 0.97987425 0.17726412
0002a0 4c 92 58 3f 9c 62 3c 3f 77 e7 74 3f 58 1b 8e 3f
       0.8459823 0.73587966 0.9566569 1.1102095
0002b0 be 77 90 3f 63 c7 3e 3d df 50 c4 bb 54 57 e2 bd
       1.1286542 0.04657687 -0.005991086 -0.11051813
0002c0 07 3d 46 3f 04 85 5e be 82 1a 85 3f ed 7b 9c 3f
       0.7743687 -0.21730429 1.0398715 1.2225319
0002d0 76 54 02 be 83 ba 72 bd 74 60 07 be 80 2d 23 be
       -0.12727532 -0.059259903 -0.13220388 -0.15935326
0002e0 fa 39 9d bd be 71 6a bd 44 59 10 3e 12 43 39 3e
       -0.07677074 -0.05723738 0.14096552 0.18091992
0002f0 73 99 a7 3c 27 00 4d 3e db cc 39 3d 30 0b 18 be
       0.020458912 0.2001959 0.04536138 -0.14848018
000300 9d 96 21 be 52 94 2f bc d5 dc 2f 3e 2a b7 40 be
       -0.1578011 -0.010716515 0.17174084 -0.18819872
000310 34 5c f1 bc e1 40 78 bd ab a0 8e 3d 8c 30 17 3e
       -0.029462911 -0.06060875 0.06964239 0.14764613
000320 db 4f 53 be 97 8f 4a bd c4 b3 5e 3e 77 29 11 3e
       -0.20635931 -0.049453344 0.21748263 0.14175974
000330 24 9c f0 3d 93 bc 51 3d 70 35 5f be 0b da 90 bd
       0.117485315 0.05120523 -0.21797729 -0.070728384
000340 7f 08 55 3d ef 72 a1 bd dd b7 75 bd 58 cb 57 bd
       0.052010056 -0.0788325 -0.0599898 -0.052684158
000350 45 5e 13 be 86 73 8a 3d 8a 40 2d 3e d4 94 01 3e
       -0.1439143 0.067603156 0.16919151 0.1265443
000360 24 2f 8a 3d bb fb 8d ba cc fc ea 3d fa 2e ab 3d
       0.067472726 -0.0010832468 0.114739984 0.083585694
000370 47 aa 6c be 79 94 31 3a 15 37 a6 bf 44 e2 a4 be
       -0.2311183 0.00067741383 -1.298556 -0.32203877
000380 ce f3 14 bd 5b 4c 9e bf ad 90 be bf ff 6f 54 3d
       -0.036365323 -1.2367052 -1.4887902 0.05186462
000390 03 a6 ac bf f1 c3 60 bf 8a bf 9f bf 9a 71 76 bf
       -1.3488163 -0.8779898 -1.2480328 -0.9626709
0003a0 5c f5 8b bf b0 6a 11 be 8f 99 84 be 0c a9 13 3d
       -1.0934253 -0.14200854 -0.25898406 0.036049888
0003b0 1c 8b 82 bf d9 83 53 be e7 fe c1 bf 15 b5 98 bf
       -1.0198703 -0.20655765 -1.5155915 -1.1930262
0003c0 87 63 86 3c 16 51 4a be b8 8f 58 be 3d 13 35 be
       0.01640488 -0.19757494 -0.21148574 -0.1768312
0003d0 94 4d a1 bd d6 48 04 3e 92 28 a1 3c 24 97 0b be
       -0.07876125 0.1291841 0.019672666 -0.13631874
0003e0 61 bd 91 bd 83 b6 e1 bd 00 04 50 3e 2c ed 6a 3c
       -0.07116199 -0.110211395 0.20314026 0.014338773
0003f0 d7 6f 1d be 2e 62 48 be f9 e2 0f bc b7 43 ba bd
       -0.15374695 -0.19568703 -0.008782142 -0.09094947

l1.bias f4 [512]
000000 cb a2 9d 3d 47 d2 93 3d 9f 50 2d 3d a1 e3 dc 3d
       0.07697066 0.072178416 0.042313214 0.10785604
000010 0f 1c 24 c0 05 44 e6 bf 57 58 fe bf f5 43 85 3f
       -2.5642126 -1.7989508 -1.9870709 1.0411364
000020 cd 3a 8c 3f bb ba 2b be 9a 41 f4 3d 6a 8f b2 bf
       1.0955445 -0.16770451 0.11926575 -1.3950016
000030 69 83 28 be b8 a8 ef 3f be 5c 69 bf ac ac 87 bf
       -0.16456379 1.8723364 -0.9115714 -1.059957
000040 1f f9 1a 3e 6a b0 a7 bf 74 d4 06 bf 5f 6d 65 bd
       0.15134095 -1.3100712 -0.5266793 -0.056012508
000050 e3 40 a9 bc dc 76 10 be 56 b8 aa 3f e1 4a b9 3f
       -0.020660823 -0.14107841 1.3337505 1.4475976
000060 8e 1e 9d 3f 73 ad 34 be 08 fa 2e 3d ea 5e 5a 3e
       1.227495 -0.1764429 0.042718917 0.2132527
000070 a6 7e 02 bf 4b 71 d3 bf f4 27 a0 bd 19 7e 05 be
       -0.509745 -1.6518949 -0.078201205 -0.13036384
000080 d9 1c 38 3c 6a 31 1f 3e 1a d5 9c 3d 34 36 8d 3f
       0.011237347 0.15546194 0.076578334 1.1032166
000090 b1 df 29 bd a9 7f e6 3f 08 7f 07 3d c4 7e 8c 3f
       -0.041473094 1.8007709 0.03308013 1.0976186
0000a0 40 a2 b2 3f 5c eb 28 3e 65 c5 a3 bf af 0b 01 be
       1.3955765 0.16496032 -1.2794615 -0.12602113
0000b0 91 c7 dd 3d fc aa 13 be 5b 75 93 bf 2b b8 df bf
       0.1082908 -0.14420694 -1.1520189 -1.7478079
0000c0 8b 2e 60 3e d4 08 28 c0 8b 35 e7 bd 08 a2 fc bd
       0.21892755 -2.6255388 -0.112895094 -0.123355925
0000d0 d5 2e 42 3e 28 01 cd bd 9e dd cc bd 44 1a a4 3d
       0.18963178 -0.10009986 -0.100032076 0.08012822
0000e0 ed 41 8e 3f 45 69 55 3e c4 89 9e bd 2a 43 e4 3c
       1.1113869 0.20840938 -0.077411205 0.027864058
0000f0 91 24 c0 3d 36 aa 9e 3f c2 4a e7 bd f8 36 84 3c
       0.093819745 1.2395694 -0.11293556 0.016139492
000100 8d da 4d 3f 8a 85 d2 3f 0d 14 5b bc f7 dc dd 3d
       0.8041161 1.6447003 -0.01337148 0.10833161
000110 a6 11 e6 3f ac 7d 1c be 94 a0 47 bd 54 da 01 3e
       1.7974136 -0.15282315 -0.048737124 0.12680942
000120 5b 1e 95 bf 98 5c 18 3f aa df 4f be 45 c9 34 be
       -1.1649889 0.59516287 -0.20300165 -0.17654903
000130 fe 36 fc bf 97 f8 a7 3f 92 72 24 3e 9a d0 29 c0
       -1.9704282 1.3122739 0.1605933 -2.653357
000140 e6 63 4f bf 9e 00 ff bf ab 4a 4c 3d f2 01 53 3e
       -0.8101181 -1.9922063 0.049875896 0.20606211
000150 7c bc fb bc 54 98 26 40 2c 63 3c be ca f5 78 bf
       -0.030729525 2.6030474 -0.18397206 -0.97250044
000160 61 66 b8 bf 35 57 f4 bf 91 c3 25 be b5 71 b8 3a
       -1.4406244 -1.9089113 -0.16187884 0.0014071973
000170 1a 97 e4 bd c1 29 45 3c 6e c4 93 3f 52 4b d2 bd
       -0.11161633 0.012033881 1.154432 -0.102682725
000180 38 05 1d 40 23 cd 59 bc c1 ed e1 3f 06 0c df bf
       2.4534435 -0.013293537 1.7650682 -1.7425544
000190 85 11 2d be f9 97 c9 3d df 49 b5 bc 79 b7 d1 3d
       -0.16901214 0.098434396 -0.022129951 0.10240073
0001a0 09 5c 52 be cb 9b 1d 3e a2 46 9a bd 66 f7 e4 3f
       -0.20542921 0.15391462 -0.075330034 1.7888
0001b0 99 6c 06 c0 8b a0 a0 bf 8b 0b 10 be 5c 38 63 be
       -2.1003783 -1.2548994 -0.14066903 -0.22189468
0001c0 62 f1 c5 3e 66 2d 1d 3d dd 0c 9e bf 62 72 08 c0
       0.38660723 0.038373373 -1.2347676 -2.1319814
0001d0 75 2b bb 3f 92 4a ca 3f d6 07 1d c0 2e f0 a6 3f
       1.4622637 1.5804007 -2.4536033 1.3042047
0001e0 5d 7f ec 3e 01 07 dc be 21 9a e7 3f 1c 60 59 3e
       0.4619092 -0.42974094 1.8093911 0.21228069
0001f0 0c f8 5c 3c 29 52 99 be 28 e5 02 bc 02 1f ba bf
       0.013486873 -0.29945496 -0.007989205 -1.4540713
000200 d8 7e c8 3e 29 88 c6 bd a2 2d ef 3c d1 47 22 c0
       0.39159274 -0.09693939 0.029196564 -2.5356333
000210 c1 39 2f 3f fc de a4 bd 2b 93 f0 3e c2 a8 4d 3e
       0.684475 -0.080503434 0.4698728 0.20083907
000220 75 d8 b6 3f cf 11 07 c0 e7 50 4e bd 03 d5 17 3d
       1.4284807 -2.110462 -0.050370123 0.03706838
000230 0e 0d d7 bd 4e 93 c3 3f f6 93 63 3e 3c ce 5b 3f
       -0.10500537 1.5279329 0.22224411 0.85861564
000240 9f 9f 2c 3e 21 88 35 bf ac 5d bd bc 9a 06 31 bf
       0.16857766 -0.7091084 -0.023115955 -0.691507
000250 8b 5c a6 bc 20 d1 ae 3d 73 1b ea bf 59 d9 1e 3e
       -0.0203078 0.08535981 -1.8289627 0.15512599
000260 0d 41 d1 3f a9 21 e2 bd 5d 95 62 3e 8c 39 2f c0
       1.6347977 -0.110415764 0.2212729 -2.7378874
000270 97 cb ac 3f e8 1d fc bd 06 1a 16 40 3a 4d 5d be
       1.3499631 -0.12310392 2.3453383 -0.21611491
000280 79 16 dd bd 52 f9 60 3e 30 de 2f be 9b d7 7f 3d
       -0.10795302 0.21970108 -0.17174602 0.062461477
000290 7d f9 bd bf 4a c0 19 c0 15 03 e9 3c c7 37 f2 bf
       -1.4841763 -2.4023614 0.028443852 -1.8923272
0002a0 85 ce 4c 3e fd 44 32 be 9a 2e 8f bf 41 c1 62 3e
       0.20000656 -0.1740913 -1.1186097 0.22144033
0002b0 3d f9 21 c0 0c d4 2b be 58 8f 01 bd 12 0d 4c be
       -2.5308373 -0.16780108 -0.031630844 -0.19926861
0002c0 00 9c c9 bf 1b a6 96 bf 0b 1b 2f 3e 91 18 e9 3f
       -1.5750732 -1.1769441 0.1710016 1.8210622
0002d0 fe 85 45 bb 3d a6 ea 3d e8 f3 21 3e ef a0 1f 40
       -0.003013968 0.11457489 0.15815699 2.4941976
0002e0 77 0e 40 be 95 5f ad 3f 79 7a f1 bd 8c eb 5f be
       -0.18755518 1.3544794 -0.11790938 -0.21867198
0002f0 82 b6 0b be 06 af 3d be 72 0a 27 40 ed f3 f3 3c
       -0.1364384 -0.18523797 2.6100125 0.029779399
000300 01 64 63 3e a0 ef 8d 3f 22 4c d2 bd 8b 35 f2 3e
       0.22206117 1.1088753 -0.102684274 0.47306475
000310 85 b8 2a 3e 4f ad 16 c0 e8 65 bd bf 69 1e ea 3e
       0.16671951 -2.354328 -1.4796724 0.45726326
000320 70 53 07 c0 23 b7 49 3e fd e3 14 3f 83 91 dd 3d
       -2.1144676 0.19698767 0.5816038 0.1081877
000330 52 92 02 be ea 80 0e 40 82 08 d9 bf 87 0b 42 be
       -0.1275113 2.2266183 -1.6955721 -0.1894971
000340 69 e8 37 bc 86 87 22 3d f4 93 bc 3d f8 02 11 be
       -0.0112248445 0.039680026 0.09207907 -0.14161289
000350 5b 78 0a c0 16 d0 f0 bd f8 4b 91 3d 4f fe 98 3d
       -2.163596 -0.11758439 0.07094568 0.074703805
000360 92 7c c4 bb dc a8 3c 3f 9d ee a6 3f 48 ca e6 b9
       -0.0059962953 0.7369516 1.3041569 -0.0004401973
000370 9a a5 0d be 00 d1 6b bd 92 97 a5 bd 84 8a 1e c0
       -0.13832703 -0.057572365 -0.0808555 -2.4772043
000380 30 92 37 be 66 65 b3 3f 96 6c 11 c0 8c 1a e4 3f
       -0.1792686 1.4015319 -2.2722526 1.7820601
000390 e6 e1 26 c0 2c 30 4e bd 7e b7 81 3f a1 0a d3 3f
       -2.6075377 -0.05033891 1.0134122 1.6487619
0003a0 42 0a 9c 3f 99 3a 3f 3e c6 82 64 be 2f 2f fb bf
       1.219063 0.18674697 -0.22315511 -1.9623774
0003b0 52 d9 b9 3e 62 d3 b2 3f 4b 92 58 be d7 b4 01 c0
       0.36298615 1.3970759 -0.21149556 -2.0266626
0003c0 db 95 2e be 73 cd eb 3d ea ca 05 40 08 b0 13 c0
       -0.17049353 0.11513796 2.09051 -2.307619
0003d0 35 f4 f4 bd 59 ed 01 c0 94 d0 01 40 2d cc c4 bb
       -0.11960641 -2.0301116 2.0283556 -0.006005785
0003e0 b5 02 ba bf 84 4b 94 3f b6 8b cf 3f fa 89 0b 3e
       -1.4532076 1.1585546 1.6214511 0.13626853
0003f0 58 a3 cf 3f 59 83 9b 3f 93 31 b3 3f ac 6d 1a 3f
       1.6221724 1.2149459 1.3999504 0.60323596

l2.weight f4 [128, 512]
000000 45 a5 1c 3d 5e 59 f9 bc 6b a7 f0 bc 71 ad 41 3c
       0.03824355 -0.030438121 -0.029376706 0.011821137
000010 07 b2 93 3c 33 74 96 bc d6 ba 68 bd f2 1a 88 bc
       0.018029226 -0.018365955 -0.056818806 -0.016614411
000020 4a 25 84 bc 76 f8 56 3c e5 28 b0 3c 0d 76 4c 3b
       -0.016131062 0.013120761 0.021503875 0.0031198293
000030 2d d3 30 bd dd 97 11 bd df 26 5a bd 27 77 60 bd
       -0.043170143 -0.03554522 -0.053259727 -0.054801133
000040 97 4c 4a bc 88 6b b6 bb 9a e0 8e bc 63 77 a9 bc
       -0.012347362 -0.005567018 -0.017441083 -0.02068681
000050 61 9d ca bb 34 9b ed bc 12 b3 19 bd 66 a0 0c 3c
       -0.006183312 -0.02900467 -0.03752429 0.008583164
000060 c0 55 c6 bb 42 6f 87 bc 52 64 21 3d 04 22 c4 bc
       -0.0060527027 -0.016532544 0.039402314 -0.023942001
000070 e6 41 3d bb c3 b1 af 3c b4 80 ff bc 44 13 14 bd
       -0.002887839 0.021447068 -0.0311893 -0.036151186
000080 b8 fa 6f bc 55 e0 e5 bc a4 7e bd bc 30 e0 6c bd
       -0.014647178 -0.028061071 -0.023131676 -0.05783099
000090 b7 28 a6 3c 1f 6e ce 3c 2a 1a 13 bc 1d 29 75 bb
       0.020283086 0.025198994 -0.008978406 -0.0037408539
0000a0 04 62 bc bc ac d2 a2 3c 89 00 0d bd 21 f4 a0 bc
       -0.022995956 0.019875847 -0.03442434 -0.01964766
0000b0 68 83 10 3d 7d 05 51 3c 0a a9 b0 3c d8 e0 bd 3c
       0.03528157 0.012757656 0.02156498 0.023178503
0000c0 71 e0 12 bd f2 38 46 ba 23 80 81 3c b0 39 d0 bc
       -0.035858575 -0.0007561586 0.01580817 -0.025418133
0000d0 b1 53 2f 3b a2 0e da 3c 9a e9 c3 3c e4 5b 07 3d
       0.0026752765 0.026618306 0.0239151 0.033046618
0000e0 68 c6 ed bc 50 5f 27 bd 65 f1 1f bc 94 47 f3 bb
       -0.029025272 -0.04086238 -0.009762143 -0.0074243043
0000f0 5c 97 08 bd d7 d9 4d bd 9b f2 41 3c 8e 03 92 3c
       -0.033347473 -0.050256576 0.011837627 0.01782396
000100 53 63 41 bd 6d b9 42 bc 53 1d d6 ba 74 09 e2 3c
       -0.047213864 -0.011885029 -0.0016335644 0.027592398
000110 be 82 9c bc b6 70 b6 3b cc 56 93 3c dc 7a 89 bc
       -0.019105311 0.0055676354 0.017985724 -0.016782217
000120 1a 0b bd ba b6 b8 bf 3c db 2a e8 bc 04 5b 46 bb
       -0.0014422864 0.023403507 -0.028340748 -0.0030266652
000130 26 69 0f bd 78 a0 43 bd d0 05 ca bc ad d6 af bc
       -0.035012387 -0.047760457 -0.024660975 -0.02146467
000140 60 ce e2 bc ec ac 6f bd 92 6d 43 ba 90 a7 31 bc
       -0.027686298 -0.05851452 -0.0007454987 -0.010843173
000150 e9 ec 51 bb 0d 5b 4a bd 48 b5 d3 3c 7e 40 6b bb
       -0.0032032079 -0.04940324 0.025843278 -0.0035896595
000160 a0 69 8f bc 22 d2 d6 bc 54 0d 1e bd 26 15 12 3d
       -0.01750642 -0.026223246 -0.03858693 0.0356647
000170 59 3c 8b bc f8 04 1c 3c e1 6a 2c bd 8b 14 02 3d
       -0.01699655 0.009522669 -0.042094115 0.031757873
000180 58 e7 46 bd fb 44 7e bc f3 6d 5b 3c cc 28 98 bc
       -0.04856047 -0.015519376 0.013392913 -0.018574141
000190 d1 e5 55 bb e3 d9 4c 3c cc 12 5c bc 90 37 9e bb
       -0.0032638202 0.01250312 -0.013432216 -0.004828401
0001a0 99 42 3a 3c cc 81 b5 bc ed 71 a5 3a b8 3a 79 bd
       0.011368417 -0.022156619 0.0012622454 -0.060847014
0001b0 48 8f 6c 3c 3d 7c fb bc cb 54 e4 bc b1 69 02 3d
       0.014438458 -0.03069889 -0.027872464 0.031839076
0001c0 76 60 c9 3c c6 7a 12 3d 19 dc 60 bd df 7c 2c bd
       0.024582129 0.035761617 -0.0548974 -0.042111274
0001d0 90 7c 22 3c 6b ab 19 3c 51 dc 01 3b 70 26 a4 3c
       0.009917393 0.009379248 0.0019815157 0.02003786
0001e0 fb 74 a9 3c 42 c2 9e bb 11 00 fb bc 32 7c db bc
       0.020685663 -0.0048449347 -0.03063968 -0.02679262
0001f0 88 2f 4a bc fe 5e 5e bd bb c1 30 3c f9 9d 5c bc
       -0.012340434 -0.05428981 0.010788376 -0.013465398
000200 2b fd 1c bd 50 e3 1d 3d 22 5d 60 3b b8 24 b1 bb
       -0.038327377 0.03854686 0.00342352 -0.0054059885
000210 cb 3d 7a bd 32 02 c6 bc e8 45 9c bc e1 a3 40 3c
       -0.061094087 -0.024170969 -0.019076303 0.011757822
000220 ce c3 20 bd 4d 98 8f 3c 28 bf 60 3c 98 71 d8 3a
       -0.039249234 0.017528677 0.01371745 0.0016513346
000230 18 93 99 3c b8 68 0e ba d0 bb f2 3c f1 c5 c8 3c
       0.018746898 -0.00054324744 0.029630572 0.024508448
000240 86 ce 86 3b 13 45 8f 3c 1f b3 fa bc db 6d 31 bd
       0.004113975 0.017488992 -0.03060299 -0.043317657
000250 72 3f 26 bd b1 e6 fb 3c 7b e6 61 bd 8a 03 bf bc
       -0.04058785 0.03074965 -0.055151444 -0.023317117
000260 2d 39 2d bd d2 1f 35 39 c8 0a c2 ba c8 6a 0d bd
       -0.042290855 0.00017273359 -0.0014804238 -0.034525663
000270 39 fc 8c 3c c3 d6 1c bd d3 0f 35 bd 30 74 13 38
       0.017210113 -0.03829075 -0.044204544 3.515574e-05
000280 f8 36 1a 3d 9d 59 0a 3d ea fb 7f bb ba bf 3f bc
       0.03765008 0.033776868 -0.0039060065 -0.011703426
000290 b5 ca 26 bd cf ca 60 bd 03 1c 1d 3d d4 e2 73 bc
       -0.04072066 -0.054880913 0.038356792 -0.014885623
0002a0 7d 93 01 bd f1 6d 85 3b 64 fb 1f 3b c1 fe ad bc
       -0.031634796 0.004071944 0.0024411315 -0.02123964
0002b0 c7 87 a7 3b 60 09 fb 3c 04 e7 27 bd ad 94 83 3c
       0.0051126215 0.030644119 -0.040991798 0.016062105
0002c0 45 c1 70 bd a5 3e 94 3b 49 fb ba 3b a5 6e d2 3c
       -0.058778066 0.0045240694 0.005706225 0.025687525
0002d0 29 88 5f 3c b7 9b a3 bc 6d 53 6a bc 6c 1f 7e 3c
       0.013643303 -0.019971712 -0.014302117 0.015510421
0002e0 f6 c6 ac bc 63 24 10 bd 12 66 02 bc df d9 47 bd
       -0.021090966 -0.03519095 -0.007958906 -0.048791762
0002f0 43 69 13 bd 0a c5 1c 3c 90 54 20 bd 9a 89 c3 3c
       -0.035989057 0.009568462 -0.039143145 0.023869324
000300 3f 04 2b bd 1c ec 2c bd eb 5b cf bb 3f ce 1a bd
       -0.041752096 -0.04221736 -0.006328096 -0.037794348
000310 e5 db e4 bc a1 24 62 bd 4a dd 4f bc 67 2d 6a bc
       -0.027936885 -0.055210713 -0.012687037 -0.014293051
000320 71 ea 20 ba 5b 8c 32 bc 73 34 c8 bc 00 e2 08 3d
       -0.000613845 -0.010897721 -0.024439072 0.033418655
000330 ad c4 6b bd 10 29 a5 3c 49 9a 27 bc 7c 79 00 3d
       -0.05756061 0.020161182 -0.010229656 0.031365857
000340 0d ca 11 bd e4 a7 14 3c 63 86 c7 ba c5 32 26 bd
       -0.03559308 0.009073231 -0.0015222545 -0.04057576
000350 05 c5 09 bc e3 b4 e5 3c 27 7f 10 bd ed 48 a3 3c
       -0.0084087895 0.028040355 -0.035277512 0.019932235
000360 5c 2d f3 3c ea 25 53 bd 67 0d a3 3c 06 ec 06 3c
       0.029684715 -0.05154983 0.019903852 0.008234983
000370 bf 8e 8b bc d4 21 a0 bc 69 ba 74 3c 5a 81 25 bd
       -0.01703584 -0.01954738 0.014937022 -0.040406562
000380 c2 33 10 3d 64 86 0a bd ee ad d3 3b e9 f5 40 bc
       0.03520561 -0.03381957 0.006459943 -0.01177738
000390 29 15 65 bd 0e 12 6b 3c 90 f5 b9 3b 12 97 73 bd
       -0.055928383 0.014347566 0.0056750253 -0.059470244
0003a0 98 0b 8c 3c 06 fe 29 3d 58 88 06 bd 45 c9 d6 3b
       0.017095372 0.04150202 -0.03284487 0.006554755
0003b0 54 b7 3d bd 5c 07 89 3c 57 63 ae 3c 47 4b 27 bd
       -0.046317413 0.016727142 0.021287603 -0.040843274
0003c0 cb 55 27 3d 15 8c 59 bb 52 70 71 bd 75 8e 63 bd
       0.040853303 -0.0033195068 -0.058945008 -0.05555578
0003d0 24 5f 7a bc ea 72 1a bd 8a c2 65 bd f3 f7 dd bc
       -0.015281472 -0.037707247 -0.05609373 -0.02709577
0003e0 fc 3a 24 bd ac 05 05 bd c0 47 58 bc 5b fb e9 bc
       -0.040095314 -0.032476112 -0.0132007 -0.028562238
0003f0 6b 7b 69 3c 80 46 2e bb fe cc f1 3b 48 2d 91 bc
       0.014250617 -0.0026592314 0.0073791733 -0.017721787

l2.bias f4 [128]
000000 ce c2 59 bd b4 64 99 bb 02 af 29 bc 2d a4 7a 3c
       -0.053164296 -0.004681194 -0.0103566665 0.015297932
000010 e1 7b 9e bc f0 b7 da bc 48 2d 80 3c d8 6d 08 3f
       -0.01934618 -0.026699036 0.015646592 0.5329261
000020 47 34 fc 3b 54 03 5a bd 21 f5 eb bc 35 01 01 bd
       0.0076966616 -0.05322583 -0.02880341 -0.03149529
000030 25 8d 22 3d fa 4e 86 bd 85 80 90 bd 10 e7 bb bd
       0.039685387 -0.06558032 -0.07055763 -0.09174931
000040 3c 32 6c bd 64 94 f9 bc 4e 82 57 bc 6a 32 d4 bc
       -0.057665095 -0.030466266 -0.013153626 -0.025902946
000050 4b 5f 8b 3c 88 8c 64 bd bb 32 7a 3c f3 44 0d bd
       0.017013213 -0.055798084 0.015270884 -0.034489583
000060 d4 b0 2b bd 44 14 4b 3c fc 7c 4f bd c1 8f 2e bd
       -0.041916683 0.012394968 -0.050656304 -0.042617563
000070 2b 26 56 bc 62 67 af bb 3b 65 1d bd 46 bb 7a bd
       -0.013070623 -0.0053529004 -0.03842662 -0.061213754
000080 b2 7f 3f bc 38 02 03 bd fd 9b 1f 3c c2 4f 8c bc
       -0.01168816 -0.031984538 0.00974178 -0.017127875
000090 12 e6 5a bc d7 40 97 3c 84 a6 4d 3c bf f9 60 bc
       -0.013360517 0.018463535 0.012551907 -0.013731419
0000a0 d0 44 36 bd 9e cf 8c bc ae 93 ad bc 07 12 a5 b8
       -0.04449922 -0.017188843 -0.021188583 -7.871171e-05
0000b0 82 a1 ad 3a a9 1f 96 bd f9 af a4 bd 02 24 47 bd
       0.0013246986 -0.073302574 -0.080413766 -0.048618324
0000c0 d7 41 95 bd 49 b0 21 bd a3 43 2c bd 95 38 f2 bc
       -0.072879486 -0.03947476 -0.04205669 -0.029567996
0000d0 8f 09 0d bc 3b 80 07 3c 6f 53 60 3c 16 8f b5 3b
       -0.008608236 0.008270319 0.013691767 0.005540739
0000e0 04 d4 a7 3c 00 3a 4c bd 6e 4c d9 bc ef 37 c2 bb
       0.02048684 -0.04986 -0.026525702 -0.005927078
0000f0 6d 25 55 bb e0 90 05 bd 26 a0 29 bd 2a 5f 9a 3c
       -0.0032523528 -0.032608867 -0.041412495 0.018844206
000100 7b ff 11 3c 97 5d 31 3d fa 59 c6 bc 39 de 0d bd
       0.008911009 0.043302145 -0.024212826 -0.034635756
000110 2e 02 17 bd b9 b1 5e bd 77 dd 8b 3c 76 13 02 bd
       -0.036867313 -0.05436871 0.017073376 -0.03175684
000120 c1 ca 23 3d f3 a0 c2 3c b0 90 fc bd 22 49 43 bd
       0.039988283 0.023758387 -0.123322845 -0.047677167
000130 3d 50 70 3b 69 62 14 3d 59 08 c6 bc 5d 56 47 bd
       0.003666892 0.036226664 -0.024173902 -0.048666347
000140 9b 14 3b bc dc 88 01 bc 97 27 75 3b 28 57 05 bd
       -0.011418487 -0.007906165 0.003740763 -0.03255382
000150 1b c3 ff bc 8e eb 8c bf d1 09 e8 bc 5d 36 96 3c
       -0.031220963 -1.1009386 -0.028324993 0.01833647
000160 83 98 45 bd d3 71 08 bd 76 36 44 bd 28 67 14 bd
       -0.04824115 -0.033311676 -0.0479035 -0.03623119
000170 3b f7 a2 bc a5 0f 8a bb 98 52 36 bd 3d ca 19 bd
       -0.01989328 -0.0042132908 -0.04451236 -0.037546385
000180 cd 71 b9 bc 3a 91 7b bd b4 6b d1 3c 80 ee 89 3c
       -0.022637272 -0.061417796 0.025564052 0.016837358
000190 c2 ab 4b bd 0e a3 8d bd 6c ba 5e bc eb be 88 3c
       -0.049724348 -0.06915866 -0.013594251 0.0166926
0001a0 ec 6c 04 bd 4f 7c 6e bc c2 63 b0 bc 8a b0 62 3c
       -0.03233044 -0.014556005 -0.021531943 0.0138360355
0001b0 c6 e4 65 3c a0 b1 5a bd eb ec f3 bc 0a 88 56 bd
       0.014031595 -0.053392053 -0.029776057 -0.05237583
0001c0 22 15 fe 3a 8d 87 c9 bc 3c 0d 48 3c 14 f2 bc bc
       0.001938496 -0.024600768 0.012210187 -0.02306465
0001d0 22 5f a4 bc ad c5 1f c0 61 aa 84 bc 28 ad 69 bd
       -0.020064894 -2.4964402 -0.016194524 -0.0570499
0001e0 45 1a 41 bd f6 00 e9 bc b6 02 6b 3c 98 a0 07 bd
       -0.047144193 -0.028442841 0.014343908 -0.03311214
0001f0 98 af a1 bc 7d ea 72 bd 5b af f8 bc ea a4 b5 bc
       -0.01973705 -0.059305657 -0.030357054 -0.022173364

l3.weight f4 [64, 128]
000000 0a 51 61 bd 74 21 00 bd ef 1b 6d 3d 45 d9 81 bd
       -0.055008925 -0.031281903 0.057887968 -0.06340269
000010 96 56 33 3c b7 16 b2 3d 6f 65 05 bd 80 67 72 3d
       0.010945937 0.08695739 -0.032567438 0.059180737
000020 88 bf b5 3d 40 bd 8c bd d5 33 4b bd 25 dd 04 ba
       0.08874422 -0.06872034 -0.049609978 -0.00050683535
000030 30 1c fc bc 1a f3 2a 3c b6 a8 16 bd ea 82 28 bb
       -0.03077516 0.0104339365 -0.03678199 -0.0025712796
000040 b9 c9 1a bd f6 a4 92 3d 3f 33 a0 3d b3 b2 a1 bd
       -0.037790034 0.0716037 0.078222744 -0.07895412
000050 38 65 43 3c 2b 7b 9e bc 88 07 be bc 11 7a 77 bd
       0.011925988 -0.01934584 -0.02319695 -0.060419146
000060 1e c2 eb 3d 00 59 4d 3d b8 5f 5a 3c 76 c6 8c bd
       0.11511634 0.050133705 0.013328485 -0.06873791
000070 59 f6 ab bb 85 bf 1e 3d 0f b0 ca bc 65 27 68 3e
       -0.005247873 0.038756866 -0.024742154 0.22671278
000080 fa 77 e1 bc 34 d3 92 bd d1 31 74 bd a0 08 81 bd
       -0.02752303 -0.0716919 -0.05961782 -0.06300473
000090 fe 85 71 bd 33 b6 da bc 7c e4 52 bc 5c 8c c1 3d
       -0.058965676 -0.026698207 -0.012871858 0.094505996
0000a0 8c ba 97 3d 69 dd 8d 3d 40 1c 9e bd b3 eb 12 bd
       0.07408628 0.06926996 -0.07720232 -0.03586931
0000b0 ba 7b 1f 3c fb be 05 bd 8f 04 f5 3e 40 65 4a bb
       0.009734089 -0.032652836 0.4785504 -0.0030883104
0000c0 76 a5 ab bc b5 5f 8e 3b 54 28 47 3d 4c e7 cf bc
       -0.020952921 0.0043449053 0.048622444 -0.025378846
0000d0 f3 d6 0f 3d ef 18 8d 3d b8 94 1f bd 6a 6f 84 3d
       0.0351171 0.06889521 -0.03896019 0.06466563
0000e0 88 4c 80 3d 3c 47 18 3d cb 37 55 3c e8 07 e4 3c
       0.06264597 0.03717731 0.01301379 0.027835801
0000f0 21 47 85 3d 2f 04 12 3c 6d 8a 22 3d 0a f4 11 bd
       0.065077074 0.00891213 0.039682794 -0.035633124
000100 cd a7 64 bc 8c d2 66 3d c8 00 5c 3c 37 2b 6c bd
       -0.013956022 0.056353137 0.013427921 -0.0576584
000110 59 7a 7f bd 41 c3 6f bd d9 3a 88 bd fa 96 18 3c
       -0.06237254 -0.058535818 -0.06651849 0.009313339
000120 9d ff e2 3d c8 a4 90 3c 38 1c d2 3d 61 21 cb 3d
       0.110839106 0.017656699 0.102592885 0.09918476
000130 93 36 39 bb 19 9e af 3c e4 17 1f 3d 73 e0 0b bd
       -0.0028261289 0.021437692 0.038841143 -0.0341496
000140 d0 7e ce 3d 17 71 64 3d 26 86 8a 3d 27 87 07 bd
       0.10082781 0.055771913 0.06763868 -0.033087876
000150 95 6f ec bc 92 31 9e 3c bb 73 48 bd 8b fd 09 3d
       -0.0288618 0.019310746 -0.048938494 0.033689063
000160 4a ca 90 bd 1d d4 66 ba f1 4c a3 3d 54 d7 9f bd
       -0.070698336 -0.0008805411 0.0797366 -0.078047425
000170 3a 1d 06 bd a6 f5 43 bc c9 6a 80 3c 7b 0e 22 3e
       -0.032742716 -0.011960423 0.01567592 0.15825836
000180 a8 7e 95 3d 49 f8 2f bd 92 5e b0 bd 8d 2e 45 3d
       0.072995484 -0.042961393 -0.08611788 0.048140097
000190 92 24 86 3e 9e 9e 9d bd 6d 3e 50 bd bc 41 a6 3d
       0.26199776 -0.076962695 -0.050840784 0.081180066
0001a0 d4 e7 40 3d 32 6d 6d bd d4 4e 05 3d 0c e9 8b bd
       0.04709609 -0.057965465 0.03254588 -0.068315595
0001b0 ac 01 3d b8 0d b2 54 39 55 78 15 3c a6 55 d8 3c
       -4.506267e-05 0.00020284225 0.009122928 0.026408028
0001c0 2d 21 19 3d 05 9c 90 3c ba 58 4c 3d 3c 8f c1 bc
       0.037385155 0.01765252 0.049889304 -0.02362787
0001d0 b1 6f a9 bd 50 8e 81 bd 80 b7 78 3d b6 1a 09 bd
       -0.082732566 -0.06325972 0.060721874 -0.03347274
0001e0 97 d1 80 3d 84 80 c0 bb de 9e be bc 6a 01 88 bc
       0.06289976 -0.0058746953 -0.023269113 -0.016602237
0001f0 74 a3 b5 bc 32 b7 2d 3d 73 1c ca 3d e7 49 9d 3b
       -0.022172667 0.042411037 0.098687075 0.0048000696
000200 6a ff 00 bd 3f 90 42 3c 5a ea 24 bd 44 16 d9 bc
       -0.03149358 0.011875211 -0.040262558 -0.026499875
000210 68 87 d3 bc f3 48 3d bb a4 05 33 3d 27 21 c2 3d
       -0.025821403 -0.0028882592 0.04370655 0.094789796
000220 0a cd 25 bd 4d 09 20 3d e4 69 6d bd 72 ba 46 bd
       -0.040478744 0.03907137 -0.057962313 -0.04851765
000230 08 92 a5 bc 80 ba 86 3d 2d 39 2b 3d ae 20 c1 3d
       -0.020211235 0.06578541 0.041802574 0.09430061
000240 28 3c d5 3c 26 ac 35 bd 23 f5 30 3d 92 0c 3f bd
       0.026029661 -0.044353627 0.04320253 -0.046642847
000250 c6 9f 21 bd 5f 11 39 3d 9a 36 f3 3c 9d 92 74 bd
       -0.039459012 0.045182582 0.029689122 -0.059710134
000260 de 38 cb bd c5 33 c3 3c ff bb e4 bb ad 7b e0 3c
       -0.09922956 0.023828397 -0.0069804187 0.027402723
000270 7c 5b 42 3d 7d 65 b2 3d 80 3e 99 bd dc 78 96 bd
       0.047450528 0.087107636 -0.07482624 -0.07347271
000280 56 f9 66 bd ba c8 a7 3b 1e 16 81 3d 43 da 31 bc
       -0.05639013 0.005120364 0.06303047 -0.01085526
000290 c3 c4 6f 3d 52 19 6e 3d 1c 7f d7 bd b8 29 1c bb
       0.058537256 0.058129616 -0.10522291 -0.0023828577
0002a0 cb 3f 7f bd 3b 72 ad bc 7a e1 1c bd c5 7f 02 bd
       -0.062316697 -0.021172633 -0.03830097 -0.03186013
0002b0 f8 b1 a2 3d 48 c1 f7 3c 6a a2 12 3e 08 d4 24 bb
       0.07944101 0.03024353 0.14319769 -0.0025150795
0002c0 69 29 68 bd 5c de 79 bd c5 51 0e 3d b6 0c f4 3b
       -0.056680117 -0.061003074 0.03474595 0.0074478043
0002d0 13 3a ef bc c7 6e 8e 3d 96 20 4b bc 8d cd ac 3c
       -0.029202497 0.06954723 -0.012397906 0.021094108
0002e0 ab 9a 1a bc bb c2 95 3b 94 10 e5 3c b7 1a 8e bd
       -0.00943629 0.004570333 0.027962007 -0.06938689
0002f0 90 a7 d9 3d 48 73 88 bc 0f 54 85 bd 2d 4d 80 bd
       0.10627663 -0.016656533 -0.065101735 -0.0626472
000300 fe c1 58 3d 1d db ad ba 94 08 0b bd 1e 5e 21 3d
       0.05291938 -0.0013264153 -0.033943728 0.039396398
000310 63 66 cd bc b4 ac 39 3c 2d 8f 15 bc 2c 8b 33 3d
       -0.025073236 0.01133268 -0.009128374 0.043833897
000320 be bc 3e 3c 84 67 f6 bc 0a 9c 91 bc 0b 32 b7 bd
       0.011641679 -0.030078657 -0.0177746 -0.08945092
000330 d1 9f 3c bd b0 06 61 bc c3 04 43 3d 2c 91 d9 3c
       -0.04605085 -0.013734505 0.047611963 0.026558481
000340 23 b1 d5 3c 7f 9c cd bc cc 84 01 bd 0e d0 92 3c
       0.026085442 -0.025099037 -0.031620786 0.017921474
000350 09 75 ef bc b1 b9 09 be 6b af 98 bb ea fb a9 3d
       -0.029230611 -0.13449742 -0.0046595833 0.08300002
000360 f0 5e 50 3d 42 33 aa bd 67 f0 ba bc f2 97 96 bd
       0.05087179 -0.08310558 -0.02281971 -0.073532
000370 d5 04 ae bc 79 7d 85 3c d4 9e 71 bc d3 b9 48 3e
       -0.021242538 0.016295182 -0.01474734 0.19602136
000380 e1 e6 a7 3d ba 54 8c bd 29 1a fa 3c 15 b5 5d bb
       0.081983335 -0.06852098 0.030530052 -0.0033829857
000390 2e b5 4d 3d 12 6c 2a bd 3a 58 3c bc 12 48 ad bd
       0.050221615 -0.04160697 -0.011495644 -0.08461012
0003a0 70 d7 27 3d f5 35 3a 3d c3 76 6b 3d e9 cb b9 bc
       0.04097694 0.045461614 0.057486307 -0.02268024
0003b0 5a b9 16 3d ce d1 43 3d d4 9e 15 3d a0 89 74 ba
       0.03679786 0.047807507 0.036528423 -0.0009328369
0003c0 35 2f d9 3c 90 12 25 bd 33 14 b4 bb 0b 41 98 bc
       0.026511768 -0.040300906 -0.005495572 -0.018585702
0003d0 80 4e 20 bc 18 f3 1f bd 1d fd f4 3c 3c cf cf 3c
       -0.009784341 -0.03905019 0.02990585 0.025367372
0003e0 56 77 30 bc cc 44 9a bc 1a 3b cd bd a6 9e 2a 3b
       -0.010770639 -0.018831633 -0.10021038 0.0026034503
0003f0 1d ec 9f bd 1d 5c 82 bd 90 61 ad bd 16 2b 4b bc
       -0.07808707 -0.063652255 -0.08465874 -0.012400409

l3.bias f4 [64]
000000 86 2d 89 bd 43 10 ce 3f 5f 71 c2 bf 19 32 1b be
       -0.06698136 1.6098713 -1.5190848 -0.1515583
000010 23 0d 87 be 18 1a 94 bf 9e 82 f5 be d1 37 cf 3f
       -0.2637721 -1.1570463 -0.47951216 1.6188909
000020 c8 d0 7c 3f b8 91 9a 3e ba 68 4c bf c6 34 60 3f
       0.98756075 0.301893 -0.798473 0.87580526
000030 e8 0f 82 bf f9 2b 9f bf 09 5f 8f 3f db 13 c6 3f
       -1.0161104 -1.2435294 1.1200877 1.547481
000040 e6 c7 c0 3f 8c 44 84 bf e5 50 91 3e ce 7e 9a bf
       1.5061004 -1.0333419 0.2838203 -1.2069948
000050 76 a6 50 3f 5c 02 63 bf 1a 4e 9b be e1 13 33 3e
       0.81504 -0.88675475 -0.30333024 0.17488052
000060 c8 4f b6 3f 3b a1 3f bf 93 8b 01 3e cd d3 3b 3c
       1.4243097 -0.74855393 0.126509 0.011464071
000070 61 12 aa be da 6f b4 3d 94 b5 b0 3f 51 19 05 bf
       -0.33217147 0.088103965 1.3805413 -0.51991755
000080 9f 71 93 3e 15 5a 51 3f 94 29 41 be 13 45 c0 3e
       0.28797624 0.8177808 -0.18863517 0.375527
000090 2f 35 d2 3f af f7 c1 bf df fc 05 3f 58 2e ba 3f
       1.642248 -1.5153712 0.52338976 1.4545393
0000a0 6d b4 3b be d2 b2 b1 3f 62 69 ca 3f 57 c8 ec be
       -0.18330546 1.3882697 1.581341 -0.46246597
0000b0 f8 09 cb be 7a 52 be 3f 8d 09 f4 3d a6 1f 16 bf
       -0.39656043 1.486892 0.11915884 -0.5864204
0000c0 f0 ea ea 3f e1 d8 cc bf 93 71 c7 3f dc 40 f1 3f
       1.8352947 -1.6003686 1.5581535 1.8847919
0000d0 6d f9 1b bf 84 e9 de 3f 35 3a d2 be cb f8 91 bf
       -0.6092747 1.7415013 -0.41060033 -1.140405
0000e0 db 11 9c 3f 12 40 9c be 35 f6 b6 3f af 37 d5 3f
       1.2192949 -0.30517632 1.4293886 1.6657618
0000f0 a1 23 4c bf 92 ab 88 3f f9 13 da 3f 1d 0a 7a be
       -0.79741865 1.0677359 1.7037345 -0.2441792

out.weight f4 [3, 64]
000000 52 8e 02 bf 7a 68 be be b9 d7 ed be 0a 74 07 3e
       -0.50998414 -0.37189084 -0.46453646 0.13227859
000010 89 26 d9 bd ab d2 88 be d5 e8 26 be 47 e1 15 3d
       -0.10603053 -0.26723227 -0.16299756 0.036591794
000020 cb 64 cc bd 61 03 02 bd 15 7f d8 bd fd 33 7b be
       -0.09980162 -0.031741504 -0.10571114 -0.2453155
000030 af b5 65 bf 1a 18 b7 be 3b 98 22 be 10 41 f4 3d
       -0.8973035 -0.35760576 -0.15878384 0.11926472
000040 09 91 11 3e 92 37 71 3b 5c f4 05 bf 4a c0 91 bb
       0.14215483 0.0036806804 -0.5232599 -0.0044479715
000050 4e 99 e3 bd b3 fa 9e 3d dc 9a 84 3d 1a 24 84 3e
       -0.11113225 0.07762661 0.064748496 0.25808793
000060 5e 64 4e be f7 f6 b5 bf ef 4d ab bd ec 6e a5 bd
       -0.20155475 -1.4215993 -0.08364474 -0.08077797
000070 59 37 b3 bd e8 da 59 be 23 cf 44 c0 2e ed a4 3d
       -0.08750791 -0.21274912 -3.0751426 0.08053051
000080 86 e6 25 c0 b7 53 53 3e 92 ba 7e be 30 18 63 be
       -2.592195 0.20637403 -0.24875858 -0.22177196
000090 74 4f 6d 3e eb 4a 14 be 47 c7 d8 bf b6 ed 93 be
       0.2317484 -0.14481704 -1.6935815 -0.28892297
0000a0 ee 97 2b be f9 5e c1 bf e7 61 52 bf cc d1 6d bc
       -0.16757175 -1.5107108 -0.8218064 -0.0145153515
0000b0 f4 63 84 bd 2e d1 39 c0 db 61 df bd 60 db ae be
       -0.06464377 -2.9033923 -0.10907336 -0.34151745
0000c0 b3 c2 f6 3d 01 58 94 bf c8 1c 00 bf 70 93 48 3e
       0.12048855 -1.1589357 -0.50043917 0.19587493
0000d0 ef 86 8a 3b 93 c1 27 be 9a 36 4b be 7f c1 8b be
       0.004227511 -0.16382436 -0.19845048 -0.27296063
0000e0 56 71 9d be 41 57 3d bd 9e f6 d4 be 20 b4 bb 3e
       -0.3075053 -0.04622579 -0.41594404 0.36660862
0000f0 16 52 4b be 5e e2 8c be b7 e7 72 bf 6b 5d a8 bd
       -0.19855532 -0.27516454 -0.9488482 -0.08220943
000100 d4 19 68 be a6 6f af 3d 4f 52 2d 3d 3d d3 b2 bd
       -0.22666103 0.08566217 0.042314824 -0.08731697
000110 35 65 85 be 69 3a b6 bd 08 dd 98 be be a7 e3 3d
       -0.26053777 -0.088978596 -0.29856133 0.11115979
000120 93 40 71 be 06 06 ac bd f7 e5 e7 bd b8 73 9d be
       -0.2355979 -0.083995864 -0.11323159 -0.3075235
000130 0a b6 48 3e 89 15 a0 bd b8 b1 0e bf b2 d9 21 3f
       0.19600692 -0.078166075 -0.5573993 0.632228
000140 51 44 fb 3d 23 da 23 be 45 33 e9 be 8a 13 ca be
       0.1226889 -0.16001181 -0.45546928 -0.39468032
000150 50 e4 26 3c 10 f9 8a be 7e 2c ae 3d 0c 4a b1 be
       0.01018627 -0.27143145 0.0850458 -0.34626806
000160 75 26 e9 be 8b d0 1f 3e 71 3a e2 bd ad 99 47 be
       -0.45537153 0.15606897 -0.11046303 -0.19492216
000170 ac cc 9b bd 5d 5d 15 3e df 27 38 bf f9 33 7f 3d
       -0.076073974 0.14586397 -0.7193584 0.062305424
000180 25 45 76 be 8f d0 40 bd 26 97 3d be 54 83 6a be
       -0.24049814 -0.047073897 -0.1851469 -0.2290166
000190 7c e7 25 3f 03 32 61 be 40 a8 b9 bd c1 31 09 bf
       0.6480634 -0.21991734 -0.09065294 -0.53591543
0001a0 fb 0c 88 3d 7e 8c 69 bf 4b a6 48 3e ea 18 8a 3c
       0.06643101 -0.9123 0.19594686 0.016857583
0001b0 c1 aa 96 bd 8a 5d b3 be a6 1b ea bd 99 3b 9b 3e
       -0.073567875 -0.35032302 -0.11431055 0.30318907
0001c0 05 02 ad 3f 3f 97 7b 3e 97 8a 01 3e 87 9e 9d 3f
       1.3516241 0.24569415 0.12650524 1.2314004
0001d0 6f df 25 bd 4b 2e 25 3e a0 d8 74 bc d2 2f 76 be
       -0.040496286 0.1613094 -0.014944226 -0.2404168
0001e0 46 e5 c5 3d d6 c4 ac bb 8e c7 a2 be 00 cc b8 3e
       0.09662871 -0.005272488 -0.31792873 0.3609314
0001f0 45 e1 20 3d e1 a0 29 be e6 92 d8 3d ce 67 89 be
       0.039277334 -0.16565277 0.10574894 -0.2683701
000200 0b ed 72 be ce 97 3c 3e a4 1d 44 3e c0 f2 0c c0
       -0.23723237 0.18417284 0.19151932 -2.2023163
000210 e1 61 6c bd d8 0c dc be 92 46 b6 3d 18 b0 a5 bd
       -0.057710532 -0.4297855 0.08900179 -0.08090228
000220 41 de 93 3e bf 98 a8 bc c9 b5 0a be bd 45 fd 3e
       0.28880504 -0.020580648 -0.13545908 0.4946727
000230 8d 6e 29 bf a2 98 56 3d 0f b3 40 3f 76 16 de be
       -0.6618431 0.052391656 0.7527322 -0.4337651
000240 38 77 91 be 07 47 51 3e 2b 32 51 be d5 a1 b5 3e
       -0.2841127 0.20437251 -0.20429294 0.3547503
000250 03 d7 f4 3b 3d ba 18 3e 90 9b 8b 3d 4b d8 2a bf
       0.0074719205 0.14914794 0.068167806 -0.66736287
000260 07 8a 26 3f df 0e 76 be e6 8b a8 be 99 fc 47 be
       0.65054363 -0.2402911 -0.32919234 -0.19529952
000270 76 c9 c0 bd c1 1d ea be d1 02 8e 3f a0 88 1c bf
       -0.094134256 -0.45725825 1.109461 -0.61145973
000280 fa 06 33 3e 7a 93 b9 3e e0 34 8a bf 51 46 4d 3c
       0.1748313 0.36245328 -1.0797386 0.012528972
000290 50 5a 50 bf 87 75 42 3e 70 16 d1 be 78 0e 4b 3f
       -0.81387806 0.18990146 -0.4083743 0.7931895
0002a0 32 9a 8a bc 72 df 9b 3e 28 8c 6d 3c b9 d5 cc bb
       -0.01691923 0.30443913 0.014498748 -0.0062510637
0002b0 60 fd 53 bf fe 79 47 3f fc 7d 20 bd cd c0 8d be
       -0.82808495 0.7792052 -0.039182648 -0.27686158
0002c0 a6 93 a5 bf fd 8a 07 be 5b 9a 68 3c 63 f8 9f bf
       -1.2935684 -0.13236614 0.014196957 -1.2497677
0002d0 31 60 08 3e 4a fd 32 be 58 ec c5 3d 88 03 45 3e
       0.13317944 -0.17479435 0.096642196 0.19239628
0002e0 0c bc d5 3d 7c 07 38 bd 86 aa 88 3e 2e 70 87 be
       0.10436258 -0.044929013 0.266926 -0.26452774
0002f0 4e bf c4 3c 2c fb f0 3d d7 f6 1f bd 19 3b 4c bf
       0.024017002 0.11766657 -0.039053764 -0.79777676

out.bias f4 [3]
000000 6b 02 d0 be c8 ea 97 3f af 79 8b bf
       -0.40626845 1.1868525 -1.089651
