server/models/stunting_model_v1.pth (torch, 459512 bytes, 8 tensors)

l1.weight f4 [512, 77]
-0.11273884 -0.13668399 -0.021141535 -0.076141 -0.16472581 -0.007482947 -0.06986781 -0.20617343
-0.014484769 -0.058935642 -0.14060438 0.019392306 0.091615364 -0.037271526 0.059877917 0.002949146
0.08904613 0.31257018 -0.13235109 -0.1342767 -0.09676424 -0.15733896 -0.10126741 0.2710179
-0.053210236 0.23566806 -0.11604903 0.10151819 -0.1593681 0.21739104 0.38584077 -0.15326925
-0.23633794 -0.03048349 0.0022658145 -0.14533496 -0.097868405 -0.07592934 -0.095960364 -0.060685087
-0.16368471 -0.014381182 -0.12315513 -0.10505372 -0.011960497 -0.13926841 -0.06452867 -0.111818895
0.03928143 -0.07444682 -0.048882704 -0.05853854 0.019432638 -0.031927366 -0.07046747 0.011644371
0.15467872 -0.009395768 -0.286779 0.00057599304 -0.121321455 -0.026221015 -0.0028697557 0.09249742
0.06344013 0.007293949 0.0038575197 -0.04896827 0.1295038 -0.016694793 -0.2186893 -0.25440222
0.093274266 -0.11648243 -0.055092517 -0.0014472135 1.3533304 -0.12507726 0.03452322 0.0136156855
-0.08168523 0.07128819 -0.0124015035 0.03770443 0.059558474 -0.08703029 -0.045272887 -0.13417114
-0.08768887 -0.09585653 0.012719435 -0.11629824 -0.14820437 0.008277116 -0.16227801 -0.01682002
0.124376476 0.06996282 0.11070321 -0.0054120277 -0.17788161 0.0628729 -0.065834336 -0.030730024
-0.02379962 0.06634338 -0.12491125 -0.04358062 0.0030785294 -0.02015772 0.1385922 -0.030596768
0.012676724 0.104074694 0.021515582 -0.074509285 -0.0990085 -0.11320318 0.01815541 0.019873928
-0.019380547 0.021667352 -0.014633437 -0.005661085 0.011120214 0.021042155 0.05657658 -0.06863455
0.043059785 -0.11727648 -0.030612677 -0.1376426 0.052643627 -0.09001252 -0.052978918 0.10843179
-0.058815435 -0.028057909 -0.13408925 -0.0066383393 0.046116225 0.10144601 -0.02437496 0.033346675
-0.057897475 -0.02817841 -0.044457998 0.048094332 -0.02361109 -0.09475006 -0.07245758 -0.12052235
0.090892516 -0.31603563 0.032953683 0.10240836 -0.015307989 0.08545329 0.10903763 -0.07980204
0.041458007 0.0061703115 -0.06257259 0.01509477 0.03613798 -0.08780207 0.09972746 -0.09481687
0.09726123 0.04717456 0.084374234 -0.10195792 -0.042261433 0.067310825 0.02697506 -0.11374257
-0.06904201 -0.105898574 0.0114809135 -0.0015504335 -0.04004999 0.039261192 0.025904657 -0.10021054
0.026764423 0.0358539 0.08925321 -0.015240185 0.03708185 -0.065730885 0.01018292 -0.08340374
0.075713575 0.03301661 -0.046797533 -0.05081775 0.06518661 -0.1050257 -0.018836463 -0.074020416
0.08589205 -0.020682808 -0.011835378 -0.09775831 -0.0012988092 0.029530102 0.049654983 0.10529032
0.09309764 0.1029139 -0.04109591 -0.10867885 0.027399324 0.10704651 -0.034602597 -0.07647412
-0.103057235 -0.064287476 0.03601957 0.056533583 -0.04926662 -0.07951599 0.024183676 -0.08070457
-0.07443172 0.04986581 0.009625344 -0.08219789 -0.07773427 0.052457068 0.010761593 -0.07144109
-0.009854905 -0.007981349 0.03588573 0.017732954 -0.035320327 0.05406198 0.031852473 -0.08942111
-0.0301676 -0.075685345 0.034650035 -0.089825116 -0.016825275 0.108416505 -0.108042024 0.048132956
-0.08760407 0.056787938 -0.08286753 -0.04328721 -0.049618207 -0.0970467 0.06270559 0.080188714
00000000: 9fe3 e6bd e3f6 0bbe 0331 adbc d0ef 9bbd
00000010: e2ad 28be 8233 f5bb db16 8fbd 211f 53be
00000020: 8651 6dbc 8066 71bd 98fa 0fbe 9ddc 9e3c
00000030: d6a0 bb3d 07aa 18bd 8c42 753d 7646 413b
00000040: d15d b63d 3309 a03e 0b87 07be d57f 09be
00000050: 542c c6bd 771d 21be 4a65 cfbd dcc2 8a3e
00000060: faf2 59bd f852 713e 1dab edbd c5e8 cf3d
00000070: 6431 23be c29b 5e3e ec8c c53e 9df2 1cbe
00000080: 9302 72be 83b8 f9bc 0f7e 143b b0d2 14be
00000090: 3b6f c8bd d880 9bbd de86 c4bd ed90 78bd
000000a0: f79c 27be 0d9f 6bbc c238 fcbd 6826 d7bd
000000b0: f6f5 43bc 619c 0ebe 9b27 84bd 4e01 e5bd
000000c0: 91e5 203d 9377 98bd 3b39 48bd 1cc6 6fbd
000000d0: 3231 9f3c 45c6 02bd 4051 90bd 08c8 3e3c
000000e0: 1964 1e3e b5f0 19bc b2d4 92be 3dfe 163a
000000f0: 6277 f8bd 74cd d6bc 8312 3cbb 4a6f bd3d
00000100: e6ec 813d 1402 ef3b 71ce 7c3b f492 48bd
00000110: a59c 043e 85c3 88bc 16f0 5fbe 0241 82be
00000120: 9406 bf3d 578e eebd b1a8 61bd 6db0 bdba
00000130: ee39 ad3f 4114 00be 3868 0d3d 5314 5f3c
00000140: 964a a7bd 8bff 913d ad2f 4bbc f66f 1a3d
00000150: 96f3 733d f03c b2bd 1070 39bd 2964 09be
00000160: 3996 b3bd 6e50 c4bd 2d65 503c c62d eebd
00000170: e3c2 17be be9c 073c 352c 26be 23ca 89bc
00000180: 18b9 fe3d ab48 8f3d 5db8 e23d 6157 b1bb
00000190: 9926 36be 82c3 803d 27d4 86bd 88bd fbbc
000001a0: 6cf7 c2bc 0adf 873d 78d1 ffbd 9881 32bd
000001b0: 27c1 493b ce21 a5bc 1deb 0d3e 13a6 fabc
000001c0: 09b2 4f3c 1d25 d53d 7241 b03c 5398 98bd
000001d0: f8c4 cabd 12d7 e7bd a8ba 943c a6ce a23c
000001e0: f4c3 9ebc bb7f b13c 15c1 6fbc 9f80 b9bb
000001f0: 8f31 363c 9960 ac3c d8bc 673d 4590 8cbd
00000200: 755f 303d a72e f0bd 70c7 fabc 2ff2 0cbe
00000210: d8a0 573d 7c58 b8bd 6c00 59bd 7c11 de3d
00000220: 74e8 70bd b3d9 e5bc b14e 09be 6d86 d9bb
00000230: 5ee4 3c3d edc2 cf3d ffad c7bc 8696 083d
00000240: e725 6dbd 69d6 e6bc 9719 36bd 90fe 443d
00000250: 0b6c c1bc 520c c2bd a464 94bd 6cd4 f6bd
00000260: db25 ba3d 6ccf a1be 71fa 063d 79bb d13d
00000270: 5cce 7abc 2202 af3d 1f4f df3d 406f a3bd
00000280: dfcf 293d 5330 ca3b 0f26 80bd 0e50 773c
00000290: 6b05 143d 92d1 b3bd e93d cc3d 592f c2bd
000002a0: e530 c73d 1d3a 413d 66cc ac3d 50cf d0bd
000002b0: 531a 2dbd 42da 893d cdfa dc3c ddf1 e8bd
000002c0: e665 8dbd 5ae1 d8bd 711a 3c3c ea37 cbba
000002d0: 750b 24bd 58d0 203d 0136 d43c 2f3b cdbd
000002e0: 1041 db3c 8adb 123d 63ca b63d f8b1 79bc
000002f0: 23e3 173d ea9d 86bd 43d6 263c 94cf aabd
00000300: b80f 9b3d 6d3c 073d c5ae 3fbd 4626 50bd
00000310: 8f80 853d b717 d7bd ed4e 9abc 0498 97bd
00000320: 2ce8 af3d fe6e a9bc 2ce9 41bc 8235 c8bd
00000330: ce3c aaba 1de9 f13c 0663 4b3d 74a2 d73d
00000340: faa9 be3d 86c4 d23d 2f54 28bd 0493 debd
00000350: 8c74 e03c 333b db3d 74bb 0dbd 779e 9cbd
00000360: ac0f d3bd 27a9 83bd 4289 133d c28f 673d
00000370: cccb 49bd 48d9 a2bd d81c c63c 7048 a5bd
00000380: a86f 98bd 1740 4c3d 9eb3 1d3c 5e57 a8bd
00000390: 2533 9fbd 39dd 563d 6451 303c b54f 92bd
000003a0: 7876 21bc 34c4 02bc eafc 123d b344 913c
000003b0: 0cac 10bd 1870 5d3d bd77 023d 6a22 b7bd
000003c0: 0b22 f7bc eb00 9bbd 32ed 0d3d 3bf6 b7bd
000003d0: 29d5 89bc 7909 de3d 2345 ddbd 1027 453d
000003e0: c369 b3bd 789a 683d 74b6 a9bd ee4d 31bd
000003f0: 763c 4bbd 6cc0 c6bd ca6b 803d fb39 a43d

l1.bias f4 [512]
-0.029655712 -0.06779579 0.05969129 0.045642685 -0.10406718 -0.029318523 0.03537155 0.055490926
-0.05434045 -0.049964663 -0.0959598 0.008467964 -0.09794911 0.102162085 0.03253942 -0.1139639
-0.04217332 0.07354783 -0.14270854 -0.029784132 -0.18146819 -0.07554258 -0.0077884896 -0.07066079
-0.1476769 -0.13853693 -0.014570906 -0.17209321 -0.026918178 -0.11308276 -0.16353133 0.042205844
-0.039290026 0.09096278 -0.06051702 -0.06765082 0.02473162 -0.10113738 0.054239802 -0.097173095
-0.18228292 -0.15922374 -0.066542864 0.016109861 0.0022629336 -0.07420533 -0.005162869 -0.09848883
-0.095476896 -0.0066154366 -0.06824362 0.010459132 0.06384358 -0.061705098 -0.19641314 -0.17370817
-0.041973557 0.084875785 0.04741656 -0.09070936 0.17249736 -0.17956296 0.037576098 -0.112731315
-0.11664323 0.049736384 0.020860277 0.0014651092 0.034475427 -0.0074217357 -0.085727 0.009490568
-0.16055185 -0.025255663 0.09606281 -0.09670556 0.052399796 -0.052817736 -0.07483632 -0.0700736
0.07502988 0.047045603 -0.16464272 -0.0043982635 0.104057774 0.052352495 -0.15418088 -0.048888426
-0.024491707 0.105947144 -0.022953345 0.0068911402 -0.040453676 -0.026809402 0.03345958 0.0025118282
0.01987464 -0.063818425 -0.020780066 -0.15807876 -0.12947491 -0.08009154 -0.055273578 -0.18427119
-0.088970535 -0.06494819 0.019726124 0.005178377 -0.033619348 -0.15281698 -0.051931806 0.0038176966
-0.1843193 0.012192979 0.030644448 0.0337083 0.025472336 -0.19681571 0.043208364 -0.054533504
-0.026045546 -0.11812339 -0.05825371 -0.084350646 -0.03339002 0.07014708 -0.04918274 0.0030956652
-0.030758053 0.031962868 0.05922104 0.10701765 0.06651575 -0.043910116 0.0112129245 -0.11121889
-0.017788626 0.013943596 -0.016745651 -0.09196388 -0.08128648 0.04924705 -0.03212818 -0.065125026
-0.0149119 0.08211583 -0.052958973 0.014142086 -0.027108358 0.012992667 -0.15219785 -0.16415712
-0.12415272 -0.1338923 -0.0791482 -0.08396206 -0.15573123 -0.006864358 -0.053339284 0.1044315
-0.06875961 -0.08265166 -0.032791805 -0.13195099 0.0030174353 -0.036195464 -0.09256013 -0.072935134
-0.23609892 -0.036553152 0.041313548 0.0035717417 0.021172408 -0.12084258 -0.0021650398 -0.13784194
-0.10778064 -0.007805503 -0.1373782 -0.1486935 -0.030738303 -0.07691079 -0.00057101937 -0.045406044
0.013525682 -0.0014721965 0.051929325 0.012181738 -0.011301422 -0.1466686 0.07018045 0.08462619
-0.009145881 0.019487515 -0.02693073 -0.14144367 0.101801686 -0.030045291 -0.060006727 0.089268975
-0.020411972 0.19620596 -0.059162617 -0.12133516 -0.057404555 -0.05170944 -0.13836505 -0.02394152
-0.030154325 0.071869135 0.04002144 0.08302584 0.05911832 -0.039776314 -0.00038725857 -0.022258092
0.031811174 -0.058622815 0.03895163 -0.07063134 -0.0767469 -0.06110991 0.074123435 0.0780304
0.024830474 -0.20918454 0.034358744 -0.129224 0.09195203 -0.0034430772 0.08688217 -0.016644917
0.015844623 0.013607998 -0.1569775 -0.046524633 -0.0895983 -0.18081349 -0.110419065 0.07160822
-0.18382795 0.026509877 0.031676665 -0.01849292 -0.0066286656 -0.2261402 -0.11760283 0.04558563
0.058760475 0.07486609 -0.017191852 0.014459751 -0.096241176 0.027887255 -0.03064783 0.014332493
00000000: 89f0 f2bc 85d8 8abd db7e 743d d3f3 3a3d
00000010: 2c21 d5bd 662d f0bc c2e1 103d 744a 633d
00000020: 1794 5ebd bfa7 4cbd 9286 c4bd 37bd 0a3c
00000030: 8b99 c8bd 5b3a d13d 0e48 053d e865 e9bd
00000040: eebd 2cbd 3fa0 963d 3022 12be dafd f3bc
00000050: ccd2 39be 11b6 9abd 9636 ffbb 9bb6 90bd
00000060: 9d38 17be a0dc 0dbe cfba 6ebc 3439 30be
00000070: 8383 dcbc ef97 e7bd c274 27be 09e0 2c3d
00000080: 94ee 20bd b24a ba3d b2e0 77bd 838c 8abd
00000090: f799 ca3c 1d21 cfbd 8e2a 5e3d b002 c7bd
000000a0: 60a8 3abe 8c0b 23be a047 88bd d4f8 833c
000000b0: ba4d 143b f7f8 97bd 492d a9bb 83b4 c9bd
000000c0: 6489 c3bd 4ec6 d8bb 50c3 8bbd c75c 2b3c
000000d0: 6cc0 823d 7cbe 7cbd 8720 49be 8ee0 31be
000000e0: 77ec 2bbd 5bd3 ad3d de37 423d d4c5 b9bd
000000f0: 26a3 303e 5adf 37be 65e9 193d addf e6bd
00000100: a5e2 eebd 61b8 4b3d 2ce3 aa3c e808 c03a
00000110: 1b36 0d3d 0832 f3bb a391 afbd 547e 1b3c
00000120: b467 24be f7e4 cebc 94bc c43d 910d c6bd
00000130: 2ba1 563d 6957 58bd c943 99bd bf82 8fbd
00000140: 44a9 993d e4b2 403d 1a98 28be 4f1f 90bb
00000150: 3e1c d53d 926f 563d 98e1 1dbe 3b3f 48bd
00000160: d5a2 c8bc d1fa d83d a708 bcbc 13cf e13b
00000170: c1b2 25bd 649f dbbc ea0c 093d 7c9d 243b
00000180: 24d0 a23c 3cb3 82bd f53a aabc 66df 21be
00000190: 1295 04be 0907 a4bd 8c66 62bd 96b1 3cbe
000001a0: 2f36 b6bd 8e03 85bd ae98 a13c 60af a93b
000001b0: 71b4 09bd 0e7c 1cbe 72b6 54bd 5232 7a3b
000001c0: 33be 3cbe 10c5 473c 110a fb3c b711 0a3d
000001d0: 5cab d03c 0f8a 49be 41fb 303d 865e 5fbd
000001e0: 785d d5bc adea f1bd 719b 6ebd 08c0 acbd
000001f0: f9c3 08bd 46a9 8f3d d773 49bd a5e0 4a3b
00000200: 50f8 fbbc 7feb 023d c391 723d 122c db3d
00000210: 6939 883d 18db 33bd 6ab6 373c bbc6 e3bd
00000220: 74b9 91bc ae73 643c 2d2e 89bc 8f57 bcbd
00000230: 8779 a6bd 46b7 493d d798 03bd 4560 85bd
00000240: 0b51 74bc 582c a83d 82eb 58bd 35b4 673c
00000250: 5912 debc 32df 543c c1d9 1bbe ce18 28be
00000260: c843 febd 101b 09be 7418 a2bd 4df4 abbd
00000270: 0278 1fbe 69ee e0bb 4b7a 5abd 2fe0 d53d
00000280: d7d1 8cbd 4645 a9bd b350 06bd 291e 07be
00000290: 2ac0 453b b241 14bd 2a90 bdbd 045f 95bd
000002a0: eac3 71be c2b8 15bd 6538 293d e213 6a3b
000002b0: c271 ad3c 517c f7bd 57e3 0dbb 7026 0dbe
000002c0: 19bc dcbd 4ec5 ffbb dfac 0cbe 1c43 18be
000002d0: e5ce fbbc 6783 9dbd 76b0 15ba b0fb 39bd
000002e0: d29a 5d3c b8f6 c0ba d8b3 543d ea95 473c
000002f0: 9929 39bc 4b30 16be c5ba 8f3d 7f50 ad3d
00000300: 9bd8 15bc 48a4 9f3c d69d dcbc 9cd6 10be
00000310: 677d d03d 8b21 f6bc 9dc9 75bd a7d2 b63d
00000320: 0237 a7bc 37ea 483e 8054 72bd 927e f8bd
00000330: 0a21 6bbd 47cd 53bd 91af 0dbe 0221 c4bc
00000340: 3406 f7bc 2030 933d 85ed 233d 7409 aa3d
00000350: 0d26 723d 7dec 22bd f708 cbb9 9a56 b6bc
00000360: 6f4c 023d 7a1e 70bd bf8b 1f3d 2aa7 90bd
00000370: 7b2d 9dbd 634e 7abd 07ce 973d 67ce 9f3d
00000380: 4769 cb3c 7934 56be c1bb 0c3d 4c53 04be
00000390: 5951 bc3d 40a5 61bb 47ef b13d ec5a 88bc
000003a0: 95cc 813c 15f4 5e3c b6be 20be 9d90 3ebd
000003b0: 507f b7bd 2c27 39be 6423 e2bd 55a7 923d
000003c0: 653d 3cbe 3e2b d93c 64bf 013d 777e 97bc
000003d0: 4735 d9bb 4c91 67be c1d9 f0bd ffb7 3a3d
000003e0: d3ae 703d 6553 993d edd5 8cbc 97e8 6c3c
000003f0: 181a c5bd d073 e43c 2811 fbbc d5d2 6a3c

l2.weight f4 [128, 512]
0.02098417 0.015432897 -0.042010624 0.034680437 -0.10045082 0.021562707 -0.021508265 -0.02739492
-0.02652356 0.03952173 0.020970222 -0.042683963 0.018309513 0.018626299 0.0027827087 -0.0179866
-0.045423687 0.013062267 0.008850468 -0.0006244951 0.030084725 -0.018602675 0.0187311 -0.041159548
0.023624396 -0.014537345 0.01016913 -0.020812476 0.0107803475 -0.037846033 -0.011392806 -0.0037276621
0.025630774 -0.030992953 0.034433685 -0.008778199 0.0008865695 -0.026768962 0.03492653 0.04065986
0.03029689 -0.01104546 -0.03146136 0.02679138 0.021609252 0.014200621 -0.04028607 -0.021165537
-0.03795646 0.019090319 0.045407638 -0.04011502 0.021331673 0.006050433 -0.0022089153 0.002944715
0.01069608 -0.05169105 0.0019021352 0.021238007 -0.056511812 -0.020089334 -0.018565666 -0.04306314
-0.021153256 -0.040874936 -0.00947011 0.0011892429 -0.028967544 -0.030821942 -0.006745098 0.027290085
-0.020094823 -0.029199602 -0.02681941 0.042193476 -0.019476732 -0.10037059 0.007591996 -0.008437457
-0.030195363 0.03754282 -0.017072009 0.010660966 0.008823959 -0.0019667721 -0.0763837 -0.021959623
0.033873864 0.03780127 0.01294689 0.00052452803 0.020644104 0.04414337 -0.021701444 -0.041285593
0.015635796 0.08137253 -0.021314548 0.0051932344 -0.022315316 -0.044697557 0.024152275 -0.040714517
0.0069584236 0.01702867 -0.041081212 -0.009151897 0.038396377 -0.00014654874 -0.0013791928 0.021305792
0.028325437 0.043310102 0.02277065 -0.0072231847 -0.009354228 0.0014512391 0.034025524 0.024223022
-0.03352115 -0.036214985 0.012845796 -0.013571991 0.034327485 -0.021936186 -0.017233308 -0.001883985
0.043797918 -0.034582667 -0.019223472 0.04129738 -0.03351374 0.021045817 -0.02609766 -0.032052983
-0.042679057 0.03346364 -0.0313393 0.036222532 -0.040372483 -0.01977227 -0.042655762 0.033474624
-0.028491933 0.01450209 -0.012785578 0.03708177 0.043218467 -0.019509362 -0.018266398 0.0742466
-0.052875206 -0.026504524 -0.042423982 0.042121924 0.011988532 -0.017625896 0.02139293 -0.030957893
-0.030833364 0.042818327 -0.033010874 0.009686619 0.024636567 -0.017220212 0.0328135 0.03253832
0.023115167 0.03367638 0.013547585 -0.019894851 0.002795524 0.005399401 -0.001716109 -0.0064348713
-0.013398072 0.0031327964 0.042816173 -0.008162059 0.025040332 -0.010698268 0.008007413 0.035059735
-0.029754663 -0.025406005 0.022979936 0.011271829 -0.016918695 -0.08615307 -0.026171615 -0.018407146
0.0022954918 0.030674037 -0.0021412284 -0.006017314 -0.01832811 -0.03670961 -0.02911537 -0.0080445
0.016682424 -0.10012595 -0.034049243 -0.014133003 0.021858556 0.029400645 -0.026253942 0.02716486
-0.023020882 -0.003781078 0.002486447 -0.039373107 0.023609662 0.036861252 0.035799876 -0.0049974076
-0.0503348 -0.00646225 -0.011234201 -0.002646195 -0.02210865 -0.033618465 -0.011441199 0.008001252
-0.033613328 -0.011054525 -0.010680101 -0.032550193 -0.026668102 0.0031943517 0.008641036 -0.105081186
0.02414322 0.01796286 0.00015043003 0.058949295 0.055771083 0.028871248 -0.042401843 0.026228381
0.0053924983 0.039889336 0.04079118 0.023151143 0.026273604 0.008894819 -0.010036056 -0.040722135
0.01630061 0.035299264 0.014612275 -0.022834256 -0.024564931 0.025215626 0.023450755 0.001665891
00000000: fee6 ab3c 43da 7c3c 5513 2cbd 130d 0e3d
00000010: 29b9 cdbd 46a4 b03c 1a32 b0bc 506b e0bc
00000020: f047 d9bc 8ae1 213d bec9 ab3c 61d5 2ebd
00000030: d5fd 953c 2e96 983c 1b5e 363b a258 93bc
00000040: 300e 3abd 1e03 563c 8e01 113c 28b5 23ba
00000050: 3e74 f63c a364 98bc f771 993c ea96 28bd
00000060: f387 c13c 0b2e 6ebc 6c9c 263c ed7e aabc
00000070: 0ea0 303c 7104 1bbd e4a8 3abc cb4b 74bb
00000080: a1f7 d13c efe4 fdbc 560a 0d3d 6fd2 0fbc
00000090: ac68 683a 954a dbbc 1f0f 0f3d f48a 263d
000000a0: 2f31 f83c 04f8 34bc a1dd 00bd 9979 db3c
000000b0: e305 b13c b9a9 683c 0203 25bd 5963 adbc
000000c0: 3c78 1bbd 4d63 9c3c 5cfd 393d a64f 24bd
000000d0: c3bf ae3c b642 c63b 73c3 10bb 1ffc 403b
000000e0: 9c3e 2f3c ffb9 53bd 1151 f93a 54fb ad3c
000000f0: ee78 67bd 6392 a4bc 0617 98bc fa62 30bd
00000100: 9849 adbc 7a6c 27bd 8528 1bbc 5fe0 9b3a
00000110: 584d edbc 4c7e fcbc fc05 ddbb 758f df3c
00000120: e69d a4bc 0134 efbc 61b4 dbbc 11d3 2c3d
00000130: ab8d 9fbc 198f cdbd 47c6 f83b 423d 0abc
00000140: 445c f7bc 80c6 193d 99da 8bbc 55ab 2e3c
00000150: 5e92 103c f6e4 00bb 0f6f 9cbd abe4 b3bc
00000160: 52bf 0a3d 81d5 1a3d 311f 543c 7b80 093a
00000170: d31d a93c aecf 343d 3ac7 b1bc 151b 29bd
00000180: a416 803c a4a6 a63d d99b aebc 022c aa3b
00000190: 9cce b6bc c914 37bd feda c53c 44c4 26bd
000001a0: 7d03 e43b b67f 8b3c c644 28bd d7f1 15bc
000001b0: 8545 1d3d e1aa 19b9 08c6 b4ba 7c89 ae3c
000001c0: bf0a e83c ef65 313d 8489 ba3c 77b0 ecbb
000001d0: 7a42 19bc 8137 be3a 595e 0b3d 5c6f c63c
000001e0: 794d 09bd 2a56 14bd 2c77 523c 0e5d 5ebc
000001f0: fa9a 0c3d 84b3 b3bc de2c 8dbc 0cf0 f6ba
00000200: 7265 333d 8ea6 0dbd 8b7a 9dbc 7127 293d
00000210: b445 09bd 4768 ac3c c3ca d5bc fd49 03bd
00000220: 3cd0 2ebd 2b11 093d a35d 00bd 145e 143d
00000230: 9e5d 25bd 75f9 a1bc cfb7 2ebd b01c 093d
00000240: ea67 e9bc 2d9a 6d3c 9a7a 51bc 0ee3 173d
00000250: d905 313d 19d2 9fbc 6aa3 95bc 9a0e 983d
00000260: ac93 58bd 0420 d9bc c5c4 2dbd 0a88 2c3d
00000270: 8c6b 443c 2f64 90bc 3a40 af3c 689b fdbc
00000280: 4096 fcbc 4562 2f3d 6936 07bd a0b4 1e3c
00000290: a0d2 c93c 6711 8dbc 7367 063d e746 053d
000002a0: 055c bd3c 3ef0 093d b1f6 5d3c 87fa a2bc
000002b0: 1c35 373b 75ed b03b 10ef e0ba 9ddb d2bb
000002c0: 9683 5bbc 9a4f 4d3b 0360 2f3d 28ba 05bc
000002d0: 6221 cd3c ca47 2fbc 8631 033c cc9a 0f3d
000002e0: 0dc0 f3bc 4120 d0bc 6b40 bc3c 7aad 383c
000002f0: 1399 8abc 0571 b0bd db65 d6bc 95ca 96bc
00000300: f66f 163b 1e48 fb3c da53 0cbb e32c c5bb
00000310: d524 96bc d15c 16bd 5b83 eebc 14cd 03bc
00000320: 94a9 883c d60e cdbd 3877 0bbd 1c8e 67bc
00000330: b710 b33c 9fd9 f03c 8212 d7bc d788 de3c
00000340: 4a96 bcbc f6cb 77bb a9f3 223b b245 21bd
00000350: 0d69 c13c d3fb 163d e4a2 123d 4bc1 a3bb
00000360: dd2b 4ebd 48c1 d3bb a70f 38bc c96b 2dbb
00000370: 331d b5bc 84b3 09bd de73 3bbc af17 033c
00000380: 21ae 09bd 0a1e 35bc 97fb 2ebc 5a53 05bd
00000390: 1077 dabc 5458 513b 2293 0d3c ce34 d7bd
000003a0: 01c8 c53c d926 933c c1bc 1d39 d174 713d
000003b0: 3870 643d 6583 ec3c 8ead 2dbd e7dc d63c
000003c0: 8eb3 b03b 0063 233d a714 273d 77a7 bd3c
000003d0: be3b d73c 93bb 113c 456e 24bc 41cc 26bd
000003e0: db88 853c f695 103d 5368 6f3c e80e bbbc
000003f0: 653c c9bc 0091 ce3c cc1b c03c 075a da3a

l2.bias f4 [128]
-0.03136623 -0.07006814 -0.010633444 0.015939116 -0.024231546 -0.017524457 -0.07676617 0.17353186
-0.03827794 -0.07632453 -0.044276595 0.0013203435 0.039811235 -0.08470064 0.03868305 -0.004497734
0.4752612 -0.08537598 -0.06332788 -0.07934943 -0.064934425 -0.23650646 -0.03343046 -0.14096577
-0.0070178583 -0.066957094 0.0031390986 -0.080875754 -0.064578414 -0.076859735 0.0007531802 -0.03756994
-0.02244114 -0.038333643 -0.12118121 -0.08554206 -0.09815539 -0.008226173 -0.028196942 -0.23189436
-0.13389798 -0.032238975 -0.1910453 0.0024086044 -0.01261308 0.16662207 -0.034806628 -0.064218625
-0.0089679975 -0.04722869 -0.07885944 -0.013501807 -0.059222165 -0.07769724 -0.08260117 -0.079592116
-0.047997475 -0.08832842 -0.11645993 -0.20144509 -0.022906 -0.07397109 -0.02887363 -0.021115698
0.0011887978 -0.18695243 -0.16816355 -0.018657174 -0.060788106 -0.14154816 0.0021566306 -0.06693125
0.0048199007 -0.0074391407 -0.05177242 -0.115355656 -0.061267767 -0.051867086 -0.063859046 -0.032616474
-0.041062444 -0.02971221 -0.06890076 -0.071217455 -0.07456672 0.07850333 -0.011545876 -0.07691686
-0.037163693 -0.1002387 -0.11420962 -0.110242836 -0.04412472 0.0136867585 -0.025442943 -0.07638939
-0.098541245 -0.075073056 -0.099131756 -0.008479227 -0.07172126 -0.01692813 -0.068380795 -0.079338074
-0.060583938 -0.054152858 -0.025279015 -0.00560285 -0.0609005 -0.0642989 -0.09402618 -0.023701223
0.062325403 -0.061075296 0.05066387 -0.14428972 0.28609854 -0.038266525 -0.055477038 0.14852938
-0.02011148 0.05673271 -0.11773953 -0.029558662 -0.0198017 -0.028609393 -0.07958847 -0.05089646
00000000: e079 00bd e37f 8fbd e637 2ebc c092 823c
00000010: 3c81 c6bc 738f 8fbc 9537 9dbd 56b2 313e
00000020: 54c9 1cbd 0950 9cbd 605b 35bd 600f ad3a
00000030: 1b11 233d 8777 adbd 1e72 1e3d ba61 93bb
00000040: 7055 f33e 9ad9 aebd 0cb2 81bd f481 a2bd
00000050: 57fc 84bd c02e 72be 61ee 08bd 5559 10be
00000060: 10f6 e5bb cd20 89bd 56b9 4d3b 30a2 a5bd
00000070: b041 84bd a368 9dbd 1171 453a f0e2 19bd
00000080: 7bd6 b7bc bd03 1dbd db2d f8bd ad30 afbd
00000090: b105 c9bd 12c7 06bc 46fd e6bc b775 6dbe
000000a0: 8d1c 09be 040d 04bd 61a1 43be add9 1d3b
000000b0: 18a7 4ebc fa9e 2a3e 6591 0ebd 0e85 83bd
000000c0: 82ee 12bc df72 41bd 0f81 a1bd af36 5dbc
000000d0: f192 72bd bb1f 9fbd cd2a a9bd 3101 a3bd
000000e0: 0099 44bd 88e5 b4bd 8b82 eebd 9f47 4ebe
000000f0: 5da5 bbbc 287e 97bd 6488 ecbc d4fa acbc
00000100: 6fd1 9b3a 7570 3fbe 1133 2cbe eed6 98bc
00000110: f3fc 78bd 00f2 10be 4256 0d3b 4013 89bd
00000120: 42f0 9d3b 09c4 f3bb 510f 54bd 963f ecbd
00000130: e9f3 7abd 9572 54bd 88c8 82bd da98 05bd
00000140: 1831 28bd 0567 f3bc d71b 8dbd 75da 91bd
00000150: 70b6 98bd 5bc6 a03d ea2a 3dbc 9686 9dbd
00000160: f538 18bd f349 cdbd bce6 e9bd ffc6 e1bd
00000170: 1fbc 34bd 6d3e 603c b86d d0bc 0a72 9cbd
00000180: fecf c9bd e7bf 99bd 9705 cbbd 75ec 0abc
00000190: 99e2 92bd ddac 8abc 3b0b 8cbd 007c a2bd
000001a0: dd26 78bd 63cf 5dbd f015 cfbc 1d98 b7bb
000001b0: cd72 79bd 24af 83bd cc90 c0bd 1129 c2bc
000001c0: ec48 7f3d 172a 7abd eb84 4f3d afc0 13be
000001d0: 827b 923e 5cbd 1cbd e43b 63bd 1618 183e
000001e0: d5c0 a4bc 8f60 683d 6c21 f1bd 0225 f2bc
000001f0: 2d37 a2bc 3f5e eabc 48ff a2bd ce78 50bd

l3.weight f4 [64, 128]
-0.13965566 0.024385454 0.02330439 0.009985553 0.213647 -0.07100303 -0.07294105 -0.08244531
-0.038155228 0.08606422 -0.06727845 0.029158382 -0.00494484 0.15343173 0.18772829 -0.03219937
0.0068489765 0.0569659 0.0075737624 0.0027082595 0.018236985 -0.08247051 0.0784918 0.16652492
-0.084891595 -0.033360768 0.058103237 0.03810001 0.030558914 -0.0061471937 -0.08094097 0.10247489
0.046309806 0.030263523 -0.25732753 -0.074344404 0.014995893 0.0028571764 0.055461377 -0.11322911
0.14267574 -0.11809568 0.45316038 -0.017188719 -0.0654455 -0.017917424 -0.045741037 -0.022408245
0.009450818 -0.073589884 0.049035393 0.08107603 -0.062186763 -0.1258605 -0.23764871 0.028775997
0.037819166 -0.087647885 0.037881237 -0.033428688 0.0056524524 0.059410546 0.041712128 0.009345586
0.07292523 -0.3474876 -0.15174183 0.042871993 -0.047192797 0.16915967 0.03616274 0.058000147
0.14293583 0.032692492 -0.1377838 -0.04627658 -0.085772164 -0.08019092 0.025057271 0.027551236
-0.029353058 -0.07979924 0.026096772 -0.022599356 -0.04422424 0.12587962 -0.028558593 0.027840924
0.04460649 0.02429359 -0.07030572 -0.10258516 0.028771915 -0.0818149 -0.0010753674 0.06938404
0.0056273118 -0.111910224 0.055570245 0.0092067 -0.065180376 -0.0043730293 0.059701484 0.03364129
-0.098561056 -0.045015413 0.0073727537 -0.033489432 0.027394382 0.086391576 0.02256354 0.0033354035
0.03905968 0.09968572 -0.2071526 -0.10357406 -0.015503116 0.07046751 -0.012422092 0.20946077
0.060824003 0.022282394 -0.028241826 0.06836316 0.07774602 0.0030604512 -0.20502584 0.06725946
0.040967368 -0.033834197 -0.07030889 0.0026429798 0.018267889 0.01952964 0.0019763398 -0.089875765
-0.029363101 -0.054673795 -0.020996949 -0.060054787 -0.022749428 0.0015058374 0.1469728 0.00928703
-0.055227417 -0.046477914 0.1273242 -0.0014061282 -0.0393223 -0.0645057 0.07320667 -0.39354622
0.046879258 0.05307994 -0.0971376 0.04746131 0.074764565 0.065601066 0.05648532 -0.033810012
-0.07234832 0.03826557 -0.15775032 0.05710581 0.14183672 0.02489319 0.07844396 -0.025330389
-0.025405807 -0.04867163 -0.11008991 0.05425862 -0.09242873 -0.117190786 0.054170225 -0.0011331945
-0.07465495 0.10847325 -0.069723465 0.06600957 -0.061127655 0.046892494 -0.15854818 0.119866446
-0.020448415 0.03679701 0.15218145 -0.22623955 -0.055280205 -0.059915565 0.050053798 -0.04098555
0.03853718 0.059770636 0.067931235 0.005933655 -0.038230594 -0.073909685 0.051855423 -0.0744297
0.051013697 -0.16382127 -0.045588437 -0.0026877818 -0.08182149 0.06746178 0.07392659 0.11175087
0.08777097 -0.04671085 0.07468663 -0.036821958 -0.09525343 -0.065616906 -0.0622325 0.038719203
-0.00077312626 0.019232571 0.004096097 0.08266051 -0.048888482 0.026794305 -0.05036299 -0.060816094
0.16981833 -0.00860825 -0.048396107 0.0037729326 -0.027061915 -0.09080859 0.048124306 -0.054934423
0.11915229 0.007191903 -0.041594647 0.012820046 0.054253254 0.0955458 -0.009917062 -0.017548379
-0.1845271 0.065838605 -0.18863486 -0.21163106 0.20882101 0.04362521 0.11084606 -0.17104614
-0.069381624 -0.04626944 -0.012152217 0.024126649 -0.07776762 -0.05707602 -0.06309777 0.025580427
00000000: e501 0fbe 01c4 c73c d9e8 be3c 729a 233c
00000010: 47c6 5a3e 096a 91bd 1e62 95bd 16d9 a8bd
00000020: a848 1cbd 7042 b03d 49c9 89bd 8fdd ee3c
00000030: 5308 a2bb 351d 1d3e d83b 403e 7de3 03bd
00000040: 616d e03b 1355 693d 532d f83b 0e7d 313b
00000050: bb65 953c 4ce6 a8bd 4fc0 a03d 8285 2a3e
00000060: a5db adbd 4da5 08bd a9fd 6d3d c20e 1c3d
00000070: b056 fa3c 666e c9bb 61c4 a5bd 5bde d13d
00000080: 5aaf 3d3d 35eb f73c 6fc0 83be e141 98bd
00000090: 56b1 753c 773f 3b3b 782b 633d aae4 e7bd
000000a0: 9719 123e 26dc f1bd a304 e83e 5bcf 8cbc
000000b0: 4a08 86bd 90c7 92bc f45a 3bbd 7f91 b7bc
000000c0: 9bd7 1a3c 4bb6 96bd 56d9 483d 310b a63d
000000d0: 8cb7 7ebd 93e1 00be 2f5a 73be a4bb eb3c
000000e0: 45e8 1a3d bc80 b3bd 5b29 1b3d 85ec 08bd
000000f0: 3538 b93b 7958 733d 56da 2a3d 3b1e 193c
00000100: d359 953d e5e9 b1be 3662 1bbe 8b9a 2f3d
00000110: 3c4d 41bd 3138 2d3e 621f 143d 9091 6d3d
00000120: c55d 123e 90e8 053d 3217 0dbe 838c 3dbd
00000130: 51a9 afbd 233b a4bd e844 cd3c 21b3 e13c
00000140: d375 f0bc c96d a3bd e6c8 d53c 4922 b9bc
00000150: 7a24 35bd 96e6 003e b6f3 e9bc a612 e43c
00000160: 4bb5 363d 5a03 c73c 72fc 8fbd 2b18 d2bd
00000170: 14b3 eb3c 928e a7bd 58f3 8cba 3819 8e3d
00000180: 5065 b83b 3031 e5bd a09d 633d b3d7 163c
00000190: 4a7d 85bd a14b 8fbb 8b89 743d 73cb 093d
000001a0: 61da c9bd 1562 38bd 2497 f13b 372c 09bd
000001b0: 2f6a e03c 11ee b03d 2cd7 b83c c996 5a3b
000001c0: 0bfd 1f3d 0728 cc3d d01f 54be a31e d4bd
000001d0: c800 7ebc 4551 903d 0886 4bbc e27c 563e
000001e0: 9722 793d 9189 b63c 675b e7bc fc01 8c3d
000001f0: 4e39 9f3d da91 483b 4bf2 51be 54bf 893d
00000200: 66cd 273d ba95 0abd 1bfe 8fbd d835 2d3b
00000210: 8aa6 953c a0fc 9f3c 7b85 013b c910 b8bd
00000220: e38a f0bc a1f1 5fbd cb01 acbc 02fc 75bd
00000230: 025d babc 855f c53a 0a80 163e a128 183c
00000240: 2536 62bd a05f 3ebd 4661 023e d54d b8ba
00000250: 6c10 21bd 901b 84bd 61ed 953d e47e c9be
00000260: 7704 403d 5a6a 593d 14f0 c6bd ca66 423d
00000270: 2a1e 993d da59 863d 275d 673d 5e7c 0abd
00000280: 5b2b 94bd 5cbc 1c3d 4d89 21be c8e7 693d
00000290: a53d 113e ceec cb3c 3aa7 a03d ad81 cfbc
000002a0: d71f d0bc e75b 47bd d276 e1bd 493e 5e3d
000002b0: 464b bdbd b901 f0bd 99e1 5d3d b387 94ba
000002c0: b2e4 98bd 3927 de3d 2dcb 8ebd 0730 873d
000002d0: fe60 7abd 5812 403d 745a 22be 8a7c f53d
000002e0: 6f83 a7bc 76b8 163d 74d5 1b3e 57ab 67be
000002f0: 7f6d 62bd 066a 75bd 3605 4d3d 77e0 27bd
00000300: 29d9 1d3d 0ed2 743d 881f 8b3d 1b6f c23b
00000310: af97 1cbd f65d 97bd 5a66 543d 996e 98bd
00000320: bdf3 503d c3c0 27be f1ba 3abd 7f25 30bb
00000330: 0692 a7bd 6729 8a3d d366 973d a4dd e43d
00000340: 44c1 b33d e053 3fbd 4ef5 983d 9fd2 16bd
00000350: 3b14 c3bd 2862 86bd 82e7 7ebd 0798 1e3d
00000360: a0ab 4aba a08d 9d3c 8d38 863b ea49 a93d
00000370: 4a3f 48bd bb7f db3c 6c49 4ebd 4c1a 79bd
00000380: dbe4 2d3e 9e09 0dbc ff3a 46bd 4e43 773b
00000390: f3b0 ddbc dbf9 b9bd fe1d 453d eb02 61bd
000003a0: 1e06 f43d 0eaa eb3b 265f 2abd 2c0b 523c
000003b0: a938 5e3d 84ad c33d 2c7b 22bc 9ec1 8fbc
000003c0: acf4 3cbe 64d6 863d 7f29 41be d0b5 58be
000003d0: 2dd5 553e 59b0 323d 4203 e33d b826 2fbe
000003e0: f417 8ebd 0685 3dbd 181a 47bc 40a5 c53c
000003f0: a144 9fbd 8bc8 69bd 6739 81bd 0b8e d13c

l3.bias f4 [64]
0.26468593 -0.06915816 -0.15017329 -0.07280443 0.03141539 -0.1505625 -0.08262239 -0.39612687
-0.32401243 -0.07729794 -0.11616946 -0.09660669 -0.019874023 0.075740926 0.04127297 -0.1476725
0.117125414 -0.04657247 0.17210203 -0.040574998 -0.07921033 -0.3152717 -0.20773232 -0.44853356
-0.5540696 -0.014341669 0.014393864 -0.060587823 -0.20028754 -0.19580479 -0.19629101 -0.45974445
-0.031151999 0.10442492 0.015734302 0.067979746 0.037897147 -0.1702792 -0.203584 -0.30779967
-0.11908908 -0.042618003 0.18075714 -0.17289402 0.10657852 -0.119609386 -0.054018233 -0.09740378
-0.12180095 -0.01207353 -0.09131755 -0.06163439 0.11297809 -0.173248 -0.15488873 0.23555666
-0.008419946 -0.15939891 0.006314657 -0.463678 0.4830891 -0.20403564 -0.10164819 -0.31415826
00000000: ea84 873e cba2 8dbd 07c7 19be 7d1a 95bd
00000010: 6dad 003d 0e2d 1abe ed35 a9bd 24d1 cabe
00000020: f5e4 a5be 624e 9ebd 41ea edbd bad9 c5bd
00000030: d9ce a2bc 0f1e 9b3d d90d 293d 7637 17be
00000040: 73df ef3d c6c2 3ebd 843b 303e f831 26bd
00000050: 0739 a2bd 4b6b a1be c8b7 54be 31a6 e5be
00000060: 81d7 0dbf 52f9 6abc 3ed4 6b3c f02a 78bd
00000070: 2d18 4dbe 0d81 48be 8300 49be a063 ebbe
00000080: 7a32 ffbc bcdc d53d 39e5 803c f738 8b3d
00000090: 0a3a 1b3d ac5d 2ebe 5378 50be eb97 9dbe
000000a0: fae4 f3bd 3790 2ebd 6618 393e 210b 31be
000000b0: d745 da3d c4f5 f4bd 3942 5dbd a27b c7bd
000000c0: c772 f9bd 0ed0 45bc b204 bbbd 5874 7cbd
000000d0: 0f61 e73d ec67 31be 279b 1ebe c435 713e
000000e0: d0f3 09bc 7839 23be 2feb ce3b 3467 edbe
000000f0: 7457 f73e b8ee 50be ed2c d0bd 5ad9 a0be

out.weight f4 [3, 64]
0.01536164 0.0069660638 0.08316913 0.01756681 -0.06119988 -0.066212334 0.08364273 -0.038786393
0.014676877 -0.09220485 0.03038576 0.038208615 -0.15130939 -0.030757502 -0.19886701 -0.002814252
-0.08436426 0.025177136 0.052672192 0.02561612 -0.0160413 -0.15124686 0.049239274 -0.16171138
-0.056173343 0.06605969 -0.053751078 -0.024700092 0.011441901 0.05884224 0.029340046 0.03824234
-0.030434677 0.014556867 -0.12363515 -0.015190026 -0.04415778 0.04951153 -0.0043169684 0.047239166
0.060126375 0.04471894 -0.0070188367 -0.022637427 -0.026196158 0.069833905 -0.0639033 -0.07865284
0.083869144 0.0064482787 -0.10906746 -0.013958864 -0.08617282 0.11329576 -0.0104182 0.011009525
-0.0486976 -0.026928646 -0.03159797 -0.009379604 0.051444385 0.07639868 0.03367288 -0.031870082
-0.27728894 0.10680018 0.067196935 0.002001068 -0.06509468 -0.086207926 0.062474497 -1.1026706
-0.19314224 -0.18800025 0.013863014 -0.11004111 -0.084461935 -0.09815012 -0.30734313 0.06401653
-0.018530963 -0.05162262 -0.062490154 0.01234588 -0.003125337 -1.4523429 0.023739876 -0.11522398
-0.10626486 0.08470436 0.13798748 -0.06691092 -0.054308057 -0.4451542 0.01903784 0.010113999
-0.07765541 -0.085949406 -0.0832904 -0.25260264 -0.07465794 0.021260124 -0.86536986 0.051216185
-0.015659412 0.03411055 -0.5289308 0.0039457846 -0.016245732 0.06575598 0.006851075 -0.119294465
0.06361511 0.018900456 -0.11244917 -0.06264737 -0.08626265 -0.26996604 -0.02377974 -0.2552223
-0.18964195 -0.020564983 -0.14125964 -0.49481398 0.17952925 -0.042743877 0.023149299 -0.2469493
0.03447677 -0.0060755513 0.044724073 -0.28756884 -0.0745333 -0.022834536 0.1081513 0.037336245
0.015172897 -0.17494997 -0.10246004 -0.08971959 -0.06166734 -0.06950906 -0.31682327 0.07050759
-0.1594366 -0.0027654332 -0.18355851 0.01855296 -0.03561242 0.068689466 0.06630895 -0.4271255
-0.08091805 0.08566821 -0.04892529 -0.021512998 0.08796092 0.0012499484 -0.044153452 -0.67370504
-0.119310975 -0.26700574 -1.2940335 0.03248613 -0.08161026 -0.08554136 -0.015511456 -0.70665073
-0.03531364 0.0751333 -0.36028415 -0.60017145 -0.12387187 0.028932404 0.030442849 -0.08220307
0.03350062 -0.05778739 -0.11828902 -0.04845105 -0.15640256 -0.29853094 -0.013925342 0.036732662
-0.07994289 0.0088833235 -0.36147746 -0.047961026 -0.24799195 -0.34804887 0.05472779 0.00069008296
00000000: 63af 7b3c 9443 e43b 9454 aa3d 45e8 8f3c
00000010: baac 7abd 559a 87bd e14c ab3d 7bde 1ebd
00000020: 4977 703c e5d5 bcbd 8feb f83c a380 1c3d
00000030: d9f0 1abe 28f7 fbbc cba3 4bbe 506f 38bb
00000040: 2bc7 acbd 4840 ce3c ccbe 573d e6d8 d13c
00000050: 0b69 83bc 75e0 1abe 1faf 493d ab97 25be
00000060: 0516 66bd 4e4a 873d 172a 5cbd d957 cabc
00000070: d076 3b3c 9004 713d 895a f03c 00a4 1c3d
00000080: 2552 f9bc ed7f 6e3c 6d34 fdbd 96df 78bc
00000090: cade 34bd 9acc 4a3d 5b75 8dbb db7d 413d
000000a0: 1347 763d 352b 373d 45fe e5bb 2072 b9bc
000000b0: 5399 d6bc 1405 8f3d bcdf 82bd bd14 a1bd
000000c0: 96c3 ab3d 154c d33b c35e dfbd b8b3 64bc
000000d0: 607b b0bd 9b07 e83d 19b1 2abc 4b61 343c
000000e0: 2277 47bd 7799 dcbc df6c 01bd e9ac 19bc
000000f0: 59b7 523d e976 9c3d 93ec 093d 348a 02bd
00000100: d1f8 8dbe 0eba da3d 8c9e 893d 5a24 033b
00000110: 5c50 85bd c88d b0bd 42e5 7f3d 4f24 8dbf
00000120: 14c7 45be 2383 40be b221 633c 3c5d e1bd
00000130: 61fa acbd ee02 c9bd 145c 9dbe 191b 833d
00000140: 3fce 97bc 3e72 53bd adf5 7fbd 6046 4a3c
00000150: 74d2 4cbb 5fe6 b9bf 217a c23c 8dfa ebbd
00000160: 64a1 d9bd 7b79 ad3d 974c 0d3e 9808 89bd
00000170: 2072 5ebd 40eb e3be 3ff5 9b3c 30b5 253c
00000180: cd09 9fbd 3e06 b0bd 2894 aabd 2255 81be
00000190: 43e6 98bd b629 ae3c e188 5dbf 10c8 513d
000001a0: 2b48 80bc 81b7 0b3d 0268 07bf a44b 813b
000001b0: c515 85bc 12ab 863d fc7e e03b a850 f4bd
000001c0: a448 823d 21d5 9a3c c04b e6bd 444d 80bd
000001d0: 79aa b0bd fd38 8abe bbcd c2bc 7fac 82be
000001e0: 8031 42be e577 a8bc 5ea6 10be 4258 fdbe
000001f0: 84d6 373e 3414 2fbd 99a3 bd3c 47e0 7cbe
00000200: 8337 0d3d 6b15 c7bb 9730 373d 393c 93be
00000210: eaa4 98bd 7e0f bbbc 6e7e dd3d e4ed 183d
00000220: be97 783c 1626 33be 92d6 d1bd e8be b7bd
00000230: e596 7cbd c45a 8ebd a936 a2be 4966 903d
00000240: 5943 23be 453c 35bb c3f6 3bbe 61fc 973c
00000250: 54de 11bd 10ad 8c3d fdcc 873d 32b0 dabe
00000260: 5db8 a5bd d172 af3d e365 48bd 073c b0bc
00000270: db24 b43d 4fd5 a33a 40da 34bd ef77 2cbf
00000280: 5059 f4bd fab4 88be e4a2 a5bf 2d10 053d
00000290: 4823 a7bd 4f30 afbd c323 7ebc 10e7 34bf
000002a0: 09a5 10bd 7ddf 993d 2a77 b8be d6a4 19bf
000002b0: 89b0 fdbd a603 ed3c 4863 f93c 155a a8bd
000002c0: f237 093d 78b2 6cbd 8441 f2bd 9c74 46bd
000002d0: fe27 20be 0cd9 98be 1e27 64bc fd74 163d
000002e0: 19b9 a3bd 5c8b 113c 9313 b9be c872 44bd
000002f0: 9af1 7dbe 7633 b2be 3f2a 603d afe6 343a

out.bias f4 [3]
0.51579946 -0.13503249 -0.60740024
00000000: 6f0b 043f f545 0abe 957e 1bbf
