server/models/Underweight_Overweight_v1.pth (torch, 459672 bytes, 8 tensors)

l1.weight f4 [512, 77]
-0.010230209 -0.28064856 -0.49144623 0.13030921 0.087596774 -0.018249843 -0.019455334 -0.049042907
0.3530011 -0.21250646 0.9267339 0.6386956 4.191933 -0.08806478 -0.014219511 -0.6066997
1.0329922 2.3872275 3.008607 -0.3174543 0.28264323 -1.1371866 0.4328439 -1.5191517
1.8756891 0.850541 2.8318834 -0.30020997 1.829501 -0.3340547 -1.7906957 0.12606362
-3.4226635 2.4911041 -0.095201634 0.53443736 -0.29679075 -0.7865511 0.0034217078 -0.45048547
0.36449793 -0.102164954 0.13639957 -1.5719681 -0.0131849 -0.14467528 2.918765 -0.10505989
0.038460203 1.9079702 -0.02117413 0.087362625 0.9256681 -0.030544262 0.086878024 0.82473797
2.0418808 0.055310782 2.953171 0.58821386 -1.9653006 0.13404588 -0.7659039 0.019007893
-0.7040719 0.7021166 -0.11079514 0.24949776 0.60921586 -1.1721942 0.58784395 -0.4277579
0.047635358 -0.5593042 1.5519396 -0.06516258 4.281357 -0.028166994 -0.09156152 -0.008223682
-0.0925079 -0.010780028 -0.07794322 -0.07159863 -0.10475924 -0.054650202 -0.111805186 -0.05294585
-0.0007428365 -0.09818241 -0.09432794 -0.056030348 -0.041856855 0.004809038 -0.09733187 -0.050679926
-0.024300603 0.0016450542 0.048659623 -0.10292565 0.02718931 0.049288493 -0.05606639 -0.07130357
-0.05586811 -0.05856212 0.052715175 -0.035583623 0.02335452 -0.01763404 -0.095768206 0.0867199
0.031302612 -0.08687639 -0.08302436 -0.04403946 0.07068431 0.007868294 -0.06485158 0.04606221
0.10087265 -0.08054769 -0.06952018 0.07429741 -0.059332207 -0.021910893 0.080477044 0.010259214
-0.048223365 0.094247736 0.036829233 0.017988816 -0.027903415 0.107299045 -0.011538596 -0.03594738
-0.047089558 -0.08032215 -0.078619696 0.010880667 0.021379469 -0.04437273 -0.0749565 0.020520533
0.041339613 -0.035350922 0.08754157 0.09432536 0.08866277 -0.014659216 -0.030762004 0.06865619
-0.08324161 0.06056802 -0.044599034 0.013503064 -0.054223757 -0.13930711 -0.06509391 -0.00017593398
0.112184525 -0.07031152 0.09411428 -0.014813538 0.23720312 0.03419857 1.2508523 -0.02519192
-0.094114035 0.20928691 -0.224808 0.6214942 0.7997326 -0.18100035 0.42507526 -0.030364316
-0.083787136 -0.16539848 0.09717842 0.24810193 -0.087093316 -0.22353038 0.37391683 -0.49376243
0.01684274 0.34138083 -0.09519837 0.41475812 -0.04704345 -0.04335296 -0.22557305 -0.27269688
0.0027068837 0.009316563 -0.008429801 0.07434409 -0.115012914 0.11405941 0.034515 0.05405884
0.31806526 -0.10876349 -0.069396086 0.46480796 0.06082125 0.053743474 0.09863241 0.07892281
0.024707112 0.09191018 0.40664443 -0.016332975 0.45742857 0.14386125 -0.64653844 -0.014857585
0.022741526 -0.046082966 -0.19154523 0.13719521 0.10571709 -0.06412915 -0.2513314 -0.14642504
0.09447503 0.23432511 -0.0043697753 -0.029978285 -0.032597873 0.08756134 1.2120805 -0.093782246
-0.023426875 -0.0926425 -0.064249836 -0.06647881 -0.01493566 -0.0827987 0.08782205 -0.05993927
-0.25000545 0.04031521 -0.08890911 0.79063493 -0.0885917 -0.03111068 0.05230605 -0.11897203
0.3410904 0.21923077 -0.06571534 0.19669695 -0.13457382 -0.096804 -0.18170159 0.042369623
00000000: 9b9c 27bc 2bb1 8fbe d79e fbbe c76f 053e
00000010: f065 b33d b280 95bc cb60 9fbc 37e1 48bd
00000020: 8fbc b43e 4b9b 59be 6f3e 6d3f 8e81 233f
00000030: 5124 8640 4f5b b4bd f4f8 68bc ac50 1bbf
00000040: 1739 843f 56c8 1840 048d 4040 5f89 a2be
00000050: 9db6 903e 558f 91bf b79d dd3e 9073 c2bf
00000060: 9516 f03f 0ebd 593f 943d 3540 1fb5 99be
00000070: 172d ea3f 3809 abbe 8435 e5bf d216 013e
00000080: eb0c 5bc0 406e 1f40 13f9 c2bd e3d0 083f
00000090: f5f4 97be 6a5b 49bf bb3e 603b 08a6 e6be
000000a0: 799f ba3e dc3b d1bd 54ac 0b3e 4036 c9bf
000000b0: 7b05 58bc c225 14be 0ccd 3a40 a429 d7bd
000000c0: 7288 1d3d 5e38 f43f 5e75 adbc 2deb b23d
000000d0: 96f8 6c3f f637 fabc 1bed b13d 0722 533f
000000e0: 2dae 0240 8f8d 623d c100 3d40 2f95 163f
000000f0: f88e fbbf 5343 093e 4712 44bf 71b6 9b3c
00000100: 0e3e 34bf eabd 333f 90e8 e2bd 577c 7f3e
00000110: 92f5 1b3f 760a 96bf f17c 163f 1503 dbbe
00000120: 4b1d 433d 8f2e 0fbf f5a5 c63f f573 85bd
00000130: e000 8940 78be e6bc 9b84 bbbd 9fbc 06bc
00000140: c874 bdbd b79e 30bc b2a0 9fbd 4da2 92bd
00000150: 038c d6bd e4d8 5fbd 1efa e4bd bfdd 58bd
00000160: eaba 42ba dc13 c9bd 022f c1bd 1480 65bd
00000170: 1872 2bbd 2295 9d3b ee55 c7bd c195 4fbd
00000180: 0f12 c7bc dc9e d73a 504f 473d afca d2bd
00000190: 1ebc de3c bbe2 493d dfa5 65bd 9b07 92bd
000001a0: f6d5 64bd d5de 6fbd deeb 573d 22c0 11bd
000001b0: fa51 bf3c 4375 90bc 1f22 c4bd 349a b13d
000001c0: 2b37 003d 40ec b1bd ad08 aabd b962 34bd
000001d0: efc2 903d 04ea 003c e8d0 84bd baab 3c3d
000001e0: 5296 ce3d 30f6 a4bd 9960 8ebd 3e29 983d
000001f0: 5406 73bd 797e b3bc 26d1 a43d 4316 283c
00000200: dd85 45bd f504 c13d 40da 163d 485d 933c
00000210: b495 e4bc 9abf db3d 610c 3dbc 8f3d 13bd
00000220: fbe0 40bd f07f a4bd 5d03 a1bd d344 323c
00000230: ff23 af3c 2ec0 35bd cb82 99bd ad1a a83c
00000240: ba53 293d 21cc 10bd ff48 b33d a82d c13d
00000250: d494 b53d 352d 70bc 9900 fcbc 9e9b 8c3d
00000260: 947a aabd 2c16 783d 7aad 36bd f53b 5d3c
00000270: bb19 5ebd 86a6 0ebe f54f 85bd eb7a 38b9
00000280: 00c1 e53d 7cff 8fbd fdbe c03d 7bb4 72bc
00000290: 60e5 723e cd13 0c3d ee1b a03f 495f cebc
000002a0: dcbe c0bd 4f4f 563e 1134 66be 3e1a 1f3f
000002b0: 47bb 4c3f 2858 39be 77a3 d93e 96be f8bc
000002c0: 9798 abbd 385e 29be 7b05 c73d 6f0e 7e3e
000002d0: fb5d b2bd 26e5 64be 0772 bf3e 6ece fcbe
000002e0: c9f9 893c 78c9 ae3e 5df7 c2bd 2d5b d43e
000002f0: a2b0 40bd e092 31bd 9ffc 66be ed9e 8bbe
00000300: f965 313b 7fa4 183c 261d 0abc b741 983d
00000310: e48b ebbd fb97 e93d 9a5f 0d3d cd6c 5d3d
00000320: 73d9 a23e 65bf debd 891f 8ebd 4ffb ed3e
00000330: b41f 793d 1e22 5c3d caff c93d 48a2 a13d
00000340: 9266 ca3c 683b bc3d b333 d03e bbcc 85bc
00000350: 1434 ea3e 5d50 133e 8b83 25bf 3a6d 73bc
00000360: 704c ba3c 7ec1 3cbd 6f24 44be e77c 0c3e
00000370: 3482 d83d 2556 83bd 82ae 80be 72f0 15be
00000380: 207c c13d ecf2 6f3e 5530 8fbb 0595 f5bc
00000390: 5985 05bd 5c53 b33d 7425 9b3f e810 c0bd
000003a0: b8e9 bfbc 5abb bdbd 6b95 83bd 0b26 88bd
000003b0: b3b4 74bc 5d92 a9bd 0cdc b33d e182 75bd
000003c0: b700 80be 9021 253d fb15 b6bd 0d67 4a3f
000003d0: 916f b5bd d3db febc de3e 563d 9ca7 f3bd
000003e0: 67a3 ae3e 087e 603e c495 86bd ed6a 493e
000003f0: b8cd 09be 2d41 c6bd fb0f 3abe c58b 2d3d

l1.bias f4 [512]
0.092151366 0.0006368859 0.042154875 -0.12396201 -0.02132155 0.039533556 -0.13700552 -0.059289496
-0.1298372 -0.0662266 0.080692 0.02908891 0.051177364 -0.021912877 -0.10793266 -0.10639036
0.0032645622 -0.056494866 -0.17015709 0.0018231148 -0.2303455 0.0059457654 -0.002649269 -0.23206916
-0.08864151 0.07258016 0.0601501 0.043194354 -0.068047084 -0.033560004 -0.059515566 -0.036561478
-0.10256377 0.04885497 -0.052412845 -0.015824333 -0.089527525 0.0058059194 -0.028318133 0.04096287
-0.07780267 -0.09970555 -0.08023189 -0.09803655 -0.08941839 0.053251557 0.15839866 -0.056821696
-0.014364873 -0.16793032 -0.17963445 -0.034628488 0.028051924 0.073794305 -0.039539658 0.031429965
-0.0051057786 0.047895104 0.038272366 0.017344251 0.009485063 -0.07818112 -0.07012499 0.03443236
-0.083279155 0.09616019 0.11742587 -0.12064302 0.09499749 -0.6300587 0.10682264 0.06892885
0.05902895 0.086380966 0.04667896 0.033505853 -0.12221399 -0.09701611 -0.20763338 -0.25176385
0.0062363176 -0.12893201 -0.056076854 -0.08208931 0.008406863 -0.13489768 0.06125952 -0.08790991
-0.36866167 -0.060821284 0.022765752 -0.21411316 0.09700735 -0.026161637 -0.13558502 -0.096039236
-0.08967565 -0.005620187 -0.07583516 -0.0004878159 -0.18735844 -0.10432321 -0.540127 0.06869269
-0.07687694 -0.10416333 -0.037095163 -0.061204568 -0.058350846 -0.09314125 -0.12799527 -0.05771859
-0.076364964 0.025490077 -0.19143802 -0.08005265 0.019591998 -0.0063160514 0.041229233 -0.16943225
-0.26734462 0.079709485 0.0012533709 -0.1472834 -0.12153663 -0.09313651 -0.019489665 0.040331528
0.045301452 0.002193854 -0.08093603 -0.118824296 0.0020571924 -0.17917722 0.024318656 0.02546358
0.050200507 0.0063248565 0.08611164 0.049050007 0.3078882 -0.21829416 0.31537363 -0.23001651
0.3227568 -0.1090052 -0.014661219 0.13089153 -0.17070518 0.027055863 -0.10499253 0.0014137396
0.03655522 -0.01856734 -0.16435337 0.23544464 0.061561666 -0.061516643 0.012463087 0.001465309
-0.018424802 -0.07636835 0.048811805 -0.024448803 -0.04033553 -0.13253534 -0.09704317 -0.06259809
0.025322642 0.070006095 -0.22961058 -0.09474254 0.098754995 -0.25765526 -0.06473037 -0.1307686
0.07331287 0.010869211 0.1090392 -0.019844826 -0.07112789 -0.18726148 -0.044449978 -0.013196461
0.019525733 -0.3944249 -0.058408845 -0.23452604 0.11627987 0.0011414599 0.112070784 -0.2020075
-0.15263493 0.014563929 0.03750121 0.0051802895 -0.11029285 -0.05018664 0.02147413 -0.08192396
0.0038727364 0.055176295 0.057325978 -0.22426035 0.062734485 0.051152073 -0.029178498 -0.09919252
-0.16744637 -0.15804145 -0.07359183 -0.075646564 -0.0058374074 -0.06299314 0.015622801 0.008820346
-0.055353697 0.2827763 0.08780739 -0.020093266 0.032741632 -0.101869285 0.048659932 -0.13074018
0.01416277 -0.008252645 0.0627428 -0.12471245 0.06391679 0.10431938 0.13867307 0.07989986
0.0051122587 0.080027014 0.002348667 -0.041244444 -0.24088247 -0.043927975 -0.060034044 -0.05932586
-0.009764696 -0.014975791 -0.092711814 -0.1115391 -0.051368043 -0.14080076 0.041627415 0.009437922
-0.016929843 0.019586664 0.022683155 0.009465387 -0.034537073 -0.0044147824 0.027545242 -0.056530878
00000000: dbb9 bc3d b0f4 263a 97aa 2c3d cbdf fdbd
00000010: 88aa aebc f0ed 213d 2d4b 0cbe 8bd9 72bd
00000020: 0bf4 04be d0a1 87bd d941 a53d de4b ee3c
00000030: 5b9f 513d a282 b3bc cc0b ddbd 30e3 d9bd
00000040: 44f2 553b 2967 67bd a93d 2ebe 95f5 ee3a
00000050: b1df 6bbe b2d4 c23b 5c9f 2dbb 8aa3 6dbe
00000060: ae89 b5bd e8a4 943d f45f 763d 90ec 303d
00000070: 455c 8bbd 3776 09bd 98c6 73bd 7dc1 15bd
00000080: f40c d2bd 261c 483d daae 56bd 08a2 81bc
00000090: 355a b7bd 953f be3b 6efb e7bc afc8 273d
000000a0: 0257 9fbd 6c32 ccbd 9e50 a4bd 63c7 c8bd
000000b0: fd20 b7bd 4e1e 5a3d 4233 223e debd 68bd
000000c0: a55a 6bbc edf5 2bbe 18f2 37be 9ad6 0dbd
000000d0: 26cd e53c 7821 973d 56f4 21bd b5bc 003d
000000e0: 604e a7bb a82d 443d 7cc3 1c3d 8815 8e3c
000000f0: 3d67 1b3c 6c1d a0bd b19d 8fbd f208 0d3d
00000100: 438e aabd a2ef c43d f97c f03d b013 f7bd
00000110: 0b8e c23d 874b 21bf d4c5 da3d 922a 8d3d
00000120: 57c8 713d 81e8 b03d 7032 3f3d 6f3d 093d
00000130: 544b fabd 62b0 c6bd d89d 54be 31e7 80be
00000140: 065a cc3b c106 04be d8b0 65bd 711e a8bd
00000150: f0bc 093c 9e22 0abe 43eb 7a3d 1c0a b4bd
00000160: 39c1 bcbe bd1f 79bd 3e7f ba3c 7b40 5bbe
00000170: caab c63d ee50 d6bc cdd6 0abe 38b0 c4bd
00000180: dea7 b7bd 8c29 b8bb 774f 9bbd 8bc1 ffb9
00000190: e4da 3fbe 68a7 d5bd c345 0abf c1ae 8c3d
000001a0: a871 9dbd 9553 d5bd 19f1 17bd a4b1 7abd
000001b0: 4c01 6fbd d7c0 bebd 3111 03be 546a 6cbd
000001c0: 3c65 9cbd 91d0 d03c 5408 44be a5f2 a3bd
000001d0: 667f a03c e1f6 cebb fcdf 283d a67f 2dbe
000001e0: 65e1 88be ba3e a33d 2648 a43a 76d1 16be
000001f0: 32e8 f8bd 5bbe bebd caa8 9fbc ac32 253d
00000200: 048e 393d c3c6 0f3b cac1 a5bd 275a f3bd
00000210: f6d1 063b 3c7a 37be eb37 c73c ff98 d03c
00000220: 0c9f 4d3d be40 cf3b 4d5b b03d a9e8 483d
00000230: 86a3 9d3e 8188 5fbe a778 a13e 7389 6bbe
00000240: 6140 a53e 1e3e dfbd 9c35 70bc 6e08 063e
00000250: 57cd 2ebe 42a4 dd3c 5306 d7bd 3b4d b93a
00000260: edba 153d 891a 98bc 404c 28be 6618 713e
00000270: 1628 7c3d e0f8 7bbd fa31 4c3c 9c0f c03a
00000280: 9cef 96bc 0267 9cbd e3ee 473d db48 c8bc
00000290: de36 25bd 58b7 07be 92be c6bd 6d33 80bd
000002a0: 6e71 cf3c 5b5f 8f3d 091f 6bbe 6008 c2bd
000002b0: 0f40 ca3d 64eb 83be 5b91 84bd 34e8 05be
000002c0: 0f25 963d c614 323c f24f df3d 9e91 a2bc
000002d0: 80ab 91bd 79c1 3fbe 2e11 36bd f835 58bc
000002e0: 6ef4 9f3c 0ff2 c9be 1d3e 6fbd 9827 70be
000002f0: 2424 ee3d 0a9d 953a 5e85 e53d 0edb 4ebe
00000300: 554c 1cbe 8c9d 6e3c de9a 193d 6bbf a93b
00000310: 38e1 e1bd 8290 4dbd 84ea af3c c0c7 a7bd
00000320: bccd 7d3b 8a00 623d a5ce 6a3d 81a4 65be
00000330: f07a 803d d684 513d bf07 efbc 7325 cbbd
00000340: 1077 2bbe 9ed5 21be 50b7 96bd 96ec 9abd
00000350: b947 bfbb 8c02 81bd c7f6 7f3c 3683 103c
00000360: 8fba 62bd 0ec8 903e 5cd4 b33d a29a a4bc
00000370: 171c 063d d8a0 d0bd a34f 473d c1e0 05be
00000380: f60a 683c 1a36 07bc 4c7f 803d 3e69 ffbd
00000390: cee6 823d 66a5 d53d 5000 0e3e 8aa2 a33d
000003a0: bc84 a73b 34e5 a33d 18ec 193b efef 28bd
000003b0: e5a9 76be d2ed 33bd 42e6 75bd acff 72bd
000003c0: 1afc 1fbc 055d 75bc b1df bdbd 9d6e e4bd
000003d0: 4c67 52bd 132e 10be 8281 2a3d 84a1 1a3c
000003e0: 74b0 8abc 3674 a03c 06d2 b93c b614 1b3c
000003f0: bf76 0dbd e1a9 90bb 8fa6 e13c ec8c 67bd

l2.weight f4 [128, 512]
0.15115604 0.035123985 -0.051079042 -0.06395125 -0.037407823 0.02226154 0.031794153 0.040194426
-0.07757802 -0.021474777 0.0026225033 0.033141743 -0.04994016 -0.040245745 0.017303942 0.022597158
-0.011171835 -0.00037269405 0.028433483 -0.022155872 -0.099171765 -0.07464463 -0.027355649 -0.043135446
0.0017564287 -0.021539817 -0.021857481 -0.023079455 0.0051190928 0.037806317 -0.051018678 -0.03739999
0.011501704 -0.02692442 -0.05104193 -0.0065178834 0.047954507 -0.0686637 -0.015170558 -0.04765533
-0.0178171 0.027119787 -0.0037870419 -0.032336194 0.034211535 -0.036077317 0.32735974 -0.09726736
-0.009154045 0.024099715 -0.01720696 -0.037948832 -0.006368978 0.0054649026 -0.041982155 -0.007977659
-0.0013077798 0.00012742046 0.054964315 0.045626834 0.011729593 -0.043193813 -0.021025604 -0.031479437
0.014898867 -0.03506856 -0.022059873 0.0054830965 -0.017096374 -0.20298901 0.07722919 0.020843487
-0.044033032 -0.018980406 0.011915084 -0.020779354 -0.014454526 -0.0457558 -0.025578339 -0.042409007
0.029930035 -0.035730124 -0.044928864 0.000711143 -0.048837814 0.022859061 0.22018121 0.032728862
0.0026451505 0.014114722 -0.01914703 -0.06233211 -0.038584273 -0.0045916755 0.03347261 0.0114411265
-0.013549953 0.014283904 -0.025850363 -0.0016146615 0.028825358 0.021608263 -0.16103497 0.03566549
0.02357876 -0.026291199 -0.033084203 0.00032180976 0.008372973 -0.025036626 -0.04761396 -0.040695336
0.016208244 -0.03492659 0.07045938 0.087350614 -0.059446413 -0.0025463523 0.017518563 0.043465443
-0.21760155 0.022943702 0.033484112 -0.010675873 -0.03902493 -0.03182706 -0.041342244 -0.012603004
-0.033812877 0.036602635 -0.017072843 -0.010828834 0.021039326 0.017031938 0.08952406 0.01548772
-0.026478684 0.026147615 -0.037753824 0.032408543 0.0541665 -0.099047534 0.043691326 -0.014791836
0.028361551 0.036578875 -0.060082067 0.36103195 -0.021105045 0.018599203 -0.032580294 -0.036870416
-0.009940238 -0.004247691 0.010426908 -0.10886375 -0.03331719 0.007814514 -0.04412002 -0.010296944
0.0010792211 0.030464409 -0.029452112 -0.028769612 -0.015962508 -0.04226753 0.014698963 -0.0012756365
0.053383384 -0.0107033895 -0.087594025 0.017971592 -0.0018529716 -0.20354009 -0.07676981 -0.0530462
-0.0375579 0.015944077 0.19984029 -0.012239762 -0.06448578 0.1548215 0.14612986 0.0063055847
-0.03819492 0.05559963 0.014203206 -0.04879554 0.036085956 0.017213168 0.041815236 -0.029733703
-0.016088275 -0.027169576 0.008047224 -0.020218711 0.005782332 -0.029393166 -0.0005819426 -0.006373041
0.13289021 -0.04792279 0.027028644 -0.073626496 -0.0061066938 -0.019071387 -0.034495063 0.021906557
-0.0054015364 -0.040738452 -0.019800093 -0.053624734 0.03851588 -0.0002941835 -0.018569749 0.1516247
-0.03057739 -0.018931828 -0.029688256 0.0009629501 0.009294498 -0.021529665 -0.027773125 -0.00014951406
-0.09405161 -0.03360095 -0.046875678 -0.056237776 -0.024982503 0.039845552 -0.026377285 0.01981811
0.016666017 0.019131485 -0.02228836 -0.05228123 -0.116737224 -0.026459198 0.015711112 -0.018553494
0.005784273 -0.0035296616 0.020048093 -0.031666603 0.038211487 -0.035013452 0.018645782 0.022340577
0.02028286 0.020058857 0.0010913452 0.19417053 -0.041320123 -0.076981045 -0.009320291 -0.015006464
00000000: a6c8 1a3e 2bde 0f3d 4238 51bd dff8 82bd
00000010: f238 19bd d55d b63c 963a 023d e9a2 243d
00000020: 3ae1 9ebd dfeb afbc 4ede 2b3b a3bf 073d
00000030: 0e8e 4cbd b9d8 24bd ffc0 8d3c ad1d b93c
00000040: 120a 37bc 2666 c3b9 56ed e83c 3b80 b5bc
00000050: 911a cbbd 49df 98bd f418 e0bc cbae 30bd
00000060: f837 e63a 4574 b0bc 760e b3bc 2011 bdbc
00000070: 10be a73b ccda 1a3d f6f8 50bd bb30 19bd
00000080: a571 3c3c 9a90 dcbc 5811 51bd f893 d5bb
00000090: f26b 443d 8e9f 8cbd ef8d 78bc 3c32 43bd
000000a0: 2bf5 91bc 512a de3c 0530 78bb f572 04bd
000000b0: 6521 0c3d cfc5 13bd b29b a73e 1c34 c7bd
000000c0: d9fa 15bc c46c c53c 9cf5 8cbc 3c70 1bbd
000000d0: dcb2 d0bb ed12 b33b 7bf5 2bbd bab4 02bc
000000e0: cf69 abba 2b9c 0539 4322 613d 34e3 3a3d
000000f0: 7b2d 403c ffeb 30bd e33d acbc 95f0 00bd
00000100: 611a 743c 0da4 0fbd e8b6 b4bc 8cab b33b
00000110: b20d 8cbc 5adc 4fbe 562a 9e3d f6bf aa3c
00000120: fb5b 34bd cc7c 9bbc 7c37 433c 7739 aabc
00000130: add2 6cbc 6f6a 3bbd aa89 d1bc 11b5 2dbd
00000140: d52f f53c c059 12bd 5407 38bd 006c 3a3a
00000150: 290a 48bd ed42 bb3c 2f77 613e b30e 063d
00000160: 435a 2d3b 6f41 673c 3bda 9cbc f44f 7fbd
00000170: 8b0a 1ebd c475 96bb 931a 093d 9073 3b3c
00000180: 9f00 5ebc 0907 6a3c 24c4 d3bc 0da3 d3ba
00000190: 2823 ec3c d003 b13c 5ae6 24be fa15 123d
000001a0: 3e28 c13c a460 d7bc 4d83 07bd 93b8 a839
000001b0: cb2e 093c 9c19 cdbc db06 43bd 27b0 26bd
000001c0: 27c7 843c 2f0f 0fbd 024d 903d e1e4 b23d
000001d0: 157e 73bd b4e0 26bb 1783 8f3c d208 323d
000001e0: f1d2 5ebe 6ef4 bb3c a326 093d dbe9 2ebc
000001f0: 9bd8 1fbd 175d 02bd 7c56 29bd d57c 4ebc
00000200: 5f7f 0abd a5ec 153d 59dc 8bbc 6c6b 31bc
00000210: aa5a ac3c 9086 8b3c 6458 b73d 35c0 7d3c
00000220: d3e9 d8bc 8633 d63c c1a3 1abd d2be 043d
00000230: b1dd 5d3d 6fd9 cabd adf5 323d 7559 72bc
00000240: 7c56 e83c bbd3 153d 9d18 76bd 2ed9 b83e
00000250: 7de4 acbc 5b5d 983c ea72 05bd 6f05 17bd
00000260: 61dc 22bc 3730 8bbb 9fd5 2a3c f5f3 debd
00000270: 9b77 08bd 7308 003c 32b7 34bd 83b4 28bc
00000280: a774 8d3a 7f90 f93c 8e45 f1bc 40ae ebbc
00000290: cec3 82bc b820 2dbd ebd3 703c 4233 a7ba
000002a0: 89a8 5a3d 455d 2fbc 7f64 b3bd 2939 933c
000002b0: 69df f2ba d06c 50be 7d39 9dbd f946 59bd
000002c0: 50d6 19bd 279d 823c efa2 4c3e 4889 48bc
000002d0: 1f11 84bd 8789 1e3e 11a3 153e 149f ce3b
000002e0: 4772 1cbd 70bc 633d 90b4 683c d5dd 47bd
000002f0: dece 133d a102 8d3c 7446 2b3d 1894 f3bc
00000300: 8fcb 83bc bb92 debc 81d8 033c b6a1 a5bc
00000310: b779 bd3b f0c9 f0bc 828d 18ba f1d4 d0bb
00000320: 5f14 083e b04a 44bd 2d6b dd3c 7dc9 96bd
00000330: a91a c8bb 993b 9cbc b24a 0dbd 6175 b33c
00000340: 5fff b0bb 5ddd 26bd ce33 a2bc 9ca5 5bbd
00000350: d4c2 1d3d a43c 9ab9 961f 98bc 8143 1b3e
00000360: 6f7d fabc ec16 9bbc c934 f3bc 7d6e 7c3a
00000370: f347 183c fb5e b0bc 7784 e3bc e0c6 1cb9
00000380: 219e c0bd 26a1 09bd b600 40bd 9559 66bd
00000390: 1ba8 ccbc 1735 233d 2d15 d8bc 9759 a23c
000003a0: 2c87 883c a2b9 9c3c 1496 b6bc d824 56bd
000003b0: ed13 efbd f6c0 d8bc 97b4 803c 7ffd 97bc
000003c0: 008a bd3b e551 67bb e63b a43c d7b4 01bd
000003d0: a683 1c3d 446a 0fbd 0abf 983c 9603 b73c
000003e0: 3e28 a63c 7952 a43c 780b 8f3a a4d4 463e
000003f0: 4a3f 29bd 3da8 9dbd 22b4 18bc acdd 75bc

l2.bias f4 [128]
0.0028753383 0.0022509252 0.01754491 -0.052417673 -0.022744875 0.015914978 -0.066694364 -0.04265855
-0.014924571 -0.05818174 -0.038676802 -0.032835 0.016603626 -0.13073589 -0.030359074 -0.069265984
-0.0383772 -0.04579474 -0.26302928 -0.016481295 -0.04880582 -0.16635194 0.019107947 0.0044913203
-0.009967748 0.79024523 -0.029104276 -0.03240324 0.010741647 -0.04251667 -0.0057075736 -0.040975913
-0.038236678 -0.009623402 -0.008231813 -0.048054036 -0.07540977 -0.03918787 0.03202789 -0.052372005
-0.0060458235 0.0117552625 -0.5117425 -0.04002675 0.037971754 0.006767738 -0.088002816 0.6075013
-0.04215869 -0.001319789 0.012838108 -0.0074858433 -0.040173728 -0.009990309 -0.050932072 0.008039464
0.011285787 -0.009406542 -0.051514067 -0.0397647 0.016941663 -0.013961991 -0.0021170606 -0.04965647
-0.017657382 -0.002346978 0.18743181 0.3275531 -0.030789545 -0.02715211 -0.06456061 -0.066838145
0.2051886 -0.05095644 -0.40202466 -0.0470765 -0.01933017 -0.0075949975 -0.023321869 -0.047845032
-0.004365855 -0.01354292 0.03131187 -0.04620484 -0.006713967 -0.03637416 -0.03833816 -0.002599049
-0.12530446 -0.005546558 -0.073901616 -0.07312605 -0.0730163 0.014209264 -0.09706255 -0.080713764
-0.007989431 0.003184312 0.01226978 -0.03202666 0.33949172 0.20471281 -0.028838795 -0.0543003
-0.05713762 0.0015652303 0.005332339 -0.049063165 -0.004006489 0.02817831 -0.038653202 -0.03124431
-0.05997855 -0.01047971 0.019425517 -0.09276554 0.0013061921 0.0228889 0.0052999207 -0.034494694
-0.0036400377 -0.05137694 -0.028887024 -0.012630176 -0.0046025207 0.0018223925 0.0005490629 -0.05474286
00000000: 2c70 3c3b 4284 133b 58ba 8f3c eab3 56bd
00000010: 7653 babc 2160 823c 0e97 88bd bbba 2ebd
00000020: 3086 74bc fa4f 6ebd 916b 1ebd fe7d 06bd
00000030: 5404 883c a1df 05be 98b3 f8bc 53db 8dbd
00000040: 6931 1dbd 4493 3bbd c6ab 86be c803 87bc
00000050: 9de8 47bd 2a58 2abe 4588 9c3c ed2b 933b
00000060: c44f 23bc 834d 4a3f 176c eebc 43b9 04bd
00000070: bcfd 2f3c f625 2ebd 9906 bbbb 5cd6 27bd
00000080: 109e 1cbd 79ab 1dbc bade 06bc 4fd4 44bd
00000090: 7070 9abd 7683 20bd ad2f 033d 0784 56bd
000000a0: 0b1c c6bb 2599 403c 8e01 03bf 17f3 23bd
000000b0: 4588 1b3d e7c3 dd3b d23a b4bd 3585 1b3f
000000c0: 97ae 2cbd c5fc acba ee56 523c ce4b f5bb
000000d0: 358d 24bd 65ae 23bc 269e 50bd f5b7 033c
000000e0: 06e8 383c e61d 1abc 6a00 53bd 4fe0 22bd
000000f0: 3ec9 8a3c d6c0 64bc 62be 0abb 9564 4bbd
00000100: 37a6 90bc c2cf 19bb 20ee 3f3e 0ab5 a73e
00000110: 5b3a fcbc 1a6e debc 5a38 84bd 70e2 88bd
00000120: f61c 523e b3b7 50bd 2dd6 cdbe 4ad3 40bd
00000130: 4e5a 9ebc 75df f8bb 810d bfbc 27f9 43bd
00000140: 720f 8fbb 20e3 5dbc e040 003d 4941 3dbd
00000150: d600 dcbb 12fd 14bd 7908 1dbd ce54 2abb
00000160: d04f 00be e7bf b5bb bb59 97bd 1cc3 95bd
00000170: 9289 95bd f9cd 683c bbc8 c6bd 424d a5bd
00000180: 1ae6 02bc e4af 503b 3007 493c 632e 03bd
00000190: dcd1 ad3e 3ca0 513e 563f ecbc fe69 5ebd
000001a0: 2309 6abd 6a28 cd3a e7ba ae3b 75f6 48bd
000001b0: de48 83bb 33d6 e63c d252 1ebd 11f4 ffbc
000001c0: 11ac 75bd 17b3 2bbc 4322 9f3c dcfb bdbd
000001d0: 8934 ab3a 8181 bb3c f5aa ad3b 4f4a 0dbd
000001e0: b38d 6ebb a070 52bd 7ba4 ecbc ccee 4ebc
000001f0: bed0 96bb 58dd ee3a fdee 0f3a 0d3a 60bd

l3.weight f4 [64, 128]
-0.024701815 -0.045390304 -0.0101798065 0.092910886 -0.037343927 -0.041157432 0.024456684 -0.019249462
0.025567608 -0.04107139 0.014988018 -0.022907376 0.06677467 -0.013500094 -0.05249355 -0.04883739
-0.013346504 0.006421746 -0.3628398 0.05783477 0.03269825 0.011885701 0.09136003 0.07433867
0.044878863 0.0617012 -0.019774733 -0.071258 -0.011297192 -0.044116728 0.071527086 -0.0010223052
-0.034768667 0.05287909 0.07222224 0.05735642 -0.05382635 -0.00019077372 -0.024839086 0.03229994
0.056339145 0.04742389 -0.3762073 -0.03795177 -0.048775204 -0.014523778 -0.03751863 0.0060788733
-0.04036153 0.039768547 0.020849667 -0.020050941 -0.07934218 -0.04595835 0.039754525 0.09182181
-0.060083624 0.0771004 0.10318317 0.102875 -0.01798451 -0.07850843 0.054742046 0.06739392
0.013059317 0.119447015 -0.10205769 0.043021332 -0.053346463 0.05025101 -0.08281995 -0.038565233
-0.044003304 0.030327152 -0.2618428 -0.056197114 0.15295264 0.058876976 0.034186713 0.06813575
0.031119332 -0.04430698 -0.103509456 -0.06286012 -0.0056233825 0.03499411 0.019582236 -0.047188397
0.02017129 0.048291966 -0.024938574 0.0013184962 0.06349961 -0.01702547 0.009657586 -0.017636318
-0.035731014 0.083784714 -0.0059367223 0.04209193 0.065153755 -0.3480136 0.061483253 -0.019472487
-0.019755242 0.11507464 0.0705452 0.05877013 -0.04956193 0.072076745 -0.0192213 -0.009580469
-0.0005680263 -0.00712239 0.028421039 -0.19166762 -0.040130615 -0.01951451 0.040425275 -0.06584029
0.026818844 0.03562412 -0.017506694 0.006629303 -0.03709534 0.022038013 -0.024692353 0.034912392
0.036487404 0.06495317 -0.06027357 -0.06076973 0.07403156 0.0017420135 0.12747668 0.11468017
0.07611021 -0.007787688 -0.08026197 -0.03687708 -0.055364028 0.13994738 -0.053498656 -0.019601472
-0.007591091 0.07056648 -0.036359172 -0.041130006 -0.023495572 -0.086140186 -0.012649683 0.093625784
0.0019104867 -0.35921732 0.07044289 -0.011238785 0.097074255 -0.016670402 0.022843147 -0.008664285
-0.0013637699 -0.019536765 -0.09571101 -0.039637715 0.10440801 -0.01494345 0.07655917 0.052896023
-0.022252103 -0.08626366 0.08296609 -0.07652819 0.0009128691 0.034736674 0.004386547 -0.03613913
0.012114848 0.054595936 -0.031929865 0.020561812 -0.07478022 0.07207548 -0.008647139 -0.046375744
-0.06437465 -0.04516841 0.0013124712 -0.031536076 0.0224841 -0.017741542 -0.027219903 0.06454183
0.03949205 0.029421369 -0.070888095 0.09477321 -0.009927389 0.07056719 -0.007333425 -0.075819
-0.0034920184 -0.054561242 0.12278798 -0.036472123 0.058839962 -0.05111107 0.058870208 -0.054818574
-0.055283777 -0.009530372 -0.016364923 0.06950649 0.036006633 0.08103104 -0.023165973 0.019600855
0.016659383 -0.008957642 0.06607483 -0.048637815 -0.007607055 -0.072947204 0.015869282 -0.070618026
-0.07252677 -0.04122582 -0.06534376 -0.07357618 -0.1724649 0.114383206 0.03348639 -0.056771655
-0.06557081 0.09865536 -0.008812052 -0.079410605 0.0477503 0.00572743 -0.08641256 0.0685005
-0.08301301 -0.01606455 0.03769918 0.04570732 0.05500506 0.03038244 0.10944384 -0.027911538
-0.053837355 -0.0056835446 0.061691523 0.045879304 -0.052224655 -0.03823413 -0.021270366 -0.03258075
00000000: 765b cabc 2feb 39bd 34c9 26bc 1048 be3d
00000010: f2f5 18bd b294 28bd 6259 c83c 0cb1 9dbc
00000020: 2973 d13c 793a 28bd 4e90 753c 40a8 bbbc
00000030: 28c1 883d 802f 5dbc 7a03 57bd b709 48bd
00000040: 4cab 5abc 836d d23b 23c6 b9be 27e4 6c3d
00000050: 9aee 053d 3ebc 423c f81a bb3d df3e 983d
00000060: e6d2 373d 66ba 7c3d 9ffe a1bc b7ef 91bd
00000070: dc17 39bc beb3 34bd cb7c 923d dffe 85ba
00000080: 9769 0ebd bf97 583d 41e9 933d 91ee 6a3d
00000090: 0579 5cbd 6e0a 48b9 577b cbbc f14c 043d
000000a0: e0c3 663d 8e3f 423d 3e9e c0be 5173 1bbd
000000b0: 82c8 47bd 24f5 6dbc 23ad 19bd 4931 c73b
000000c0: 2252 25bd 58e4 223d eccc aa3c df41 a4bc
000000d0: 277e a2bd d33e 3cbd a4d5 223d 130d bc3d
000000e0: 3f1a 76bd d1e6 9d3d b351 d33d 21b0 d23d
000000f0: 4054 93bc 07c9 a0bd 3239 603d d305 8a3d
00000100: bff6 553c a3a0 f43d 9f03 d1bd 2337 303d
00000110: d281 5abd 01d4 4d3d 829d a9bd 94f6 1dbd
00000120: cf3c 34bd a670 f83c 4210 86be f22e 66bd
00000130: 9e9f 1c3e fc28 713d 5e07 0c3d c28a 8b3d
00000140: f8ed fe3c 3c7b 35bd c4fc d3bd cebc 80bd
00000150: 5a44 b8bb fc55 0f3d ed6a a03c 9f48 41bd
00000160: 433e a53c cccd 453d fb4b ccbc 64d1 ac3a
00000170: 150c 823d 0079 8bbc da3a 1e3c 0a7a 90bc
00000180: af5a 12bd 5297 ab3d d688 c2bb 9668 2c3d
00000190: 556f 853d d72e b2be ddd5 7b3d c484 9fbc
000001a0: bfd5 a1bc 41ac eb3d 007a 903d f3b8 703d
000001b0: 7301 4bbd f99c 933d fd75 9dbc 66f7 1cbc
000001c0: 9ae7 14ba f062 e9bb 3dd3 e83c 8444 44be
000001d0: 0060 24bd e5dc 9fbc f994 253d 46d7 86bd
000001e0: 31b3 db3c 99ea 113d 336a 8fbc a03a d93b
000001f0: 49f1 17bd 1089 b43c 9e47 cabc 4c00 0f3d
00000200: d173 153d 2b06 853d 6be1 76bd aee9 78bd
00000210: dc9d 973d 4654 e43a 3f89 023e 70dd ea3d
00000220: abdf 9b3d dd2f ffbb 6360 a4bd 6c0c 17bd
00000230: 64c5 62bd 5e4e 0f3e 6821 5bbd 4493 a0bc
00000240: b0be f8bb 2985 903d 5bed 14bd f077 28bd
00000250: c979 c0bc 446a b0bd 9e40 4fbc e0be bf3d
00000260: 4c69 fa3a 55eb b7be 5d44 903d e222 38bc
00000270: dece c63d 5e90 88bc 8d21 bb3c a5f4 0dbc
00000280: 86c0 b2ba 910b a0bc 2204 c4bd 285b 22bd
00000290: ded3 d53d 5fd5 74bc 0ecb 9c3d 80a9 583d
000002a0: 0b4a b6bc 00ab b0bd 20ea a93d d0ba 9cbd
000002b0: 9c4d 6f3a 0b48 0e3d 06bd 8f3b a006 14bd
000002c0: 5b7d 463c fd9f 5f3d e4c8 02bd 3f71 a83c
000002d0: 5f26 99bd 4f9c 933d bbac 0dbc 7ef4 3dbd
000002e0: dbd6 83bd 8302 39bd 3a07 ac3a f92b 01bd
000002f0: 9330 b83c b656 91bc 46fc debc 822e 843d
00000300: 6ac2 213d 1505 f13c c72d 91bd 7518 c23d
00000310: 7da6 22bc 8885 903d 3a4d f0bb fe46 9bbd
00000320: 59da 64bb 9c7b 5fbd 4478 fb3d cb63 15bd
00000330: 2c02 713d d759 51bd e321 713d 7189 60bd
00000340: 3e71 62bd 4725 1cbc bb0f 86bc 6b59 8e3d
00000350: b17b 133d 9af3 a53d 91c6 bdbc f991 a03c
00000360: 4279 883c 13c3 12bc 3e52 873d 7238 47bd
00000370: 9a44 f9bb 5865 95bd 4c00 823c 2fa0 90bd
00000380: ea88 94bd 68dc 28bd f3d2 85bd 1caf 96bd
00000390: a49a 30be be41 ea3d 0629 093d 6589 68bd
000003a0: fd49 86bd d20b ca3d 6d60 10bc 07a2 a2bd
000003b0: d295 433d 2aad bb3b 11f9 b0bd fd49 8c3d
000003c0: ba02 aabd ce99 83bc 756a 1a3d 9937 3b3d
000003d0: fc4c 613d 98e4 f83c 1824 e03d bda6 e4bc
000003e0: 8f84 5cbd 073d babb 40b0 7c3d f0eb 3b3d
000003f0: 85e9 55bd 649b 1cbd 313f aebc 6473 05bd

l3.bias f4 [64]
0.3233635 -0.34323227 -0.41677377 -0.3304697 0.0430525 -0.26584697 -0.41602167 -0.3429036
-0.2289679 -0.3526797 -0.22314061 0.040439244 -0.7911278 -0.12893288 0.8685787 0.5182665
-0.20488112 -0.20155415 -0.24076301 0.51201576 0.104107365 -0.052592777 -0.5052423 -0.23953326
-0.4423267 0.4562496 0.030213468 -0.068356454 -0.28350085 0.27384907 -0.14511137 0.912551
-0.24157517 -0.025746392 -0.1543988 -0.0530624 -0.20459597 -0.09465635 -0.17254461 -0.032919478
-0.43570375 -0.28954956 -0.38791323 0.19692333 -0.068962686 -0.5498067 -0.11242718 -0.14036675
0.89337116 0.17057301 -0.2675441 -0.32624066 -0.25478983 -0.12740158 -0.12606566 -0.34897682
-0.1401819 -0.17902546 -0.17031926 -0.23671372 -0.1746338 0.40920442 -0.15345857 -0.053300936
00000000: e78f a53e 24bc afbe 5f63 d5be 5333 a9be
00000010: d157 303d 181d 88be cb00 d5be 1091 afbe
00000020: 9076 6abe 6f92 b4be f97e 64be 9fa3 253d
00000030: 5a87 4abf fb06 04be 2c5b 5e3f 1dad 043f
00000040: 5bcc 51be 3664 4ebe 948a 76be 7713 033f
00000050: 3e36 d53d 866b 57bd 8f57 01bf 3548 75be
00000060: a578 e2be 8c99 e93e 3c82 f73c 78fe 8bbd
00000070: 0627 91be f235 8c3e 1398 14be f19c 693f
00000080: 7b5f 77be 19ea d2bc b81a 1ebe f657 59bd
00000090: 9b81 51be 30db c1bd 89af 30be 93d6 06bd
000000a0: 9014 dfbe d73f 94be 909c c6be 45a6 493e
000000b0: 4f3c 8dbd 22c0 0cbf 3940 e6bd 4dbc 0fbe
000000c0: f9b3 643f b1aa 2e3e 8afb 88be 0409 a7be
000000d0: d073 82be 8f75 02be 5b17 01be 17ad b2be
000000e0: d88b 0fbe 7352 37be 2c68 2ebe 1565 72be
000000f0: 34d3 32be 3e83 d13e 3e24 1dbe 1552 5abd

out.weight f4 [3, 64]
-0.08976507 -0.14111881 -0.17113087 -0.28514346 -0.25552636 -0.043727964 -0.14715694 -0.014947042
0.115518786 -0.06604663 0.04335426 -0.09837747 -2.644563 -0.06620635 -0.24991825 -0.49431148
-0.07308805 -0.16025586 0.0366176 0.026948653 -0.029207248 -0.083275534 -0.3458903 0.078393415
-0.3696171 -0.2232549 -0.39696392 -0.104350835 -0.051908605 -0.044030707 0.07781582 -0.44069824
-0.074253164 0.050605923 -0.35387716 -0.1697419 0.010843263 0.060983732 0.0099407025 -0.13699928
0.021829665 -0.08060894 -0.26608086 -0.058811385 -0.21594861 -0.23907287 -0.07566329 -0.15431502
-0.17935652 -0.05379482 0.09026092 -0.059533734 0.0032494757 -0.10602527 -0.16305006 -0.40723464
-0.2795517 -0.22246787 -0.14710161 -0.0068419864 -0.009078831 -0.23249654 0.04742517 0.001519225
-0.045413505 -0.0069783507 -0.138861 -0.037929986 -0.22930236 -0.06697068 -0.11451921 0.013749739
0.04482086 -0.11637527 -0.063072175 -0.010350371 -0.019732764 -0.010053455 -0.07908424 -0.11823281
0.042618863 -0.080383055 -0.0052626673 0.10826426 -0.03406768 -0.07917044 -0.06708898 0.03235496
-0.25145584 -0.15875915 -0.09584986 -0.102615416 -0.061414972 -0.036213327 0.096679084 -0.042122394
-0.016059337 -0.2205528 -0.17556764 -0.030248823 0.06000456 -0.0061256373 -0.020757325 -0.119136855
-0.06593598 -0.09574657 -0.018086348 0.029203316 -0.134663 -0.1679146 0.027318222 -0.112509735
-0.25761905 -0.016597075 -0.04786345 -0.009601254 -0.042908996 -0.05682138 -0.021756355 -0.08162072
-0.100484245 -0.059324246 -0.06654216 0.027828753 0.01700501 0.065993994 0.004279342 -0.100804
0.007091169 0.00784215 -0.1031398 -0.09474608 -0.024085384 -0.014762748 -0.12288077 0.010117699
-0.18758483 -0.115096174 -0.026621722 -0.06466707 0.1520732 -0.08178245 0.2202515 0.01670759
0.12124436 -0.0892018 -0.10354762 -0.24800782 0.07052653 -0.10303133 -0.04887231 0.053059667
-0.265165 0.07124724 -0.0909442 -0.16585022 -0.1446476 0.06489338 0.038615346 0.046885733
-0.17424856 0.063985035 -0.11320121 0.045806654 -0.05580974 -0.13751172 0.0275048 0.055226453
-1.2821391 -0.016725618 -0.03155239 0.0608645 -0.08535769 -0.15298627 -0.041451436 0.026544625
-0.018418526 0.02676042 -0.03201905 -0.21865557 -0.045855403 -0.06596623 0.081281684 -0.064850196
-0.14937632 -0.27077803 -0.020372499 0.0114484085 -0.042291477 -0.026984489 -0.013069854 -0.08490966
00000000: c0d6 b7bd 7381 10be ee3c 2fbe 53fe 91be
00000010: 5ad4 82be 181c 33bd 4fb0 16be 70e4 74bc
00000020: 1d95 ec3d 7543 87bd 3d94 313d 217a c9bd
00000030: 8540 29c0 3297 87bd 92ea 7fbe 6516 fdbe
00000040: 30af 95bd 1d1a 24be 56fc 153d 6cc3 dc3c
00000050: 0a44 efbc 5d8c aabd 8918 b1be ba8c a03d
00000060: 743e bdbe ef9c 64be db3e cbbe e4b5 d5bd
00000070: 1e9e 54bd 8b59 34bd e75d 9f3d 33a3 e1be
00000080: 0b12 98bd 2848 4f3d 632f b5be d2d0 2dbe
00000090: f1a7 313c 14ca 793d 54de 223c 8a49 0cbe
000000a0: 20d4 b23c 4d16 a5bd c03b 88be 35e4 70bd
000000b0: a221 5dbe 85cf 74be 5bf5 9abd c204 1ebe
000000c0: 3ca9 37be f557 5cbd b8da b83d a5d9 73bd
000000d0: 28f5 543b c723 d9bd 98f6 26be 0f81 d0be
000000e0: 6721 8fbe 9ece 63be cea1 16be be32 e0bb
000000f0: 61bf 14bc 9313 6ebe e540 423d bb20 c73a
00000100: 8303 3abd a6aa e4bb 9431 0ebe 795c 1bbd
00000110: 3dce 6abe ed27 89bd 0c89 eabd 9646 613c
00000120: 1496 373d 2856 eebd fc2b 81bd 9a94 29bc
00000130: 9ba6 a1bc 3fb7 24bc ebf6 a1bd 0b24 f2bd
00000140: 1e91 2e3d df9f a4bd 7472 acbb a7b9 dd3d
00000150: 8d8a 0bbd 1d24 a2bd f265 89bd a286 043d
00000160: d2be 80be c291 22be ee4c c4bd 0828 d2bd
00000170: 448e 7bbd 6d54 14bd afff c53d 8888 2cbd
00000180: df8e 83bc 98d8 61be 01c8 33be 61cc f7bc
00000190: 57c7 753d 92b9 c8bb 440b aabc 06fe f3bd
000001a0: 7109 87bd c716 c4bd d229 94bc cb3b ef3c
000001b0: 19e5 09be cef1 2bbe 77ca df3c 816b e6bd
000001c0: a5e6 83be 97f6 87bc 770c 44bd 944e 1dbc
000001d0: 58c1 2fbd 89bd 68bd 623a b2bc c428 a7bd
000001e0: afca cdbd fbfd 72bd 4247 88bd 20f9 e33c
000001f0: 174e 8b3c dc27 873d b939 8c3b 5472 cebd
00000200: 095d e83b 5c7c 003c f63a d3bd 3c0a c2bd
00000210: b64e c5bc 74df 71bc eaa8 fbbd b5c4 253c
00000220: 3d16 40be 8bb7 ebbd cc15 dabc 2b70 84bd
00000230: 14b9 1b3e 8f7d a7bd 9c89 613e 5bde 883c
00000240: f74e f83d 6faf b6bd c610 d4bd c3f5 7dbe
00000250: 3770 903d 1702 d3bd 552e 48bd 1855 593d
00000260: b5c3 87be 13ea 913d f440 babd a4d4 29be
00000270: 801e 14be d2e6 843d 202b 1e3d 410b 403d
00000280: 376e 32be 960a 833d 09d6 e7bd c29f 3b3d
00000290: c198 64bd dfcf 0cbe bf51 e13c 2235 623d
000002a0: 221d a4bf 2a04 89bc 143d 01bd 0e4d 793d
000002b0: 03d0 aebd 6fa8 1cbe fbc8 29bd 1d74 d93c
000002c0: 73e2 96bc ab38 db3c 6826 03bd 3fe7 5fbe
000002d0: e0d2 3bbd 4e19 87bd 0377 a63d 2ed0 84bd
000002e0: 1bf6 18be 6ba3 8abe 3ae4 a6bc 1b92 3b3c
000002f0: d439 2dbd 930e ddbc f122 56bc 1ee5 adbd

out.bias f4 [3]
-0.7333935 1.274366 -0.96841323
00000000: adbf 3bbf 6d1e a33f eee9 77bf
