server/models/Underweight_Overweight_v2.pth (torch, 342936 bytes, 8 tensors)

l1.weight f4 [512, 20]
0	0xbd50b255	-0.05095132
1	0xbc3e041c	-0.011597659
2	0x3f9505b7	1.1642369
3	0x3fa22b59	1.2669479
4	0x3d3577cb	0.044303697
5	0x3f479648	0.77963686
6	0x3f894acc	1.0725951
7	0xbe13d0ce	-0.14435121
8	0x3f356e26	0.708712
9	0x3f71345e	0.9422053
10	0x3f99e903	1.2024235
11	0x3de1661e	0.110058054
12	0x3f252c6e	0.6452092
13	0xbce52bb7	-0.027974946
14	0xbe28f585	-0.16499908
15	0x3eb4cf7c	0.35314548
16	0xbfb5a51f	-1.4191016
17	0x3da9cb9f	0.08290791
18	0x3f63bb2d	0.8895748
19	0x3f7c20d0	0.9848757
20	0x3d2e9b53	0.042628597
21	0x3cad9370	0.021188468
22	0xbff813c0	-1.9381027
23	0x3f8ae1e1	1.0850183
24	0x3d48fcca	0.049069203
25	0xbfd53b80	-1.6658783
26	0xbfa1bc41	-1.2635576
27	0x3bce0bf3	0.0062880456
28	0xbf7f1649	-0.9964338
29	0xbfba4440	-1.4552078
30	0xbf8e6956	-1.1125896
31	0xbf068f88	-0.5256276
32	0xbe9e8cc2	-0.30966765
33	0xbc7d3881	-0.015455366
34	0x3d897625	0.067119874
35	0x3d07e7fd	0.033180226
36	0x404870d9	3.1318877
37	0x3e900877	0.28131458
38	0xbf22f197	-0.63649887
39	0xc03f013d	-2.9844506
40	0xbe34fd57	-0.17674766
41	0xbdee4fd1	-0.116363175
42	0xbe5b30e2	-0.21405366
43	0x3cc030e0	0.023460805
44	0x3dc868ae	0.09785591
45	0xbc8389f4	-0.016056992
46	0xbe350b44	-0.17680079
47	0xbe1fe28c	-0.15613765
48	0xbd844064	-0.06457594
49	0xbd12e50b	-0.035862964
50	0xbe204a5f	-0.1565337
51	0xbd9645c3	-0.07337525
52	0x3e5d94e3	0.21638827
53	0xbd193852	-0.037407227
54	0xbe58d761	-0.2117591
55	0x3d9fa6c4	0.0779548
56	0x3dad6595	0.08466641
57	0xbd04abbf	-0.032390352
58	0x3e1ea0ac	0.15490979
59	0x3e316573	0.17323856
60	0xbe109ec8	-0.1412307
61	0xbd139ae0	-0.036036372
62	0xbf179b14	-0.59221005
63	0xbe1bdbdd	-0.1522059
64	0x3e0a58ad	0.1351039
65	0xbf584d62	-0.84493077
66	0xbe323971	-0.17404725
67	0x3ded64b1	0.11591471
68	0xbf05462d	-0.52060205
69	0xbf11ff67	-0.5703034
70	0xbf12f404	-0.5740359
71	0xbe3b86fe	-0.18313214
72	0x3dbdd913	0.09269919
73	0xbe16ba34	-0.14719468
74	0x3e3f787f	0.1869831
75	0xbe8ad335	-0.27114263
76	0x3f9ff534	1.2496705
77	0x3e2c15cb	0.16805188
78	0xbece4296	-0.40285176
79	0xbf76d4db	-0.9641854
80	0xbe0dd211	-0.13849665
81	0xbc955b5c	-0.01823204
82	0x3f90f475	1.1324602
83	0x3fb5f71b	1.4216036
84	0x3ca2ed8b	0.01988866
85	0x3fa5e7bc	1.2961345
86	0x3f5988fb	0.8497464
87	0x3d08229a	0.033236124
88	0x3f0e3a41	0.5555764
89	0x3fafd12c	1.3735709
90	0x3fa4b15d	1.2866627
91	0xbe149820	-0.14511156
92	0x3f9edcb9	1.2411109
93	0x3e303082	0.17206004
94	0x3e64b554	0.22334796
95	0x3eaee252	0.34157044
96	0xbfa7aa93	-1.309893
97	0x3e26a8f5	0.1627539
98	0x3fd7c050	1.6855564
99	0x3d1a2814	0.037635878
100	0xbe89d328	-0.26918912
101	0xbbd7ed12	-0.0065895403
102	0xbf50e119	-0.8159347
103	0xbf3f41fe	-0.7471007
104	0x3dab78d3	0.08372655
105	0xbf4e99c7	-0.80703396
106	0xbf0c137c	-0.5471723
107	0x3d3867ba	0.045020796
108	0xbf13a4a0	-0.5767307
109	0xbf383e88	-0.71970415
110	0xbf5d88e3	-0.86537
111	0xbe5842b3	-0.21119194
112	0xbe5168f3	-0.20450191
113	0xbc21b38b	-0.009869467
114	0xbe894fee	-0.26818794
115	0xbeb58f31	-0.3546081
116	0x3f4aafab	0.791743
117	0xbeae8956	-0.34089154
118	0xbf0da4c4	-0.5532954
119	0xbf81041a	-1.0079377
120	0xbdcf2ecb	-0.10116347
121	0xbdc2f551	-0.09519447
122	0x3e48206f	0.19543622
123	0x3ddb03f7	0.106941156
124	0xbdf79758	-0.120894134
125	0xbdb171e7	-0.08664303
126	0xbbcaa9eb	-0.0061848066
127	0xbe0d3850	-0.13791013
128	0x3d21eb96	0.039531313
129	0x3e4189e4	0.18900257
130	0x3def2e18	0.116787136
131	0x3e3128f2	0.17300776
132	0x3e501072	0.20318773
133	0xbe506a3f	-0.2035303
134	0xbdac429a	-0.08411141
135	0xbc70566a	-0.01466904
136	0xbd6f5f9c	-0.05844079
137	0xbe2449aa	-0.16043726
138	0xbc9a361d	-0.018824631
139	0x3d62c32d	0.055361915
140	0xbd12817c	-0.035768017
141	0xbdba2f89	-0.09091098
142	0xbd80e266	-0.06293182
143	0x3d7b68f1	0.061379377
144	0x3e492ec9	0.19646753
145	0x3c45f999	0.0120834345
146	0xbe407327	-0.18793927
147	0x3da4c07d	0.08044527
148	0x3d1c693e	0.038186304
149	0xbe02a564	-0.12758404
150	0x3e6201fb	0.22071068
151	0xbe2a09b0	-0.16605258
152	0xbe44f5aa	-0.19234338
153	0x3b3cfe40	0.0028838068
154	0xbdde9f68	-0.10870248
155	0x3ca48fdb	0.020088127
156	0xbbd9d3bc	-0.006647555
157	0x3d92ebf6	0.07173912
158	0xbe1263d6	-0.14295897
159	0x3e2dd9ec	0.16977662
160	0xbe04d466	-0.12971649
161	0xbd28bf7a	-0.04119823
162	0xbf41c055	-0.756841
163	0xbe43361c	-0.1906361
164	0xbbc023e8	-0.0058636554
165	0xbe72b9d4	-0.237037
166	0xbe858706	-0.26079577
167	0xbe2bc4e6	-0.1677433
168	0xbf077062	-0.5290586
169	0xbe9704de	-0.294959
170	0xbf1b6098	-0.60694265
171	0xbe32f146	-0.17474851
172	0xbe2d0949	-0.16898073
173	0x3cb1fc78	0.021726832
174	0xbdfe9434	-0.12430611
175	0xbeaae97c	-0.3338126
176	0x3f95b646	1.169625
177	0x3e29cb3c	0.16581434
178	0xbda9549b	-0.0826809
179	0xbf4f89c2	-0.81069577
180	0x3deb98b5	0.11503736
181	0xbac6fce8	-0.0015181573
182	0xbe93cee0	-0.2886877
183	0xbd01382e	-0.031547718
184	0xbd8fc839	-0.07020611
185	0xbeee5e7d	-0.46556464
186	0xbe0ef418	-0.13960302
187	0xbd33d400	-0.04390335
188	0xbe4ab5b7	-0.19795881
189	0xbe04645a	-0.12928906
190	0xbeaed03f	-0.34143254
191	0x3dae1d59	0.08501691
192	0xbc88e198	-0.016709134
193	0x3d817d0d	0.0632268
194	0xbe38287c	-0.17984194
195	0xbed3b038	-0.41345382
196	0x3eef1264	0.46693718
197	0xbe8d9134	-0.27649844
198	0xbeae71e8	-0.3407128
199	0xbdfdfbb2	-0.12401523
200	0x3c0f1964	0.008734081
201	0xbc91f900	-0.017818928
202	0x3d5d1675	0.053976495
203	0xbd6ffceb	-0.05859081
204	0x3df5dbce	0.12004815
205	0xbd968a45	-0.073505916
206	0xbe1b6e25	-0.15178736
207	0x3cb917ca	0.022594351
208	0x3dd00ef5	0.10159103
209	0xbe028cdc	-0.12749046
210	0xbe05b458	-0.13057077
211	0xbe3656e2	-0.1780658
212	0xbd9e79b5	-0.077380575
213	0xbcd048e3	-0.02542538
214	0x3c3f833e	0.011689005
215	0xbd0e5033	-0.034744453
216	0xbe20c172	-0.15698794
217	0x3e3a3f79	0.18188275
218	0x3c18bce4	0.009322379
219	0xbd5ca1fd	-0.05386542
220	0xbdc6f850	-0.097153306
221	0x3a347530	0.00068839174
222	0x3f115bc2	0.56780636
223	0x3eb49b43	0.35274705
224	0x3dba9bd5	0.09111754
225	0x3ef1d44c	0.47232282
226	0x3ecce534	0.40018618
227	0xbe3bdb6e	-0.18345425
228	0x3f188cdf	0.5958995
229	0x3ed7f552	0.42179352
230	0x3f10681d	0.56408864
231	0x3be7f30a	0.007078533
232	0x3e83300c	0.25622594
233	0xbbd98100	-0.0066376925
234	0x3de7691e	0.112993464
235	0x3e368d3b	0.17827313
236	0xbf41902e	-0.75610626
237	0xbdf6f5e8	-0.12058622
238	0x3f104685	0.56357604
239	0x3ee52e26	0.4476177
240	0x3deebbf9	0.11656947
241	0xbe5677d5	-0.2094415
242	0xbe28c151	-0.16479994
243	0x3db72b44	0.08943799
244	0x3dbba70e	0.091627225
245	0x3dc57153	0.096407555
246	0x3df3acaa	0.118981674
247	0xbc0a366c	-0.008435827
248	0xba86b110	-0.0010276157
249	0x3da5030e	0.08057223
250	0x3d9b0a95	0.07570378
251	0xbe01298e	-0.12613508
252	0x3cffa22a	0.031205256
253	0xbc22f5fc	-0.009946343
254	0x3e0af068	0.1356827
255	0xbde0e88e	-0.10981856

l1.bias f4 [512]
0	0x3fa95d77	1.3231648
1	0xbfd9ed6d	-1.7025582
2	0x3e35d3d4	0.17756587
3	0xbf1bdc61	-0.60883147
4	0x3facf5c4	1.3512502
5	0xbf8f4bf2	-1.1195052
6	0x3da7f21c	0.082004756
7	0xbd86ac3e	-0.06575821
8	0xbf13d2d9	-0.57743603
9	0xbea6459a	-0.32474977
10	0x3ccdc9b4	0.025120594
11	0x3ec5618b	0.38550982
12	0xbe5a66a3	-0.21328215
13	0x400fcb76	2.2467933
14	0x3f928157	1.1445721
15	0xbf6bfd53	-0.9218342
16	0x3e70078c	0.23440379
17	0xbe5f4383	-0.21803097
18	0x3e59bc63	0.2126327
19	0xbd8f91e3	-0.070102476
20	0x3e293e7b	0.1652774
21	0xbdeb3be9	-0.11486036
22	0x3e39cac4	0.18143755
23	0x3e2a486a	0.16629186
24	0x3f9163ba	1.1358559
25	0xbf3f189a	-0.74646914
26	0x3f616ab6	0.8805345
27	0x3ec8d3e9	0.39224175
28	0xbfe6fc4d	-1.8045746
29	0x3cd487b5	0.025943616
30	0x3d9800e8	0.07422048
31	0x400b81a9	2.1797888
32	0xbd306330	-0.043063343
33	0x3ebf3c7d	0.37350836
34	0xbe11d5cd	-0.14241715
35	0x3e520f2d	0.20513602
36	0x3d9d0ef5	0.076688685
37	0xbf936d22	-1.151768
38	0x3e6442b1	0.22291066
39	0x3d14703e	0.036239855
40	0x3e470a1b	0.19437449
41	0xbd879059	-0.06619329
42	0xbed14898	-0.40875697
43	0x3d07f4d1	0.03319246
44	0x3c82e892	0.015980039
45	0x3f603dae	0.87594116
46	0x3f0f4a23	0.559725
47	0xbe20843a	-0.1567544
48	0xbd8ffbf0	-0.07030475
49	0x3e21d021	0.15802051
50	0xbf69e847	-0.9137005
51	0x402a492c	2.660716
52	0xbdf15a31	-0.11784781
53	0x3dcfe7c9	0.101516314
54	0xbfc46fe3	-1.5346645
55	0xbe13d508	-0.14436734
56	0xbeda18bd	-0.42597
57	0xc01c8c96	-2.4460807
58	0xc00e561e	-2.2240062
59	0xbe0d924f	-0.13825344
60	0x3de12a33	0.10994377
61	0x3e595a32	0.21225813
62	0x3e2e3d20	0.17015505
63	0xbdba0e14	-0.090847164
64	0xbd9ce826	-0.07661466
65	0xbe2528d3	-0.16128854
66	0x3ea2ff5a	0.31835443
67	0x3cdcfb21	0.026975216
68	0xbf22885c	-0.6348932
69	0xbde3b37f	-0.111182205
70	0xbe1f04d7	-0.1552919
71	0x3d842922	0.06453158
72	0xbe27f130	-0.164006
73	0xbd56a8ef	-0.0524072
74	0x3e0a1fb6	0.1348866
75	0x3e022505	0.12709434
76	0x3f0e40f0	0.55567837
77	0x3c8fa98b	0.0175369
78	0x3d3d382a	0.04619614
79	0xbd9be01d	-0.076111056
80	0x3e31144d	0.172929
81	0x3e41f4be	0.18941018
82	0xbfa22390	-1.2667103
83	0xbf85cd4a	-1.0453274
84	0xbd03d55d	-0.0321859
85	0x3f1a7120	0.60328865
86	0xc01469e2	-2.3189626
87	0xbf5990c4	-0.8498652
88	0xbd6c1ada	-0.057642795
89	0xbf23d6d5	-0.6399968
90	0x3dc122ca	0.094304636
91	0x3f7f5069	0.9973207
92	0x3c30bf81	0.010787846
93	0xbefff48a	-0.49991256
94	0x3d92aaa4	0.07161453
95	0xbd00f21f	-0.031480905
96	0xbf36ce30	-0.7140837
97	0xbefdbc3f	-0.49557683
98	0x3f1401ba	0.57815135
99	0x3e00ecce	0.12590334
100	0xbe1687ed	-0.14700289
101	0xbf3f38f1	-0.7469626
102	0xba5e3034	-0.0008475811
103	0x3eb4cab1	0.3531089
104	0x3d6c746e	0.057728224
105	0xc004867b	-2.070708
106	0x3db9cfca	0.09072836
107	0x3ff2f267	1.8980225
108	0x3f0f7958	0.5604453
109	0x3daf512f	0.085604064
110	0x3e4f68a3	0.2025476
111	0x3e3d31ee	0.18476078
112	0xbe231a60	-0.1592803
113	0xbf3e2cdb	-0.74287194
114	0xbf36c875	-0.71399623
115	0xbf7fcbe1	-0.9992047
116	0x3c981944	0.018566735
117	0xbdc1e0fe	-0.09466742
118	0x3f547f68	0.83006907
119	0xbd1d934f	-0.038470563
120	0x3fd26c3c	1.643928
121	0xbe5e0d04	-0.21684653
122	0xbd95c9c2	-0.07313873
123	0xbf960093	-1.1718925
124	0xbd6bca35	-0.057565887
125	0x3e9be5ea	0.30448848
126	0xbf8c381d	-1.0954624
127	0xbd8ef9a7	-0.06981211
128	0x3d0317ca	0.03200511
129	0x3e2e7ce2	0.17039827
130	0xbded6b80	-0.115927696
131	0xc0031f03	-2.0487678
132	0xbfcf92ae	-1.6216638
133	0x400d9977	2.2124918
134	0xbed7d498	-0.42154384
135	0x3f570aca	0.8400084
136	0xbfbf4586	-1.4943092
137	0x3d9fd1e9	0.07803709
138	0x3e055bf9	0.13023366
139	0xbe417ccd	-0.18895264
140	0xbda00a4d	-0.07814465
141	0xbf386ebc	-0.7204397
142	0x3da3b813	0.07994094
143	0xbf0c73eb	-0.54864377
144	0x3d2d4953	0.042306256
145	0xbf01c024	-0.5068381
146	0xbf5b0d4e	-0.85567176
147	0x3da78834	0.081802756
148	0x3e407e85	0.18798263
149	0xbf8bad86	-1.091233
150	0x3fe838be	1.8142316
151	0x3f8d4192	1.1035635
152	0x3e4e5f57	0.20153557
153	0xbdd50092	-0.104004994
154	0x3e40654a	0.18788639
155	0xbe3e09aa	-0.18558374
156	0xbe3a5a6b	-0.18198554
157	0xbf212d5a	-0.62959826
158	0x3de5202c	0.11187777
159	0xbf50486f	-0.81360525
160	0x3fa4ba43	1.2869343
161	0xbe36e468	-0.17860568
162	0xbcc60b35	-0.024175266
163	0xbe2cb54e	-0.16866037
164	0xbe481f9a	-0.19543305
165	0xbdd64d30	-0.10463941
166	0xbcaaffe5	-0.020873973
167	0x3f99eec6	1.2025993
168	0xbf8b4934	-1.0881715
169	0x40126982	2.2876897
170	0xc01441d6	-2.3165183
171	0x3e293431	0.16523816
172	0x3f2cfe07	0.67575115
173	0x3d7d2de2	0.061811335
174	0xbbbada0e	-0.0057022637
175	0xbdb9c2c0	-0.09070349
176	0xbce2b22e	-0.027672853
177	0x3f93069e	1.1486394
178	0xbeb49693	-0.3527113
179	0x3f37653b	0.7163884
180	0x3fa2974b	1.2702421
181	0x3f17185b	0.5902154
182	0xbf3798a7	-0.71717304
183	0x3f12c96a	0.57338583
184	0x3e5d05b0	0.21584201
185	0x3ce1acf4	0.02754829
186	0x3f922766	1.1418273
187	0x3e1ac170	0.15112853
188	0xbf209b74	-0.627372
189	0xbcf4968b	-0.02985694
190	0x3e1110f4	0.14166623
191	0x3d12f09e	0.035874
192	0xbf7f19de	-0.99648845
193	0x3e27003b	0.16308682
194	0x3e5026bc	0.20327276
195	0xbe452e1f	-0.19255875
196	0xbe938724	-0.28814042
197	0xbe0afbb8	-0.13572586
198	0x3e45d885	0.19320877
199	0x3d36bc22	0.04461301
200	0x3dbfd7cf	0.09367334
201	0x3fce79c1	1.6130906
202	0xbc833eb6	-0.016021114
203	0x3e26afff	0.16278075
204	0x3d827dcf	0.06371652
205	0x3efd5c56	0.4948451
206	0x3e04ecad	0.1298091
207	0xc00e3267	-2.2218263
208	0x3e381c94	0.17979652
209	0x40055213	2.0831344
210	0x3eaa916f	0.33314082
211	0xbdf04267	-0.11731415
212	0x3e6ee176	0.23328194
213	0xbe0e762f	-0.13912271
214	0xbe433bf6	-0.19065842
215	0x3e37674e	0.17910501
216	0x3dc0f4e8	0.09421712
217	0xbce31663	-0.027720636
218	0xbe50ca90	-0.20389771
219	0x3f40d9df	0.75332445
220	0xbfe077eb	-1.7536596
221	0xbdc61440	-0.09671831
222	0x3e059968	0.13046801
223	0x402bd57c	2.684905
224	0x3e1b634e	0.151746
225	0xbe501db9	-0.20323838
226	0xbf09b1cc	-0.5378692
227	0x3f333d2e	0.7001523
228	0xbd1221b9	-0.03567669
229	0xbbc2ab78	-0.005940851
230	0x3e4c0f39	0.19927682
231	0x3e63824a	0.2221767
232	0x3ba8a8e8	0.0051470883
233	0xc00f905f	-2.2431867
234	0xbeb8315b	-0.35975155
235	0x3e00ef75	0.12591346
236	0xbd521829	-0.051292572
237	0x3f2a9327	0.66630787
238	0x3d95908e	0.07302962
239	0xbff3e6f1	-1.9054853
240	0x3d8126cb	0.06306227
241	0x3ea67a66	0.32515258
242	0xbd38f94b	-0.04515962
243	0x3d9fd39d	0.07804034
244	0x3e3a55b6	0.18196759
245	0xbca65600	-0.02030468
246	0x3e8fe603	0.28105173
247	0x3e110d01	0.14165117
248	0x3b814523	0.0039450093
249	0x3d3b115d	0.045670856
250	0x3e2b8ece	0.16753694
251	0x3eb73456	0.35782117
252	0xbe369917	-0.17831837
253	0xbe86e89e	-0.26349348
254	0xbadcd196	-0.001684713
255	0xbd8aa481	-0.06769658

l2.weight f4 [128, 512]
0	0xbd1a6b2d	-0.037699867
1	0x3d01be39	0.03167555
2	0x3d00983a	0.031395175
3	0x3c40ad5e	0.011760084
4	0xbd19e19d	-0.037568677
5	0xbd645faf	-0.055755313
6	0xbcac0d7e	-0.021002527
7	0x3d179039	0.037002776
8	0xbccb2964	-0.02480001
9	0xbc52df95	-0.012870689
10	0xbd0850e2	-0.03328026
11	0xbbb7dd73	-0.0056111156
12	0x3a89952a	0.0010496725
13	0xbdc84b84	-0.097800285
14	0xbb6abf7e	-0.0035819705
15	0xbd2812ed	-0.041033674
16	0xbd230dae	-0.039807968
17	0xbc05f9a4	-0.008177195
18	0x3c4eff1d	0.012634066
19	0xbcaf3a04	-0.021389969
20	0x3bde9aee	0.0067933714
21	0xbb0ac7c9	-0.002117621
22	0xbcc3da58	-0.023907825
23	0xbcb078e2	-0.021542016
24	0xbbf3db8d	-0.007441944
25	0x3ceb660a	0.02873518
26	0xbc49e316	-0.012322208
27	0xbd3072e4	-0.04307832
28	0xbd6fad83	-0.058515083
29	0x3ca34cdc	0.01993411
30	0x3d1a2667	0.03763428
31	0xbdb0496d	-0.08607755
32	0xbcdb02d1	-0.026734741
33	0x3a393bf6	0.0007066125
34	0xbd2cd54e	-0.04219561
35	0xbd0381dd	-0.03210627
36	0xbc0680cb	-0.008209418
37	0xbce850ab	-0.028358778
38	0x38c56fe2	9.414532e-05
39	0x3d24f636	0.040273868
40	0x3c229344	0.009922806
41	0xbc5a3e08	-0.013320453
42	0xbb952f29	-0.004552741
43	0x3bfba2aa	0.007679303
44	0xbc3acb27	-0.011400974
45	0xbcb6d14c	-0.022316597
46	0xbd400065	-0.046875376
47	0x3c94c91e	0.018162306
48	0x3cc04afb	0.023473253
49	0x3c1bf9db	0.009520019
50	0xbd50cea5	-0.05097832
51	0xbdeb6dc9	-0.11495549
52	0xbc247cce	-0.010039521
53	0x3d179109	0.03700355
54	0xbd5b29d0	-0.053506672
55	0x3ca6068b	0.020266792
56	0x3c2a4a6e	0.010393722
57	0x3d8f8240	0.07007265
58	0xbcc04f30	-0.02347526
59	0x3d2a4fb9	0.041579936
60	0xbd1d1d22	-0.03835786
61	0xb9cf67f1	-0.0003955956
62	0x3c9b7ae0	0.01897949
63	0xbd012187	-0.031526115
64	0x3c9f58ba	0.019451488
65	0x3d299239	0.041399214
66	0x3c9cb3af	0.019128649
67	0x39fd139f	0.0004827054
68	0xbbf027bc	-0.0073289555
69	0x3b77159e	0.0037702094
70	0xbcbf8000	-0.023376465
71	0xbd1002bb	-0.035158854
72	0x3bd125a3	0.0063826605
73	0xbcdd73ad	-0.027032698
74	0x3cb5f58b	0.02221181
75	0xbc30b7ad	-0.010785979
76	0xbc9b76c8	-0.018977538
77	0x3cd9ee0d	0.02660277
78	0xbc07e432	-0.008294152
79	0xbca571bd	-0.020195836
80	0xbcc6bac1	-0.024258973
81	0xbbb22d12	-0.0054375017
82	0xbb132fa1	-0.002245881
83	0xbd33c92b	-0.04389302
84	0x3d248cd2	0.04017336
85	0xbd26362c	-0.040579006
86	0x3c888102	0.016663078
87	0xbd140e96	-0.036146723
88	0x3b3ddf8f	0.0028972363
89	0xbd0b1da8	-0.03396383
90	0x3cc1c1c3	0.023651963
91	0x3c2de91d	0.010614661
92	0xbcdf6740	-0.027270913
93	0x3d145ddd	0.036222328
94	0x3be7f307	0.0070785317
95	0xbcdb07b0	-0.026737064
96	0x3d078824	0.03308882
97	0xbc47ca9a	-0.0121943
98	0xbc6e8875	-0.014558901
99	0xbcbd3e13	-0.023100888
100	0xbc3abf55	-0.011398156
101	0x3c1709f6	0.0092186835
102	0x3c7fed60	0.015620559
103	0x3bf319e9	0.00741886
104	0xbd15d7bc	-0.036582693
105	0xbc6c1eda	-0.014411652
106	0x3cdf326d	0.027245725
107	0xbc5ceeab	-0.013484637
108	0xbcc59c30	-0.024122328
109	0xbd312ff7	-0.043258633
110	0xbb1b8644	-0.0023731152
111	0x3d0926b8	0.03348419
112	0x3cb23816	0.02175526
113	0xbd1ce145	-0.03830077
114	0xbc80ac23	-0.015707081
115	0xbc1f4fab	-0.009723584
116	0xbd204c65	-0.039135356
117	0xbcaede3c	-0.021346204
118	0xbc14e77d	-0.009088394
119	0xbce68390	-0.028138906
120	0xbd6faec9	-0.058516297
121	0x3ccbbe1d	0.024870927
122	0x3cdab8ec	0.026699506
123	0x3cdfd9b3	0.027325487
124	0x3d1369db	0.035989624
125	0xbd3304ba	-0.04370568
126	0x3d38315e	0.044968955
127	0xbc0e06c4	-0.008668605
128	0x3bb45ceb	0.0055042407
129	0x3bfa6a4d	0.0076420666
130	0x3cce3cae	0.025175419
131	0x3d2c8fc8	0.042129308
132	0xbd26f8f1	-0.040764753
133	0xbe03700a	-0.12835708
134	0x3cf68ba1	0.030095877
135	0x3c12048f	0.00891222
136	0x3bba18d9	0.0056792316
137	0xbc362fec	-0.011119824
138	0x3d051e82	0.032499798
139	0xbd29b1d5	-0.04142936
140	0xbd144272	-0.03619618
141	0x3d027792	0.031852312
142	0x3aa6f04c	0.0012736409
143	0xbc08c335	-0.008347322
144	0x3cc82d77	0.024435742
145	0x3c920bd5	0.017827908
146	0x3c57fbf1	0.013182626
147	0x3d2fd556	0.042928062
148	0xbd08c549	-0.03339127
149	0xbb6f06e1	-0.0036472606
150	0xbcf2ab71	-0.029622765
151	0x3cd785b8	0.02630888
152	0x3b9a8d46	0.004716548
153	0xbc862290	-0.016373903
154	0x3d03ab24	0.032145634
155	0x3c2d8da9	0.010592856
156	0xbcfd561c	-0.03092485
157	0x3ce2880e	0.027652767
158	0xb97c2a9b	-0.00024048465
159	0xbd9ba393	-0.07599559
160	0xbcc9fcbd	-0.024656648
161	0x3d30b200	0.043138504
162	0xbd1448c3	-0.036202203
163	0x3c12dc23	0.0089636175
164	0xbc5a7cbe	-0.013335405
165	0xbc9f58ca	-0.019451518
166	0xbcb7391c	-0.022366099
167	0x3c760457	0.015015683
168	0xbc4762b4	-0.012169529
169	0xbdd11beb	-0.10210403
170	0x3cd04cbe	0.025427219
171	0xbc91cc00	-0.01779747
172	0xbca1f66b	-0.019770822
173	0xbc380f2a	-0.011234084
174	0x3b938586	0.004502001
175	0x3ca6dd64	0.02036924
176	0x3cfb510c	0.030678295
177	0xbcdf8ceb	-0.027288875
178	0x3d032d03	0.03202535
179	0xbd032f46	-0.032027505
180	0xbd0bd3c2	-0.034137495
181	0x3d262fa7	0.04057279
182	0x3be1befe	0.006889223
183	0xbce0ba23	-0.027432507
184	0x3ccbce12	0.024878535
185	0xbc911353	-0.01770941
186	0xbd091b4d	-0.0334733
187	0x3d0252ca	0.031817235
188	0xbd135df5	-0.035978276
189	0x3b6bc91c	0.0035978025
190	0xbb0338c9	-0.002002286
191	0xbd14f484	-0.036366
192	0x3ba598ec	0.00505363
193	0x3d1bd232	0.038042255
194	0x3c25759e	0.010098843
195	0x3bc6b022	0.006063477
196	0x3bbed519	0.005823743
197	0x3a305886	0.0006727058
198	0x3d020141	0.031739477
199	0x3cf39825	0.029735634
200	0xbc365276	-0.011128059
201	0xbd83606f	-0.064148776
202	0x3c6658f8	0.014059298
203	0x3c5d07e0	0.013490647
204	0x3c030f28	0.007999219
205	0x3d1397ca	0.03603343
206	0xbd316329	-0.043307457
207	0x3c4285ed	0.011872751
208	0x3c986c5e	0.018606361
209	0xbcb80cb7	-0.022467
210	0xbd34de26	-0.04415717
211	0xbca647cb	-0.020297905
212	0x3cc729c5	0.02431191
213	0x3cba8fe5	0.022773692
214	0xbd02d706	-0.031943344
215	0x3a0b2ade	0.0005308817
216	0x3ca79b18	0.020459697
217	0x3d0a2933	0.033730697
218	0x3975a197	0.00023425218
219	0x3d168f7f	0.036757942
220	0xbc1367e6	-0.008996939
221	0x3c390175	0.011291851
222	0xbcaf3b32	-0.021390531
223	0xbebc73c5	-0.36807075
224	0xbcba746a	-0.022760589
225	0x3c9ca653	0.019122278
226	0xbd376410	-0.04477316
227	0x3d02d7ea	0.031944193
228	0x3cfc8904	0.030827053
229	0xbc7a0617	-0.015260241
230	0xbb9b94fb	-0.0047479845
231	0xbada4065	-0.0016651271
232	0x3cba6f90	0.022758275
233	0xbce954c7	-0.028482808
234	0xbcb40183	-0.021973377
235	0x3ce874c2	0.028375987
236	0xbba1f8e8	-0.004943002
237	0xbda27eac	-0.07934317
238	0xbb510fda	-0.0031900317
239	0x3c6b393c	0.014356907
240	0xbd2ba6b1	-0.041907016
241	0xbb8fe9de	-0.004391893
242	0x3cef50e7	0.029213382
243	0xbbcefc27	-0.00631668
244	0x3cdc68b9	0.026905404
245	0xbd1cbfb9	-0.03826878
246	0x3c9c2ff0	0.019065827
247	0xbd2fd046	-0.042923234
248	0xbc885fa9	-0.016647177
249	0xbc6fcb79	-0.014635914
250	0xbd014a71	-0.031565133
251	0x3c48e2a1	0.012261064
252	0x3c93b52d	0.018030727
253	0x3cf62fdc	0.030052118
254	0xbb968d1f	-0.0045944597
255	0x3ce03ada	0.027371813

l2.bias f4 [128]
0	0xbdf43d5d	-0.119257666
1	0x39a491e4	0.00031389215
2	0xbe94d23c	-0.29066646
3	0xbcb1c005	-0.021698007
4	0xbff5064e	-1.9142549
5	0xbc41a615	-0.011819382
6	0xbd052e61	-0.032514933
7	0xbceb6b06	-0.028737556
8	0x3a2af390	0.0006521279
9	0x3bd9a035	0.0066414126
10	0x3d14edc6	0.03635957
11	0x3c834afa	0.016026963
12	0xbf334143	-0.70021456
13	0x3d458fa0	0.048232675
14	0x3bcd3e66	0.006263542
15	0xbd81b243	-0.06332829
16	0xbc3d9de2	-0.011573287
17	0x3cdec2a9	0.02719243
18	0xbb19f3bb	-0.0023491222
19	0xbd27227e	-0.04080438
20	0x3e186859	0.14883555
21	0xbd0ab549	-0.033864293
22	0xbbdcdcf1	-0.0067402055
23	0xbd19aae9	-0.03751651
24	0xbd1f6be7	-0.038921263
25	0x3cc5e9a3	0.024159258
26	0x3ce85970	0.02836296
27	0xbd3d7de3	-0.046262633
28	0x3b0c8f56	0.002144774
29	0xbc8e7f52	-0.017394695
30	0xbcf97a07	-0.030453695
31	0xbd455488	-0.04817632
32	0xbc86e876	-0.016468268
33	0xbd0de215	-0.034639437
34	0xbd55cc38	-0.05219671
35	0x3c659e08	0.014014728
36	0xbca8bdbe	-0.020598289
37	0xbc5a9b19	-0.013342642
38	0x3c34fcce	0.011046601
39	0x3ab18229	0.0013542819
40	0xbe3a84c5	-0.1821471
41	0xbc1df0ab	-0.009639899
42	0xbaad98ab	-0.0013244351
43	0xbddcda06	-0.10783772
44	0xbd923923	-0.07139804
45	0xbd44ed63	-0.048077952
46	0x3c527da4	0.012847338
47	0xbcd7c02c	-0.026336752
48	0xba34bd6e	-0.00068946823
49	0x3d2b9c97	0.041897383
50	0x3d116d01	0.035504345
51	0xbd3368f9	-0.04380128
52	0x3cfdd235	0.030984024
53	0x3d01c386	0.031680606
54	0xbec0dd91	-0.37669042
55	0xbd3991b3	-0.045304965
56	0x3ebd110d	0.3692707
57	0x3d1ef57b	0.038808327
58	0x3d9dffe5	0.07714824
59	0xbaa53328	-0.0012603747
60	0xbc2a7290	-0.01040329
61	0xbfaa0e7d	-1.3285671
62	0x3c938676	0.018008452
63	0x3c9333ba	0.017969001
64	0xbd1e311d	-0.038621057
65	0xbc6e5970	-0.014547691
66	0xbc55e99f	-0.013056188
67	0xbc6fc856	-0.014635166
68	0xb8d4cfc0	-0.00010147644
69	0x3b0f053b	0.0021823186
70	0xbaefbe48	-0.0018290961
71	0xbc81f3e3	-0.015863365
72	0xbc2e859b	-0.010651971
73	0xbd2aa809	-0.041664157
74	0xbd5d9912	-0.054101057
75	0xbd88a817	-0.066726856
76	0xbd3aeb5e	-0.04563462
77	0xbcde6b0d	-0.027150655
78	0x3c468a2b	0.012117903
79	0xbd303d01	-0.043026928
80	0xbc263216	-0.010143777
81	0xbcf4dba3	-0.029889887
82	0x3cc431b2	0.023949478
83	0x3c0181d0	0.007904485
84	0xbcae1c8c	-0.021253847
85	0x3be8309c	0.007085873
86	0xbcadc94b	-0.021214148
87	0x3cd2f858	0.025753185
88	0x3b4978cb	0.0030742164
89	0x3dae0d7e	0.08498667
90	0xbc889e01	-0.016676905
91	0xbd23965f	-0.039938327
92	0x3c0dfe2f	0.008666559
93	0x3c958a6c	0.018254481
94	0xbe0a23a1	-0.13490154
95	0xbc5e2319	-0.013558173
96	0xbddd63b7	-0.10810035
97	0xbc5da5c3	-0.01352829
98	0xbd00f991	-0.031488005
99	0xbd2f8d66	-0.042859457
100	0x3ca3d110	0.01999715
101	0xbce89a48	-0.02839388
102	0xbce9ebf6	-0.028554898
103	0xbc359c42	-0.011084618
104	0xbd35f96c	-0.04442732
105	0xbd53b6c3	-0.051687967
106	0xbcb1154f	-0.021616606
107	0xbc06c1a1	-0.008224876
108	0x3d2aca3b	0.04169677
109	0xbd09f02a	-0.033676304
110	0x3c35cedc	0.011096682
111	0xbca419ec	-0.020031892
112	0xbc42fe64	-0.011901472
113	0xbba571bd	-0.005048959
114	0xbc82edc4	-0.015982516
115	0xbaaefb58	-0.0013350053
116	0xbbe0a09f	-0.006855085
117	0xbda24871	-0.07923973
118	0xbd5775c6	-0.052602552
119	0xbc4874c3	-0.012234869
120	0xbc3adb53	-0.01140483
121	0xbd29b67b	-0.041433793
122	0x401e4655	2.4730427
123	0xba9436ee	-0.0011307874
124	0xbd6dd385	-0.05806305
125	0x3befa97c	0.0073139053
126	0xbbc0a7c2	-0.0058793733
127	0x3cb059b2	0.021527145

l3.weight f4 [64, 128]
0	0x3d1aa612	0.037756033
1	0x3b92b287	0.0044768485
2	0x3e269c4d	0.16270562
3	0xbc850bcf	-0.016240982
4	0xbde3b7cf	-0.11119043
5	0xbc8bc071	-0.017059537
6	0x3c635b45	0.013876741
7	0xbbceb46c	-0.006308129
8	0x3d2ff566	0.04295864
9	0x3c62c281	0.013840319
10	0xbd66c9c4	-0.056344762
11	0xbcf1eb05	-0.029531011
12	0x3e87ef38	0.26549697
13	0x3d8e5fa9	0.069518395
14	0x3da64551	0.0811869
15	0x3c9ed15c	0.01938694
16	0xbd42b7f5	-0.047538716
17	0xbc7609ef	-0.015017017
18	0x3d51b99d	0.051202405
19	0x3d29dabd	0.04146837
20	0xbd132852	-0.035927124
21	0xbd61dfcd	-0.055145074
22	0xbd124b00	-0.035716057
23	0x3d3f8591	0.04675824
24	0xbbbd58df	-0.0057784165
25	0xbdaf4e18	-0.08559817
26	0xbd029fe3	-0.03189076
27	0xba83cf4d	-0.0010056287
28	0xbc434ef2	-0.0119206775
29	0xba91ff8b	-0.001113878
30	0xbd95ad86	-0.073084876
31	0xbd94c86a	-0.072647884
32	0xbd559ce2	-0.05215157
33	0xbc4f1091	-0.012638227
34	0x3d44e6b3	0.048071574
35	0xbdeba159	-0.11505384
36	0xbda1f91e	-0.079088435
37	0x3e0ee95e	0.1395621
38	0xbd10b526	-0.035329007
39	0x3d45101c	0.048111066
40	0x3e8f6d83	0.28013238
41	0x3d673e84	0.056456104
42	0xbd0c4f69	-0.03425542
43	0x3d88a00b	0.06671151
44	0x3d46a92c	0.04850118
45	0x3d9bffd4	0.07617155
46	0x3cab9212	0.020943675
47	0xbaf700ab	-0.0018844804
48	0x3d36878a	0.044562854
49	0xbb073cc4	-0.0020635584
50	0xbdb10278	-0.08643049
51	0x3eb065d2	0.34452683
52	0xbc189ed3	-0.00931521
53	0x3d13ba15	0.036066134
54	0xbd954a39	-0.072895475
55	0xbd960045	-0.0732427
56	0xbd801e13	-0.06255736
57	0xbd007199	-0.031358335
58	0xbd7cfb7c	-0.06176327
59	0x3cba527c	0.02274441
60	0x3c4ebbfb	0.01261806
61	0xbc04b35c	-0.008099403
62	0xbd00bfac	-0.031432793
63	0xbb5ba2d5	-0.0033513804
64	0x3cd8b300	0.026452541
65	0x3cf04c5e	0.02933329
66	0xbd8e4b9a	-0.069480136
67	0x3cb6a641	0.022296073
68	0xbc4b2984	-0.012400035
69	0x3e419940	0.18906116
70	0xbd96d498	-0.07364768
71	0xbcfd889b	-0.030948928
72	0x3da8be93	0.08239474
73	0x3d8811a2	0.06643988
74	0xbc60b3ed	-0.013714773
75	0xbd3475e2	-0.044057734
76	0xbd7116a5	-0.058859486
77	0x3cbeaba6	0.023275208
78	0x3d4aac15	0.049480516
79	0x3da31a4f	0.07964002
80	0x3d06d3d9	0.032916877
81	0xbbaa7e1f	-0.005203023
82	0xbd14825e	-0.03625714
83	0xbd836461	-0.0641563
84	0xbceffe57	-0.029296083
85	0x3d32728b	0.043566268
86	0x3d819126	0.06326513
87	0xbd3b5571	-0.04573578
88	0xbcc6c2a7	-0.02426274
89	0xbddd8df8	-0.10818094
90	0x3cfe3e65	0.031035611
91	0xbd2ea4e8	-0.042637736
92	0x3cb7cd92	0.02243689
93	0xbce1c61d	-0.027560288
94	0xbb852b19	-0.0040639755
95	0xbd548efe	-0.05189418
96	0x3edc1248	0.42982697
97	0xbc8b4ad6	-0.017003458
98	0xbcf3f263	-0.029778665
99	0xbd32b325	-0.043627877
100	0xbc5c0c8b	-0.013430725
101	0xbbb10c38	-0.005403068
102	0x3dddd403	0.10831454
103	0xbd40bf48	-0.04705742
104	0xbd08ac3a	-0.033367373
105	0xbd6427d3	-0.05570204
106	0x3d9e7fa7	0.077391915
107	0xbd62177c	-0.055198178
108	0xbda09772	-0.07841386
109	0xbce7081e	-0.028202113
110	0xbcd333a6	-0.025781464
111	0xbd11b256	-0.035570465
112	0xbd1c2442	-0.038120516
113	0xba4862a7	-0.0007644095
114	0xbda7de0b	-0.08196648
115	0x3e926e9f	0.28600022
116	0xbda82988	-0.082110465
117	0xbceb25a2	-0.028704468
118	0x3c62b972	0.013838159
119	0xbd766a33	-0.060159873
120	0x3d3cbed1	0.046080414
121	0x3d19f890	0.037590563
122	0xbe11f928	-0.14255202
123	0x3dced015	0.10098282
124	0xbd0b8e0f	-0.034071025
125	0x3d896f78	0.06710714
126	0xbb649bac	-0.0034882827
127	0xbd892dd8	-0.06698197
128	0x3d8eb6ef	0.069684856
129	0xbd9c994b	-0.07646426
130	0xbc9c3157	-0.019066496
131	0x3d9d46a2	0.07679488
132	0xbda5434c	-0.080694765
133	0xbb6e7898	-0.0036387797
134	0x3a6c4c47	0.0009014052
135	0xbce0a236	-0.027421098
136	0xbd47b22e	-0.04875391
137	0xbd4c0d29	-0.049817238
138	0x3a978d89	0.0011562567
139	0xbd2f2e37	-0.042768683
140	0xbd8ceb93	-0.0688087
141	0x3c38edc5	0.011287157
142	0x3dbca76a	0.09211619
143	0xbd59b37e	-0.053149693
144	0x3bfec7cb	0.007775282
145	0xbd32cd8a	-0.04365305
146	0x3b7b2eb3	0.0038327395
147	0xbda8f4e0	-0.08249831
148	0x3cfb2273	0.030656075
149	0x3d91db16	0.071218655
150	0x3d812d8f	0.06307518
151	0x3ca3d214	0.019997634
152	0x3d119058	0.035538048
153	0x3d3afde4	0.045652285
154	0xbd69467c	-0.056951985
155	0x3d8b0473	0.06787958
156	0x3c7f75f6	0.015592089
157	0x3d50aaae	0.050944023
158	0xbd64e888	-0.05588582
159	0xbdacb465	-0.08432845
160	0xbacba2bd	-0.0015536171
161	0x3cb8bd88	0.022551313
162	0x3d757bcb	0.05993251
163	0xbd43804c	-0.047729775
164	0x3d26ed15	0.040753443
165	0xbd16a0be	-0.03677439
166	0xbd18b583	-0.037282478
167	0x3d58354a	0.052785195
168	0x3d73be39	0.059507582
169	0xbd2e3e32	-0.042539783
170	0x3d3434f2	0.043995805
171	0xbd9b43f8	-0.075813234
172	0x3d083c50	0.033260643
173	0x3d40aeea	0.04704181
174	0x3d3bbd4c	0.045834824
175	0x3d995a57	0.07487934
176	0x3d826676	0.06367199
177	0x3d80f917	0.0629751
178	0x3d2ce6d8	0.042212337
179	0xbd9a99c4	-0.0754886
180	0x3c10f0ad	0.008846444
181	0x3c46c42f	0.012131735
182	0x3c94d1e8	0.018166497
183	0xbd8f8810	-0.07008374
184	0xbd42cd0e	-0.047558837
185	0x3c150e2e	0.009097619
186	0x3cc66308	0.024217144
187	0x3d9e9458	0.07743138
188	0x3b8710e7	0.004121888
189	0xbdb7ff57	-0.08984249
190	0x3c8a7068	0.016899303
191	0xbc9aa9ea	-0.01887985
192	0x3d9a66f6	0.075391695
193	0x3d6a498e	0.057199053
194	0xbd643135	-0.05571099
195	0x3d52866f	0.051397737
196	0xbd1f138f	-0.038837012
197	0xbd2164aa	-0.03940264
198	0xbd04c130	-0.0324108
199	0x3d0f24b7	0.034947123
200	0x3c8c7e3c	0.017150037
201	0x3da74f30	0.08169401
202	0x3d44c04f	0.048034962
203	0xbd476b08	-0.048686057
204	0x3d528ba8	0.051402718
205	0x3d3b2364	0.045688048
206	0x3d2da6cc	0.042395398
207	0xbd86aad2	-0.0657555
208	0xbccae558	-0.024767563
209	0xbc88f447	-0.016718043
210	0x3d738998	0.05945739
211	0x3be556b9	0.0069988635
212	0xbd327065	-0.04356422
213	0xbd477fd8	-0.048705906
214	0x3da82d6c	0.082117885
215	0x3ce6075e	0.028079685
216	0x3cadd268	0.021218494
217	0xbda93809	-0.08262641
218	0xbd061f51	-0.03274471
219	0x3bccf999	0.0062553403
220	0xbd2aa7f3	-0.041664075
221	0xbd71c21e	-0.059023015
222	0xbcc5b983	-0.02413631
223	0xbd9ebfa9	-0.077514
224	0xbd901ce9	-0.07036764
225	0xbcd045c2	-0.025423888
226	0x3d45fc44	0.048336282
227	0xbc19fcce	-0.009398652
228	0xbce1d6af	-0.02756819
229	0xbcc9f4ee	-0.024652924
230	0xbd2f20bc	-0.042755827
231	0xbd805553	-0.06266274
232	0xbcde379b	-0.027126124
233	0xbd8df4cf	-0.06931459
234	0xbd932a8a	-0.07185848
235	0x3d0fa001	0.0350647
236	0x3dad395a	0.084582046
237	0xbcd22ff4	-0.025657631
238	0x3dacf66b	0.08445438
239	0x3cd8e2a4	0.026475258
240	0x3b33066b	0.0027317058
241	0xbc5fe159	-0.013664567
242	0x3cf9c8aa	0.030491192
243	0x3d8873b0	0.06662691
244	0x3d495b77	0.049159493
245	0x3ce51717	0.027965112
246	0x3d2fe14d	0.042939473
247	0x3dadce26	0.08486585
248	0xbd19b46f	-0.03752559
249	0x3da0383b	0.07823225
250	0xbd0d729b	-0.034533124
251	0xbd5a3e3a	-0.053282
252	0xbc6657cd	-0.014059019
253	0xbd017b08	-0.031611472
254	0xbd836730	-0.06416166
255	0xbd557f0b	-0.05212311

l3.bias f4 [64]
0	0xbdc92da2	-0.09823157
1	0xbd9c2946	-0.0762506
2	0xbc5e9d0d	-0.0135872485
3	0xbe6d2a05	-0.2316056
4	0x3d506934	0.05088158
5	0xbdfad64b	-0.122479044
6	0xbbee30f3	-0.007269019
7	0xbb9b7d09	-0.00474513
8	0xbdf82904	-0.12117198
9	0xbe2400af	-0.16015886
10	0x3f3ab1d0	0.7292757
11	0xbbebd774	-0.007197315
12	0xc003b8e8	-2.0581608
13	0xbd32e864	-0.043678656
14	0xbd037fa0	-0.032104135
15	0xbc2257cb	-0.009908627
16	0xbd276a44	-0.040872827
17	0xbd09da25	-0.033655304
18	0xb9a468f1	-0.00031358705
19	0xbe8a2de6	-0.26988143
20	0x4004ee27	2.0770357
21	0xbd1cd027	-0.038284447
22	0xbc0597b4	-0.008153845
23	0xbd138e2a	-0.03602425
24	0x3ca71641	0.020396354
25	0xbd6e669f	-0.058203336
26	0xbdba47c5	-0.0909572
27	0xbf14cd4a	-0.58125746
28	0xbe5b49ef	-0.21414922
29	0x3f9fe165	1.249066
30	0xbe3de11e	-0.18542907
31	0x3c21d770	0.009878024
32	0xbd88288f	-0.06648361
33	0xbdb38e9b	-0.08767434
34	0xbdc4b983	-0.09605696
35	0xbe77005c	-0.24121231
36	0xbd5bd350	-0.05366832
37	0xbdf8d4ab	-0.12149938
38	0x3f1cf00f	0.613038
39	0xbdc5f4eb	-0.09665855
40	0xbda37ebc	-0.07983157
41	0x3e0e8269	0.13916935
42	0x3db3bd6c	0.08776364
43	0xbe12bd0c	-0.14329928
44	0xbd8a4eae	-0.06753288
45	0xbf140f4f	-0.5783586
46	0x3b75904e	0.0037470045
47	0x3ecf91e5	0.40540996
48	0x3dfb501f	0.12271141
49	0x3d760b5e	0.060069434
50	0x3da7a56a	0.08185847
51	0x3f1e32f8	0.6179652
52	0x3c95802d	0.018249596
53	0xbe308be3	-0.17240863
54	0x3ede6f9d	0.4344453
55	0x3c08e3ef	0.008355125
56	0xbca7a6b7	-0.020465238
57	0xbe31d5e9	-0.17366756
58	0x3d55188c	0.052025363
59	0x3cf7a366	0.030229282
60	0x3c88f279	0.016717182
61	0x3c1d9bb5	0.009619643
62	0x3d229208	0.039690048
63	0x3c445bf0	0.01198481

out.weight f4 [3, 64]
0	0xbdd72f58	-0.10507077
1	0x3dbdf587	0.09275346
2	0x3d698297	0.057009306
3	0xbcac0e4d	-0.021002913
4	0xbccbc78f	-0.02487543
5	0x3d2da60c	0.042394683
6	0x3d694320	0.05694878
7	0xbd674775	-0.05646463
8	0x3c1de0be	0.009636102
9	0x3dcea043	0.10089161
10	0xbb0cc8b9	-0.0021481945
11	0xbcbc1810	-0.022960693
12	0xc1127ec7	-9.1559515
13	0x3cde2f5b	0.02712219
14	0x3d1fec84	0.03904392
15	0xbd6a9c52	-0.057277985
16	0x3cf75063	0.030189699
17	0x3d5fd544	0.054646745
18	0x3df4bb72	0.11949815
19	0xbe2ec52f	-0.17067407
20	0x3e2f9292	0.17145756
21	0x3bf62cda	0.007512671
22	0x3d8e3151	0.06943
23	0xbd02bdcc	-0.031919286
24	0x3ce465f6	0.02788065
25	0xbdab1d74	-0.08355227
26	0x3db458e9	0.08806021
27	0xbe507387	-0.2035657
28	0x3daec688	0.085339606
29	0xbc8f95d3	-0.017527496
30	0x3cfca5e0	0.030840814
31	0x3c8ac7db	0.016941002
32	0x3d517f50	0.051146805
33	0xbd37d625	-0.04488196
34	0xbdafe4d8	-0.0858857
35	0x3d543cd0	0.051815808
36	0xbddee73b	-0.108839475
37	0xbd34f098	-0.04417476
38	0xbc945c79	-0.0181105
39	0xbcb808a0	-0.02246505
40	0xbd09c348	-0.0336335
41	0xbe7f59d1	-0.24936606
42	0x3d523b8d	0.051326323
43	0xbe6a6498	-0.22889936
44	0xbd9a976b	-0.07548412
45	0xbdc8f098	-0.098115146
46	0x3de05a3f	0.10954713
47	0xbc039320	-0.008030683
48	0x3de89cd5	0.11358038
49	0x3d9515bd	0.07279537
50	0x3d15cd49	0.03657273
51	0x3c1943c5	0.009354536
52	0xbdac72ec	-0.08420357
53	0xbd48ebd8	-0.049053043
54	0xbd482d26	-0.048871182
55	0xbda5731a	-0.080785945
56	0x3d0dc726	0.03461375
57	0x3da9ac8f	0.08284866
58	0x3da169fd	0.07881544
59	0xbde32089	-0.1109019
60	0x3d0d6e4c	0.034529015
61	0x3d5f9eb9	0.05459473
62	0x3d4d6426	0.050144337
63	0xbd81ce13	-0.06338134
64	0x3d27a1a9	0.040925656
65	0x3d9622df	0.0733087
66	0x3d8732ab	0.06601461
67	0xbd2a212b	-0.041535538
68	0xbce3c3df	-0.02780336
69	0x3c6e4cd9	0.014544689
70	0x3b6d5b2b	0.003621767
71	0xbd14d916	-0.03633984
72	0xbd36d0e8	-0.044632822
73	0x3d5630b2	0.052292533
74	0xbdf9c10d	-0.12195025
75	0xbb654fa0	-0.0034990087
76	0xbda10d86	-0.078639075
77	0x3be401d4	0.0069582257
78	0x3c8f1ef9	0.017470824
79	0xbd77c0a9	-0.06048647
80	0x3ccd9d24	0.025099345
81	0xbda2e428	-0.079536736
82	0x3d83cc85	0.064354934
83	0x3d68b9d3	0.05681784
84	0xbd6f67fb	-0.058448773
85	0xbb96343b	-0.004583863
86	0x3d1c0fad	0.038100887
87	0x3dc287dc	0.09498569
88	0xbda66d58	-0.081263244
89	0x3d889e55	0.066708244
90	0xbdca3946	-0.09874205
91	0xbdb7410e	-0.08947955
92	0x3d584af2	0.05280585
93	0x3d0dd8e0	0.034630656
94	0x3d13f4bb	0.036122065
95	0x3cf9e498	0.03050451
96	0xbb1d38b1	-0.002399009
97	0xbd891ce9	-0.06694967
98	0xbdaf6731	-0.08564604
99	0xbc49c7a1	-0.012315662
100	0xbc95ed4f	-0.018301634
101	0xbd977d8d	-0.07396994
102	0xbe2b374d	-0.16720314
103	0xbcd1458d	-0.02554586
104	0x3c832905	0.01601077
105	0x3d4b3276	0.04960867
106	0x3d156e4e	0.036482148
107	0x3c110f03	0.008853677
108	0xbd359dd1	-0.04433996
109	0x3c839f5e	0.016067203
110	0xbd82bc8b	-0.06383618
111	0xbc8a7075	-0.016899327
112	0x3d8a93a3	0.06766441
113	0xbd495069	-0.04914895
114	0x3c314de6	0.010821795
115	0x3c5e8fe8	0.013584115
116	0xbc8b80e6	-0.017029237
117	0xbd7eb257	-0.062181797
118	0xbda0a211	-0.07843412
119	0xbda70162	-0.081545606
120	0x3c7169af	0.01473467
121	0x3d813218	0.06308383
122	0xbd67c535	-0.056584556
123	0xbd1b37b3	-0.037894916
124	0xbd79880e	-0.060920767
125	0x3cee50a2	0.029091183
126	0x3cf85a56	0.030316513
127	0xbdcb6798	-0.09931868
128	0x3d462f8d	0.04838519
129	0xbdb649fd	-0.08900831
130	0x3d49e656	0.04929193
131	0x3d9bf684	0.076153785
132	0xbcbe6286	-0.023240339
133	0x3da023c0	0.07819319
134	0x3d1f30c8	0.03886488
135	0xbd327ce8	-0.04357615
136	0xbdb040d3	-0.08606114
137	0x3d7a1219	0.061052416
138	0xc030cc27	-2.7624605
139	0x3c6fe51d	0.014642027
140	0x3dd1baad	0.10240684
141	0x3cde0516	0.027102035
142	0xbd1a790d	-0.0377131
143	0xbca6d83a	-0.020366777
144	0x3d4e83f0	0.050418794
145	0xbe05a965	-0.130529
146	0x3d45d8eb	0.048302572
147	0x3d7e5f41	0.06210256
148	0xbf251560	-0.6448574
149	0x3d351e62	0.04421843
150	0xbe28e17d	-0.16492267
151	0xbb9b1fa5	-0.004733997
152	0xbda3c881	-0.079972275
153	0xbd39d800	-0.04537201
154	0xbd2751e5	-0.040849585
155	0xbd4134e7	-0.047169592
156	0x3d5853fb	0.052814465
157	0xbf72c1ca	-0.9482695
158	0x3d2819ac	0.041040108
159	0xbc99feea	-0.01879831
160	0xbd8b6cb9	-0.068078466
161	0xbd67e92b	-0.05661885
162	0x3a2cd069	0.0006592335
163	0x39a720ff	0.00031877306
164	0xbbb9da0b	-0.0056717447
165	0xbd156cd7	-0.03648075
166	0xbecea1b4	-0.40357745
167	0x3d84c75a	0.06483336
168	0x3dcf4f52	0.10122551
169	0xbc337c16	-0.010954877
170	0xbda54a81	-0.08070851
171	0x3dc4a80c	0.09602365
172	0x3c222f66	0.009898996
173	0x3cb1d7be	0.02170932
174	0x3d1f4f98	0.038894266
175	0xbcfdd192	-0.03098372
176	0x3d6cf800	0.0578537
177	0xbda06702	-0.07832147
178	0x3c055a8f	0.008139267
179	0xbe23a1b1	-0.15979649
180	0xbc21f67d	-0.009885428
181	0x3c964223	0.018342083
182	0xbd7546fc	-0.05988215
183	0xbe204a18	-0.15653265
184	0x3d56290e	0.052285247
185	0x3d8c5ccc	0.06853637
186	0xbda2f4fd	-0.07956884
187	0xbccab707	-0.024745477
188	0x3d2abbbe	0.04168295
189	0x3bb0bf9e	0.0053939363
190	0x3c88b0c4	0.01668585
191	0xbe0b33b9	-0.1359395

out.bias f4 [3]
0	0x3f7de8e2	0.99183476
1	0x3fadeb6d	1.3587471
2	0xc04d93a4	-3.2121363
