server/models/wasting_model_v2.pth (torch, 459180 bytes, 8 tensors)

l1.weight f4 [512, 77]
-0.2544707 -0.19806628 0.060047682 -0.0142223025 -0.26245168 -0.030786084 0.012136194 -0.14619994
-0.1922308 -0.1869485 0.42014658 -0.04978747 1.0857615 0.0034765678 -0.33059013 -0.27499902
-0.068472035 -0.22245866 -0.10746133 -0.8561206 0.07154233 -0.45844024 -0.38907126 0.2053149
0.0777556 -0.5717707 -0.8420093 -0.373994 -0.051149428 0.3705791 0.63015985 0.106700204
-0.2339134 -0.3739361 0.109828 -0.25246817 -0.9063537 0.37194383 -0.06601195 -0.18630652
-0.22048114 0.077906504 -0.18982245 -0.008031798 0.07632997 -0.24481186 -0.034060474 0.029846514
-0.3531592 0.1018263 0.014608326 -0.3150973 -0.044453483 -0.012993499 -0.2357048 -0.0822521
-0.015195317 0.065603375 -0.48843667 0.043608762 -0.33699057 -0.3316132 0.20219904 -0.098502055
-0.35273495 -0.024501022 0.08655022 -0.25415993 0.23225974 -0.5020443 -0.2716457 0.21082835
-0.060202185 -0.2431754 -0.23662795 0.09335454 1.2391924 -0.025324654 0.0026862128 0.030694613
-0.18804254 -0.11521209 -0.041182682 -0.03609377 -0.1245596 -0.22138278 -0.12745216 -0.15065373
-0.0907881 -0.24567153 0.0031515085 0.022351602 -0.041849002 0.11300649 -0.1174382 -0.087893
-0.03709004 -0.026410665 -0.08712237 -0.060365707 -0.07389103 -0.20214733 -0.05744011 -0.014493433
0.023333773 -0.0038566703 0.1209119 -0.093967736 0.029047474 0.098714806 -0.06851727 0.050441794
-0.066985734 -0.054953225 -0.042946137 0.020701895 -0.074313946 -0.102924176 -0.0074506723 -0.09195693
0.06907932 -0.064171255 -0.18386231 -0.038606565 -0.073862515 -0.1781995 -0.105078556 0.06989429
0.00041371447 0.0848851 -0.10378069 -0.12667936 -0.08860792 0.098318756 0.009409965 0.0122862365
-0.16188756 -0.073894 -0.14186838 -0.032031104 0.04266979 -0.17818516 -0.16576385 -0.053391647
-0.18891655 5.980541e-05 -0.10892075 0.00065734464 0.05303336 -0.083596975 -0.11727426 -0.12268291
-0.10266941 -0.19278249 -0.18603544 -0.156831 -0.1935278 -0.24666707 -0.27720773 -0.0007927687
0.00025301002 -0.13058475 -0.15537697 -0.20425768 0.39688066 0.06944995 0.52724344 -0.20875554
-0.08367538 -0.20656225 -0.22710073 0.09500607 0.021650238 -0.25391197 0.36767834 -0.039273094
-0.3768309 0.385856 0.09100038 0.048394103 -0.09326959 -0.18804766 -0.017293764 -0.06085359
0.18069582 0.03560011 -0.102785826 -0.03321953 0.009575119 -0.40223703 -0.19229017 0.42613563
-0.07359031 -0.12885563 -0.2612357 -0.05182972 -0.2613212 -0.02856692 -0.052140616 -0.28647462
-0.12982494 0.105893046 -0.2857421 0.09911816 -0.025462406 -0.2745796 0.06749774 -0.002663058
-0.28682956 0.030279933 0.11323316 -0.023985999 -0.21929654 0.014329271 -0.25909838 -0.31217268
0.31154406 0.103843 -0.2668156 -0.0227707 0.06337837 -0.1406661 0.24668369 0.037804928
-0.22281939 0.07358562 0.099381186 -0.34897652 -0.061338644 -0.05876826 0.4238607 -0.16794828
0.017041745 -0.033008978 -0.10825141 -0.11561883 -0.12930094 0.07862558 -0.102878906 0.032345608
-0.055742458 -0.21411467 -0.1562732 -0.0028052446 0.021465534 -0.09953285 -0.04394281 -0.15805303
0.028787456 -0.008357699 -0.0022355267 0.036011323 0.07355299 0.03805527 -0.025447138 0.07856046
00000000: fc49 82be e3d1 4abe 8ff4 753d a904 69bc
00000010: 1160 86be 1933 fcbc e3d6 463c 70b5 15be
00000020: 27d8 44be 6d6f 3fbe 741d d73e f2ed 4bbd
00000030: 3cfa 8a3f 21d7 633b 1c43 a9be accc 8cbe
00000040: 113b 8cbd 34cc 63be b014 dcbd b82a 5bbf
00000050: c984 923d aeb8 eabe 5934 c7be 123e 523e
00000060: 543e 9f3d 915f 12bf ec8d 57bf 247c bfbe
00000070: 1082 51bd 8bbc bd3e 2852 213f a385 da3d
00000080: ff86 6fbe 8d74 bfbe 81ed e03d 8243 81be
00000090: cc06 68bf 6c6f be3e 4631 87bd 23c7 3ebe
000000a0: cfc5 61be 728d 9f3d d160 42be cd97 03bc
000000b0: e352 9c3d f6af 7abe ff82 0bbd ad80 f43c
000000c0: 48d1 b4be 4f8a d03d c357 6f3c 6f54 a1be
000000d0: db14 36bd afe2 54bc 995c 71be ca73 a8bd
000000e0: c7f5 78bc 105b 863d 5f14 fabe 1a9f 323d
000000f0: 078a acbe 35c9 a9be 440d 4f3e 72bb c9bd
00000100: ad99 b4be 5eb6 c8bc 3e41 b13d 4021 82be
00000110: 7fd5 6d3e fa85 00bf 2515 8bbe 63e3 573e
00000120: 9196 76bd f902 79be 994e 72be aa30 bf3d
00000130: db9d 9e3f a675 cfbc 2c0b 303b 4573 fb3c
00000140: 398e 40be 51f4 ebbd 2caf 28bd 10d7 13bd
00000150: 1b19 ffbd 2bb2 62be d282 02be f944 1abe
00000160: 1def b9bd 5191 7bbe 8a89 4e3b b51a b73c
00000170: dc69 2bbd f26f e73d 7083 f0bd 3f01 b4bd
00000180: baeb 17bd 2e5b d8bc 376d b2bd 0842 77bd
00000190: 2e54 97bd b6ff 4ebe 5246 6bbd dd75 6dbc
000001a0: 7826 bf3c 31c0 7cbb a9a0 f73d 2872 c0bd
000001b0: f8f4 ed3c fd2a ca3d c852 8cbd 0e9c 4e3d
000001c0: d12f 89bd a216 61bd 4ae8 2fbd 0597 a93c
000001d0: e931 98bd e9c9 d2bd c524 f4bb ea53 bcbd
000001e0: 7579 8d3d 386c 83bd 6746 3cbe eb21 1ebd
000001f0: 3b45 97bd ee79 36be 6d33 d7bd bd24 8f3d
00000200: d1e7 d839 3dd8 ad3d f88a d4bd 3cb8 01be
00000210: 1278 b5bd 585b c93d 412c 1a3c 364c 493c
00000220: dac5 25be bd55 97bd f245 11be 0c33 03bd
00000230: 85c6 2e3d 2c76 36be 00be 29be 33b1 5abd
00000240: 5773 41be 92d7 7a38 d811 dfbd a751 2c3a
00000250: 8239 593d e434 abbd 7d2d f0bd 2d41 fbbd
00000260: 5744 d2bd c668 45be 1380 3ebe 4e98 20be
00000270: 272c 46be 4b96 7cbe 2cee 8dbe cfd1 4fba
00000280: 6ea6 8439 02b8 05be 241b 1fbe ed28 51be
00000290: f133 cb3e c63b 8e3d 6df9 063f 03c4 55be
000002a0: ff5d abbd 0e85 53be 188d 68be 8b92 c23d
000002b0: d75b b13c c000 82be 5640 bc3e d3dc 20bd
000002c0: fbef c0be eb8e c53e 685e ba3d e538 463d
000002d0: 2004 bfbd 918f 40be a7ab 8dbc 9d41 79bd
000002e0: 5308 393e 6cd1 113d 6081 d2bd 3411 08bd
000002f0: f6e0 1c3c 03f2 cdbe b7e7 44be 732e da3e
00000300: 84b6 96bd bbf2 03be b0c0 85be 674b 54bd
00000310: e4cb 85be 2c05 eabc 6691 55bd cdac 92be
00000320: d4f0 04be 74de d83d ca4c 92be 76fe ca3d
00000330: 8996 d0bc b395 8cbe 413c 8a3d b386 2ebb
00000340: 53db 92be 9f0d f83c c9e6 e73d 497e c4bc
00000350: 468f 60be 52c5 6a3c 8ba8 84be 19d5 9fbe
00000360: b482 9f3e a4ab d43d 0e9c 88be 9e89 babc
00000370: 85cc 813d c60a 10be a69a 7c3e 57d9 1a3d
00000380: c42a 64be 0fb4 963d 5d88 cb3d 0dad b2be
00000390: 3b3e 7bbd fdb6 70bd 4504 d93e a2fa 2bbe
000003a0: 219b 8b3c 6c34 07bd eab2 ddbd 91c9 ecbd
000003b0: 7767 04be 7306 a13d 2db2 d2bd d47c 043d
000003c0: 3452 64bd e040 5bbe 1506 20be 32d8 37bb
000003d0: 7dd8 af3c e1d7 cbbd 60fd 33bd a7d8 21be
000003e0: acd3 eb3c bbee 08bc ea81 12bb 9c80 133d
000003f0: f3a2 963d d8df 1b3d 8476 d0bc 4ee4 a03d

l1.bias f4 [512]
-0.25419137 -0.05986683 -0.27716 -0.16393644 -0.20390512 0.060279556 0.04576429 0.07076125
-0.31749493 -0.11379315 -0.005266335 0.028335998 -0.35905564 -0.023120843 -0.06631814 -0.08023262
-0.0889604 0.061021864 -0.08449244 -0.2958262 -0.08661927 0.10139884 0.064600304 0.12974988
0.12007891 -0.16441374 -0.033148263 0.27771604 0.100817196 0.088006414 0.04816611 -0.16506968
-0.023488332 -0.08816192 -0.013335474 -0.061306626 -0.024026442 -0.020024907 0.17217003 -0.25732633
-0.426344 -0.18601549 -0.1394177 0.01397366 -0.43811092 0.039444175 0.06226 -0.06831826
-0.019803897 0.019951953 -0.26470283 0.025561048 0.076535486 -0.030674513 -0.01157423 -0.1570371
-0.21744785 -0.2613596 -0.099085614 -0.015014578 -0.109166324 0.048032932 0.029950546 -0.30238473
-0.22505644 -0.00066746556 0.002144798 0.0063367942 0.06435904 -0.0064995205 -0.14359802 0.018106215
-0.31105232 0.09007158 -0.205026 0.19972862 -0.07478159 -0.11428256 -0.0636519 0.3954407
0.060147006 0.077523306 -0.091677696 -0.06320622 -0.3675021 0.01603586 0.06486627 0.059716363
-0.16532613 -0.22239803 -0.009416691 -0.119523145 -0.3253992 0.028216848 -0.13091378 0.0022583834
-0.08538743 -0.34864715 0.03662407 -0.16578905 0.03831515 -0.049801186 0.04007656 -0.08672598
-0.17526734 -0.0369922 -0.13655633 0.08312559 0.006897038 -0.15674917 -0.075286105 -0.019481948
-0.19879831 0.033670686 0.09697739 -0.019049704 0.010624274 -0.26809177 -0.068204775 0.06970984
-0.06894623 0.024289886 -0.071466826 0.092074916 0.24062406 0.014689618 0.056776457 -0.027714297
0.0755678 0.046560105 0.06327363 0.059969366 -0.0044054226 -0.013218861 -0.059593737 -0.29034248
-0.12855218 -0.021272648 -0.047343504 0.024021642 0.140844 -0.3363811 -0.25703278 -0.041626193
0.005233446 -0.031307418 -0.046289194 -0.072761096 -0.18021597 -0.12425929 -0.10164357 -0.09139024
-0.19310449 -0.05236975 -0.02169345 -0.019648226 -0.13881601 -0.42577723 0.07625535 -0.040898997
0.11209573 -0.11247028 0.08624552 -0.024300413 -0.3593445 -0.04097848 -0.150039 -0.064996526
0.0033280328 -0.08685908 -0.100115076 0.068230785 -0.17008059 0.013844147 0.05319798 -0.23310062
-0.048467964 0.01475616 -0.3742013 0.06981509 -0.11540816 -0.06697481 -0.37328288 0.07693269
0.04533155 -0.04855912 0.05532456 -0.123356745 -0.124910705 0.11370545 -0.28980234 -0.048358757
-0.077540144 -0.13761923 0.08237606 -0.029908277 -0.64820564 0.08773576 0.537897 0.0785321
-0.103442065 -0.00999126 -0.10392338 -0.0168428 0.6240212 -0.052929994 -0.046485674 -0.03151277
-0.10002179 0.008834524 0.13947332 0.087206334 -0.14439207 -0.06843535 0.47487783 -0.059847157
-0.032436755 -0.15546685 0.029183531 0.0071024797 0.020009309 -0.03946333 0.13501433 -0.35278216
0.12360879 -0.05119479 -0.18946686 -0.05618858 0.798895 0.06941474 0.051201455 -0.29209104
0.020577503 -0.043974146 -0.13698082 -0.024492936 -0.104302496 -0.14740571 -0.089729674 -0.05351632
0.04131825 -0.19185814 -0.092431776 -0.037310474 -0.66490275 -0.019846594 0.031300005 -0.02331429
-0.3767641 -0.029683521 -0.09577439 -0.044935565 0.040660124 -0.0014233715 0.02058076 -0.078116894
00000000: 5f25 82be ec36 75bd eae7 8dbe f4de 27be
00000010: 81cc 50be b2e7 763d 5673 3b3d 46eb 903d
00000020: b28e a2be 620c e9bd 3891 acbb e520 e83c
00000030: 24d6 b7be ec67 bdbc ced1 87bd 0051 a4bd
00000040: df30 b6bd 10f2 793d 5f0a adbd 8876 97be
00000050: 7265 b1bd 32aa cf3d 2a4d 843d 27dd 043e
00000060: eeeb f53d 135c 28be 79c6 07bd cc30 8e3e
00000070: 3f79 ce3d b53c b43d d449 453d 0708 29be
00000080: 9a6a c0bc 3d8e b4bd 087d 5abc a81c 7bbd
00000090: 1ad3 c4bc 460b a4bc 574d 303e 47c0 83be
000000a0: c349 dabe d87a 3ebe 83c3 0ebe c7f1 643c
000000b0: 1350 e0be 3790 213d 5704 7f3d 72ea 8bbd
000000c0: c83b a2bc 4772 a33c 2187 87be 6765 d13c
000000d0: a3be 9c3d 1e49 fbbc d7a1 3dbc 55ce 20be
000000e0: a6aa 5ebe edd0 85be 66ed cabd b4ff 75bc
000000f0: 9892 dfbd 2ebe 443d d95a f53c 2cd2 9abe
00000100: 3275 66be dbf8 2eba bd8f 0c3b e2a4 cf3b
00000110: acce 833d eef9 d4bb 5c0b 13be 7c53 943c
00000120: 4042 9fbe 7377 b83d 56f2 51be a985 4c3e
00000130: 1727 99bd fa0c eabd ed5b 82bd 3477 ca3e
00000140: b55c 763d 8ac4 9e3d 84c1 bbbd 4372 81bd
00000150: 3c29 bcbe a35d 833c 9bd8 843d 2599 743d
00000160: 414b 29be 4fbc 63be 7748 1abc 8dc8 f4bd
00000170: b99a a6be 0527 e73c 430e 06be 6301 143b
00000180: 9bdf aebd e181 b2be 1f03 163d 9bc4 29be
00000190: 59f0 1c3d 54fc 4bbd 5227 243d 649d b1bd
000001a0: 4879 33be 2285 17bd 6cd5 0bbe c03d aa3d
000001b0: 8c00 e23b db82 20be 9a2f 9abd 9b98 9fbc
000001c0: c991 4bbe 46ea 093d 159c c63d 200e 9cbc
000001d0: 6f11 2e3c 5343 89be f2ae 8bbd 08c4 8e3d
000001e0: ae33 8dbd 95fb c63c 335d 92bd c691 bc3d
000001f0: 2766 763e b9ac 703c 6e8e 683d 1809 e3bc
00000200: 4ac3 9a3d cfb5 3e3d 9b95 813d 70a2 753d
00000210: 5d5b 90bb ec93 58bc 9018 74bd c5a7 94be
00000220: 2fa3 03be fa43 aebc 43eb 41bd 09c9 c43c
00000230: 6939 103e 253a acbe cd99 83be 3a80 2abd
00000240: 547d ab3b 353c 00bd bd99 3dbd c503 95bd
00000250: 898a 38be a87b febd 812a d0bd ce2a bbbd
00000260: 2fbd 45be aa81 56bd 76b6 b1bc 51f5 a0bc
00000270: c925 0ebe 79ff d9be c42b 9c3d b585 27bd
00000280: 7292 e53d d156 e6bd 7ea1 b03d a911 c7bc
00000290: 01fc b7be 0dd9 27bd d3a3 19be e61c 85bd
000002a0: 201b 5a3b 2ce3 b1bd 2209 cdbd 95bc 8b3d
000002b0: 9b29 2ebe 90d2 623c 20e6 593d eeb1 6ebe
000002c0: 5886 46bd d2c3 713c 5097 bfbe 37fb 8e3d
000002d0: 1d5b ecbd 172a 89bd ef1e bfbe e38e 9d3d
000002e0: 93ad 393d eee5 46bd 019c 623d 76a2 fcbd
000002f0: 2fd1 ffbd 67de e83d f960 94be d513 46bd
00000300: 5ecd 9ebd 0eec 0cbe c8b4 a83d 3402 f5bc
00000310: cef0 25bf ceae b33d 9eb3 093f 70d5 a03d
00000320: 6fd9 d3bd 62b2 23bc c8d5 d4bd e9f9 89bc
00000330: dabf 1f3f 1fcd 58bd c367 3ebd 8913 01bd
00000340: 39d8 ccbd aebe 103c 18d2 0e3e 3c99 b23d
00000350: 84db 13be d527 8cbd 3023 f33e 4b22 75bd
00000360: 67dc 04bd b432 1fbe 4d12 ef3c ebbb e83b
00000370: 90ea a33c 4da4 21bd 3241 0a3e dd9f b4be
00000380: 9b26 fd3d a1b1 51bd 9a03 42be ff25 66bd
00000390: 6284 4c3f 5129 8e3d 9eb8 513d f58c 95be
000003a0: 2792 a83c 3c1e 34bd b344 0cbe 69a5 c8bc
000003b0: 8c9c d5bd 86f1 16be 31c4 b7bd ee33 5bbd
000003c0: 533d 293d 7676 44be df4c bdbd ded2 18bd
000003d0: 1137 2abf 5395 a2bc 6f34 003d 9cfd bebc
000003e0: 39e7 c0be db2a f3bc 5d25 c4bd 5b0e 38bd
000003f0: 3b8b 263d 6c90 baba fb98 a83c c0fb 9fbd

l2.weight f4 [128, 512]
-0.074959114 0.000714915 -0.014288891 -0.037305754 -0.001301168 -0.015947787 0.038343184 0.02691525
-0.05437733 -0.028111331 -0.02165659 0.04218938 0.0198371 -0.04195174 -0.06869629 -0.0003087362
-0.029331677 -0.03077729 -0.0042900657 0.0708462 0.015587743 0.027714513 -0.03800683 -0.14453696
-0.027900813 0.06311743 -0.004593748 -0.05408719 -0.031165687 0.0017131008 0.0070177875 -0.028285231
0.03721956 0.03472382 -0.09910927 0.13686904 -0.035064243 0.0003234349 -0.15129964 0.068187624
0.6183996 0.18410124 0.038717598 -0.00020994399 -0.0346024 -0.03903177 -0.0025437414 0.027169945
0.09514769 0.015629748 -0.013414714 0.031167336 0.019964768 -0.010798502 -0.04102713 -0.024211094
-0.03084644 -0.022896392 -0.006397079 -0.0048481887 -0.022508476 0.002816242 0.004797167 -0.07650529
-0.000118778495 -0.096136466 -0.024906501 0.0018611392 0.039660014 0.039412156 -0.042390738 -0.0030267187
-0.07709425 0.018529477 -0.0825836 -0.19578777 0.0058459574 -0.042550057 -0.036280286 -0.17849039
0.01990812 -0.025974708 -0.010552933 -0.02504804 -0.09059456 -0.0048810793 0.07455805 -0.030326981
0.016344287 0.014345038 0.015167871 0.09948174 0.09249727 -0.021371996 -0.040621728 -0.025319366
-0.0054253633 0.021488914 0.03234977 -0.05917751 0.017570384 0.008865131 -0.017760722 0.14073297
0.15896867 -0.01383729 0.08769908 -0.012097325 0.032033708 0.27366897 0.007827207 -0.03485337
0.035069495 -0.021183427 0.0082852375 -0.042583052 -0.030303594 -0.07251402 0.04419405 -0.04564235
0.02936108 -0.036579333 0.014203567 -0.05567233 0.023688367 0.014044605 -0.022843687 -0.016108036
-0.040095575 -0.03901617 -0.02124219 -0.036959514 0.017314779 0.0055486574 0.065200344 -0.0068324106
0.025625277 -0.0421043 -0.002227139 -0.033104014 -0.028234363 0.22522573 0.059571337 -0.023481702
0.0024767502 -0.08058662 0.18406464 -0.0026598033 -0.010430839 -0.08436872 0.038749162 -0.019804645
-0.036992695 -0.030475691 0.011082013 -0.043038666 0.03599288 -0.052154 0.010766349 -0.33862725
-0.016583499 0.021809066 0.041953187 0.022156999 0.34388232 -2.3512674e-05 0.12865423 -0.038517024
0.03312754 -0.025507655 0.035044346 -0.0058377916 -0.04583927 -0.02982919 -0.018385472 -0.05402263
-0.005848646 -0.029088616 0.07568334 0.11264734 0.01703811 -0.031135073 0.4230686 0.02316739
-0.027338501 -0.042165134 -0.009859418 -0.044109967 0.02188482 0.02217752 -0.03954597 0.0046669883
-0.0006670845 0.011369523 0.004609785 -0.017978586 -0.05853956 -0.03963713 -0.51910317 0.14065015
0.023926444 0.0023797376 0.020706534 0.023053488 -0.78021914 -0.036954533 0.18056907 0.040215917
-0.027654676 -0.030394057 -0.0055655455 -0.070430905 0.2704559 -0.02769445 -0.12663141 0.002377805
-0.0046429588 0.031273782 -0.031970546 -0.016738178 0.041667633 -0.030684702 0.025647525 -0.051411055
-0.0077396487 -0.003620664 -0.055606 0.014189749 0.39909706 -0.0074708397 -0.058236398 0.04813682
0.14664708 0.03148138 0.03184805 -0.017116953 -0.024338413 0.0427362 -0.003728611 0.02118346
-0.0120800715 -0.02985778 0.01262553 0.006574472 -0.072298326 0.019932382 -0.029771933 -0.013206521
-0.100777745 -0.039501827 -0.033864073 -0.024727581 0.022982713 0.02544841 -0.020963969 0.024367526
00000000: 2a84 99bd 2269 3b3a f41b 6abc ebcd 18bd
00000010: f48b aaba efa4 82bc be0d 1d3d 5f7d dc3c
00000020: c3ba 5ebd bc49 e6bc 2969 b1bc c5ce 2c3d
00000030: 6a81 a23c 96d5 2bbd a4b0 8cbd dfdd a1b9
00000040: fc48 f0bc a820 fcbc ae93 8cbb d017 913d
00000050: bc63 7f3c 8c09 e33c 0dad 1bbd 7f01 14be
00000060: 3f90 e4bc b643 813d 2787 96bb 888a 5dbd
00000070: 2f4f ffbc 208a e03a 78f5 e53b 6eb6 e7bc
00000080: 8a73 183d 903a 0e3d cdf9 cabd 6627 0c3e
00000090: 869f 0fbd b392 a939 4bee 1abe f4a5 8b3d
000000a0: 704f 1e3f 0985 3c3e 5896 1e3d 6924 5cb9
000000b0: 3fbb 0dbd c7df 1fbd e6b4 26bb 8193 de3c
000000c0: cbdc c23d f509 803c 63c9 5bbc a452 ff3c
000000d0: 278d a33c 33ec 30bc 100c 28bd 5856 c6bc
000000e0: acb1 fcbc 3791 bbbc 979e d1bb 8edd 9ebb
000000f0: b263 b8bc b390 383b 8e31 9d3b ceae 9cbd
00000100: b818 f9b8 32e3 c4bd b808 ccbc 78f1 f33a
00000110: 8a72 223d a46e 213d e9a1 2dbd ea5b 46bb
00000120: 97e3 9dbd 21cb 973c 9721 a9bd 977c 48be
00000130: 728f bf3b f848 2ebd a39a 14bd 2fc6 36be
00000140: 5b16 a33c e9c8 d4bc 36e6 2cbc 8c31 cdbc
00000150: a489 b9bd 76f1 9fbb e4b1 983d 4a70 f8bc
00000160: 74e4 853c 7307 6b3c a982 783c 15bd cb3d
00000170: 356f bd3d 5314 afbc f862 26bd 8f6a cfbc
00000180: 3fc7 b1bb 8509 b03c 3181 043d 1e64 72bd
00000190: c4ef 8f3c 0e3f 113c ef7e 91bc 4e1c 103e
000001a0: afc8 223e cdb5 62bc 939b b33d dc33 46bc
000001b0: c735 033d 571e 8c3e b03d 003c 68c2 0ebd
000001c0: 08a5 0f3d de88 adbc cebe 073c 916b 2ebd
000001d0: 3e3f f8bc 3b82 94bd d204 353d 79f3 3abd
000001e0: a686 f03c 36d4 15bd 14b6 683c ab08 64bd
000001f0: 1b0e c23c 581b 663c af22 bbbc 00f5 83bc
00000200: 423b 24bd 6bcf 1fbd 1a04 aebc dc62 17bd
00000210: b9d7 8d3c 83d1 b53b c287 853d 6ae2 dfbb
00000220: 1aec d13c 8f75 2cbd 31f5 11bb 1398 07bd
00000230: c04b e7bc 93a1 663e 1301 743d b35c c0bc
00000240: f950 223b 990a a5bd 717b 3c3e 1850 2ebb
00000250: 1ce6 2abc 82c9 acbd 71b7 1e3d 5a3d a2bc
00000260: a785 17bd 28a8 f9bc 5591 353c 5049 30bd
00000270: 456d 133d 6f9f 55bd 5765 303c 8d60 adbe
00000280: 1eda 87bc eda8 b23c 1bd7 2b3d 9882 b53c
00000290: 5811 b03e 153d c5b7 efbd 033e 07c4 1dbd
000002a0: beb0 073d 6ef5 d0bc a98a 0f3d f24a bfbb
000002b0: f5c1 3bbd 585c f4bc 219d 96bc d546 5dbd
000002c0: 00a6 bfbb 404b eebc deff 9a3d a6b3 e63d
000002d0: 8293 8b3c fb0e ffbc 739c d83e 8ac9 bd3c
000002e0: fef4 dfbc 59b5 2cbd 6589 21bc a7ac 34bd
000002f0: cb47 b33c a1ad b53c f4fa 21bd 89ed 983b
00000300: 48df 2eba 3c47 3a3c ae0d 973b d447 93bc
00000310: 2dc7 6fbd 8b5a 22bd f2e3 04bf 9806 103e
00000320: 6401 c43c 5ff5 1b3b c0a0 a93c abda bc3c
00000330: 71bc 47bf a35d 17bd 19e7 383e 72b9 243d
00000340: 0f8c e2bc f5fc f8bc 2e5f b6bb 143e 90bd
00000350: 3279 8a3e 79df e2bc aaab 01be f3d4 1b3b
00000360: f623 98bb f018 003d 8cf3 02bd 811e 89bc
00000370: aeab 2a3d 7c5e fbbc c21a d23c 6694 52bd
00000380: e19c fdbb a948 6dbb 1ec3 63bd 1f7c 683c
00000390: 7356 cc3e f2cd f4bb 4a89 6ebd 1d2b 453d
000003a0: a72a 163e 9ff2 003d 1a73 023d da38 8cbc
000003b0: 5a61 c7bc 270c 2f3d b65b 74bb ef88 ad3c
000003c0: 7eeb 45bc 4e98 f4bc 50db 4e3c ab6e d73b
000003d0: 2511 94bd 3c49 a33c 45e4 f3bc 2a60 58bc
000003e0: 9064 cebd abcc 21bd 0eb5 0abd 7f91 cabc
000003f0: 3e46 bc3c 2f79 d03c a1bc abbc 689e c73c

l2.bias f4 [128]
-0.03324012 -0.31321952 -0.6360966 -0.1526952 -0.5950451 -0.1850893 -0.0293552 0.16618723
-0.035252847 -0.04603808 -0.07136112 -0.059076235 0.0034031828 -0.055232324 -0.012718544 -0.05187461
0.015195089 -0.03911843 -0.09874548 -0.05226276 -0.46149608 -0.049630255 -0.39384568 -0.44638485
0.004090303 -0.11252081 -0.02192385 -0.004360728 -0.037475474 -0.08120404 -0.05646338 -0.012959666
-0.027102213 -0.22840235 -0.013497578 -0.11794563 -0.02468534 -0.014557305 -0.05670089 -0.3372005
-0.0504727 -0.034024972 -0.013684359 0.7894929 -0.06765919 -0.043120798 -0.039853126 0.49812913
-0.14546949 -0.44996136 -0.18037713 -0.01693931 -0.12670797 -0.082702436 -0.10987059 -0.3360941
-0.03938272 -0.11079398 -0.03216571 0.0106408745 -0.054444347 -0.25351906 -0.05082226 -0.0947436
-0.067852065 -0.37121874 -0.025450608 -0.045207508 -0.17359522 -0.043875776 0.008964846 -0.041226182
-0.31329423 -0.0056511974 -0.033765562 -0.046231106 -0.10456837 -0.015987476 -0.0670835 -0.01218831
-0.14800736 -0.038692154 -0.079640396 -0.05185442 -0.08079539 -0.18309297 -0.0012268324 -0.31363192
-0.017631784 0.18938218 -0.03384722 -0.03437005 -0.0734288 -0.1276059 0.21425943 0.103891626
0.01183329 -0.07926281 -0.10760079 -0.121336035 -0.07300955 -0.036232207 0.017482152 -0.06979054
-0.027808635 -0.099683575 0.08166108 -0.038070254 -0.10749739 0.09341293 -0.09863363 -0.0012299356
0.020268245 0.05678874 0.017771132 -0.057919107 -0.055156376 -0.04143319 -0.078592055 0.1666784
0.08414228 -0.07816998 -0.2445248 -0.07138437 -0.5749998 -0.12763317 -0.08689682 -0.008501559
00000000: cb26 08bd 4f5e a0be 3ad7 22bf 215c 1cbe
00000010: e054 18bf 0d88 3dbe 517a f0bc fc2c 2a3e
00000020: 4a65 10bd 6d92 3cbd c725 92bd ecf9 71bd
00000030: ef07 5f3b 4a3b 62bd 7161 50bc 797a 54bd
00000040: d3f4 783c a63a 20bd 123b cabd 7a11 56bd
00000050: 3749 ecbe 1849 4bbd 24a6 c9be 8e8c e4be
00000060: f307 863b 4f71 e6bd a599 b3bc 70e4 8ebb
00000070: e27f 19bd 4e4e a6bd 2546 67bd c754 54bc
00000080: 7605 debc 4ee2 69be f224 5dbc 7a8d f1bd
00000090: e938 cabc c381 6ebc 313f 68bd 8ba5 acbe
000000a0: 76bc 4ebd c55d 0bbd 5d34 60bc 351c 4a3f
000000b0: e790 8abd 6f9f 30bd 083d 23bd c80a ff3e
000000c0: f4f5 14be 5661 e6be c8b4 38be 4fc4 8abc
000000d0: bcbf 01be e55f a9bd d503 e1bd 8714 acbe
000000e0: c64f 21bd f4e7 e2bd 31c0 03bd 1057 2e3c
000000f0: 0901 5fbd 40cd 81be 012b 50bd ef08 c2bd
00000100: 06f6 8abd 6210 bebe cb7d d0bc 822b 39bd
00000110: f2c2 31be 16b7 33bd 4ae1 123c c9dc 28bd
00000120: 1a68 a0be ae2d b9bb c24d 0abd d45c 3dbd
00000130: f127 d6bd 2bf8 82bc 1363 89bd 7ab1 47bc
00000140: 3e8f 17be aa7b 1ebd 811a a3bd 4d65 54bd
00000150: 0e78 a5bd b97c 3bbe aacd a0ba 5d94 a0be
00000160: 8870 90bc 67ed 413e 62a3 0abd 9cc7 0cbd
00000170: d761 96bd 1fab 02be d366 5b3e 22c5 d43d
00000180: 6ae0 413c 8a54 a2bd ce5d dcbd 077f f8bd
00000190: 0886 95bd 3968 14bd bb36 8f3c 58ee 8ebd
000001a0: efce e3bc e726 ccbd ed3d a73d 8eef 1bbd
000001b0: 9727 dcbd 474f bf3d 6e00 cabd ca35 a1ba
000001c0: 9709 a63c 4f9b 683d c494 913c 963c 6dbd
000001d0: a7eb 61bd d9b5 29bd dff4 a0bd bead 2a3e
000001e0: ca52 ac3d 9517 a0bd b664 7abe f831 92bd
000001f0: 3033 13bf 45b2 02be f6f6 b1bd 1f4a 0bbc

l3.weight f4 [64, 128]
0.3006537 -0.048419137 -0.13868268 0.08153009 0.035261866 0.049264114 0.054679982 -0.101527266
0.0015121098 0.062161636 -0.0039215824 0.028230894 0.05172905 0.045620866 -0.025140837 -0.032875195
-0.017542236 -0.020518031 -0.042899705 -0.043277048 0.005481527 0.043741114 0.013754039 -0.022102434
0.050721467 -0.015875699 0.025524471 0.07963879 -0.027407482 -0.03034626 -0.060453564 -0.05226283
0.055346187 -0.03669605 0.03748156 0.03089934 -0.07331298 -0.021748789 -0.063277714 -0.010143856
0.08353426 -0.06514795 -0.042999975 -0.11592546 -0.15241481 -0.018801793 -0.06638235 -0.18317279
-0.016970536 0.04342941 -0.12569098 0.07376358 0.025051752 0.05647487 0.00741831 0.05846172
0.041194994 0.023618666 -0.01725493 0.05077276 0.01568818 0.08141398 -0.07366384 0.049212847
0.040129397 0.02312273 -0.064711735 0.015327051 -0.039482225 -0.03870122 -0.08573282 0.007205484
-0.15562238 -0.0028265677 0.05081114 -0.057403132 0.0019345222 0.03862979 0.0030511473 0.034580182
-0.094407804 0.027649691 0.0057107937 -0.021323847 -0.06528385 -0.07069919 0.07303941 0.080047235
-0.07616177 -0.0849109 -0.08514901 0.027897073 0.06129725 0.029178163 0.00982594 -0.047304913
0.058000624 -0.028149586 -0.0123517215 -0.10159559 -0.026675038 0.084712416 0.05407872 0.08312179
-0.09190986 0.017119853 -0.0037416613 0.067432344 -0.01879778 -0.13995019 0.030460097 0.056527562
-0.109606706 -0.019925326 0.043485377 -0.07788198 0.008045454 0.019162472 -0.060288228 0.08071676
-0.07021159 0.016800044 -0.17152412 0.013594575 -0.05231168 -0.0061274413 -0.054854825 -0.07725252
-0.02171297 -0.0593766 -0.15238923 0.0091503225 -0.26799512 -0.07340745 -0.0795559 0.015652735
0.043424364 0.01893925 0.066374175 0.11252553 -0.02718749 0.025371244 -0.033199865 -0.026539352
0.01743218 -0.38153353 -0.054279637 -0.11204486 -0.10725587 0.07929628 0.058143996 -0.10773772
0.03852872 0.05181079 0.011429172 -0.02083785 -0.03036241 0.011075086 0.004731141 0.009745859
0.01460748 0.022331478 0.10197302 0.06983306 0.019300135 -0.011066381 0.048519317 -0.07719535
-0.02557672 -0.0589727 -0.025465863 -0.22021984 -0.0026261518 -0.0721758 -0.073569015 0.084600784
-0.119419456 -0.11413265 0.037722927 -0.0416978 0.01916147 0.113416694 0.06329414 -0.026230969
0.013189305 -0.07606725 0.080254465 0.05821801 -0.013495248 -0.019582514 0.04004704 -0.039923068
0.044285867 -0.072262056 0.1022168 -0.030153 0.12033534 -0.051715724 0.08496181 0.11115828
-0.14036407 -0.02455281 -0.014523201 -0.05279911 -0.09196703 -0.044985756 -0.0326586 -0.035493325
-0.16874272 0.03160774 -0.0600597 0.04667492 -0.014000026 -0.099518605 -0.0665502 0.002956722
-0.072528176 -0.04344973 0.078010686 -0.059354927 0.100112684 0.053227797 0.0320247 0.19522221
-0.06277056 -0.054122347 -0.03796584 -0.37083092 -0.037735302 0.09924688 -0.013065515 -0.049453605
0.074605614 -0.05665022 0.13550909 0.032717835 -0.048407964 0.06622728 0.03278655 0.03587594
-0.059579886 -0.09306759 -0.029156838 0.006019555 -0.000870253 0.008241934 -0.23651859 0.11159377
0.03792773 -0.055861857 -0.16838308 -0.34420285 -0.13728684 -0.20085894 0.07839959 0.02209485
00000000: 48ef 993e 2553 46bd d502 0ebe 3ff9 a63d
00000010: bf6e 103d 2bc9 493d 1ef8 5f3d 87ed cfbd
00000020: fc31 c63a 339d 7e3d 9e80 80bb 7a44 e73c
00000030: d7e1 533d f2dc 3a3d 28f4 cdbc 24a8 06bd
00000040: bcb4 8fbc 6e15 a8bc 9ab7 2fbd 4643 31bd
00000050: 629e b33b e229 333d 9f58 613c 2a10 b5bc
00000060: 50c1 4f3d c10d 82bc b218 d13c a919 a33d
00000070: a885 e0bc b898 f8bc 289e 77bd 8d11 56bd
00000080: afb2 623d 994e 16bd 4486 193d 9d20 fd3c
00000090: 1e25 96bd 842a b2bc bf97 81bd 6a32 26bc
000000a0: 0314 ab3d 4a6c 85bd be20 30bd 546a edbd
000000b0: a112 1cbe 3806 9abc 78f3 87bd a691 3bbe
000000c0: cb05 8bbc 09e3 313d 23b5 00be 5c11 973d
000000d0: 5539 cd3c 3152 673d 4b15 f33b 8e75 6f3d
000000e0: 15bc 283d ef7b c13c 365a 8dbc 19f7 4f3d
000000f0: 8084 803c 5fbc a63d 11dd 96bd 6993 493d
00000100: b95e 243d e16b bd3c 9687 84bd 501e 7b3c
00000110: 1db8 21bd 2c85 1ebd b094 afbd fb1b ec3b
00000120: 795b 1fbe f03d 39bb 581f 503d 8c1f 6bbd
00000130: cb8f fd3a 453a 1e3d c2f5 473b f3a3 0d3d
00000140: e158 c1bd 9b81 e23c 9c21 bb3b 59af aebc
00000150: 8ab3 85bd bdca 90bd b095 953d ceef a33d
00000160: b4fa 9bbd c4e5 adbd 9b62 aebd 6788 e43c
00000170: d312 7b3d 0b07 ef3c fbfc 203c ccc2 41bd
00000180: 1092 6d3d f699 e6bc e05e 4abc 5911 d0bd
00000190: 9c85 dabc b47d ad3d a681 5d3d c23b aa3d
000001a0: 3d3b bcbd ef3e 8c3c a936 75bb f819 8a3d
000001b0: cdfd 99bc 1a4f 0fbe 7487 f93c 7289 673d
000001c0: 7b79 e0bd 703a a3bc b91d 323d 9680 9fbd
000001d0: 14d1 033c 9efa 9c3c caf0 76bd d44e a53d
000001e0: 18cb 8fbd 3fa0 893c 05a4 2fbe c8bb 5e3c
000001f0: c644 56bd b4c8 c8bb 74af 60bd 9236 9ebd
00000200: 66df b1bc e134 73bd ec0b 1cbe 3ceb 153c
00000210: a836 89be a556 96bd 34ee a2bd 2a3a 803c
00000220: bfdd 313d 7c26 9b3c 2fef 873d c973 e63d
00000230: 4db8 debc 5bd7 cf3c 95fc 07bd 0e69 d9bc
00000240: eecd 8e3c 5d58 c3be 5354 5ebd c777 e5bd
00000250: f7a8 dbbd 1766 a23d 6628 6e3d 98a5 dcbd
00000260: 4bd0 1d3d 8d37 543d 6c41 3b3c 24b4 aabc
00000270: 97ba f8bc 4774 353c b007 9b3b 18ad 1f3c
00000280: 3654 6f3c 81f0 b63c 3bd7 d03d a304 8f3d
00000290: 511b 9e3c c44f 35bc 31bc 463d 9818 9ebd
000002a0: 4586 d1bc 5c8d 71bd c99d d0bc 4f81 61be
000002b0: 841b 2cbb e8d0 93bd 5aab 96bd 2d43 ad3d
000002c0: 3092 f4bd 61be e9bd 5b83 1a3d 50cb 2abd
000002d0: 84f8 9c3c 0347 e83d 5ca0 813d 54e2 d6bc
000002e0: f417 583c 25c9 9bbd 745c a43d 0276 6e3d
000002f0: 2c1b 5dbc 826b a0bc 5d08 243d 5f86 23bd
00000300: 1965 353d 21fe 93bd 0b57 d13d 6d03 f7bc
00000310: 6072 f63d ded3 53bd 7500 ae3d f4a6 e33d
00000320: 99bb 0fbe f922 c9bc b8f2 6dbc e143 58bd
00000330: 3659 bcbd fc42 38bd 06c5 05bd 7361 11bd
00000340: e4ca 2cbe 1e77 013d 2901 76bd 332e 3f3d
00000350: 5d60 65bc 69d0 cbbd 794b 88bd 90c5 413b
00000360: a789 94bd 58f8 31bd 11c4 9f3d 271e 73bd
00000370: e107 cd3d 6405 5a3d 552c 033d 55e8 473e
00000380: da8d 80bd 65af 5dbd 1282 1bbd 8ddd bdbe
00000390: 5590 1abd f341 cb3d be10 56bc dd8f 4abd
000003a0: d4ca 983d 100a 68bd e5c2 0a3e 2303 063d
000003b0: 6e47 46bd 2ba2 873d 304b 063d a6f2 123d
000003c0: 0a0a 74bd 389a bebd 52da eebc b03f c53b
000003d0: b121 64ba 2d09 073c ee31 72be 468b e43d
000003e0: 1b5a 1b3d 67cf 64bd 9d6c 2cbe 5b3b b0be
000003f0: ec94 0cbe f7ad 4dbe f78f a03d 4200 b53c

l3.bias f4 [64]
-0.41694328 -0.32137713 -0.40204084 -0.43406856 -0.43285775 -0.2058496 -0.4849239 -0.321148
-0.49374834 -0.27253464 -0.19903345 -0.44835323 -0.2653239 -0.25358382 -0.26814404 -0.5206067
-0.19217363 -0.59787977 -0.7319866 -0.23179887 -0.32083583 -0.23582232 -0.31600577 -0.15629797
-0.79021305 0.040037815 -0.57204753 -0.6410656 -0.36461562 -0.64990026 -0.38638824 -0.21185257
-0.535589 -0.31041142 -0.26623255 -0.67922485 -0.1964829 -0.13364695 -0.34255633 -0.22430146
-0.23876989 -0.608214 -0.64877534 -0.4585876 -0.21289358 -0.45849293 -0.08495257 0.34239477
-0.45979276 -0.3420961 -0.43689665 -0.42880872 -0.17333736 -0.40063792 -0.17868464 -0.28031623
-0.55379695 -0.07021603 -0.38527828 -0.27428043 -0.5451089 -0.23723005 -0.5094193 -0.35776466
00000000: 9779 d5be 8b8b a4be 4cd8 cdbe 3c3e debe
00000010: 889f ddbe 3dca 52be f247 f8be 836d a4be
00000020: 95cc fcbe a989 8bbe 6dcf 4bbe 8e8e e5be
00000030: 89d8 87be bdd5 81be 2d4a 89be 7b46 05bf
00000040: 2ac9 44be a60e 19bf 7963 3bbf af5c 6dbe
00000050: 9844 a4be 687b 71be 82cb a1be 930c 20be
00000060: 674b 4abf b1fe 233d b571 12bf e01c 24bf
00000070: e6ae babe dd5f 26bf aed4 c5be e1ef 58be
00000080: 5c1c 09bf 3fee 9ebe a24f 88be aee1 2dbf
00000090: d032 49be bfda 08be 8b63 afbe 48af 65be
000000a0: 1880 74be eab3 1bbf 2416 26bf fecb eabe
000000b0: c600 5abe 96bf eabe 9dfb adbd 5e4e af3e
000000c0: f569 ebbe 3827 afbe ebb0 dfbe d18c dbbe
000000d0: 597f 31be 6a20 cdbe 1bf9 36be 9c85 8fbe
000000e0: a3c5 0dbf 6ccd 8fbd 3243 c5be 7c6e 8cbe
000000f0: 428c 0bbf 6fec 72be 4e69 02bf ee2c b7be

out.weight f4 [2, 64]
0.009626587 0.015481168 -0.016089894 0.057461746 0.029246999 0.016887369 0.008525324 -0.0073930053
0.04047344 0.0017368773 -0.066198684 -0.017315745 0.06925379 0.009344464 0.028145136 0.02838006
-0.007126016 -0.04331379 0.013076023 -0.0059829857 -0.041372154 -0.12768605 0.021667618 -0.03802226
-0.06013362 0.00750697 -0.08923394 0.02291166 -0.14818631 0.09845239 0.08423463 0.014237828
0.0061931736 0.03907395 -0.021498462 -0.025137326 0.061063636 0.009988239 0.10649114 0.08797938
-0.111161016 -0.011747617 -0.022940194 -0.031201927 0.019553153 0.039681967 -0.15864387 0.027086584
-0.051007073 -0.07231304 0.0076275617 -0.038662218 0.009035507 0.024769142 0.04425378 0.080300316
0.088932015 0.0542654 -0.003276268 -0.034868933 -0.09847101 0.028221894 -0.09049041 0.0207687
-0.0070053507 0.03629655 0.06498883 0.054967254 -0.03417866 0.045814343 0.06088837 -0.035030145
0.06405891 0.12254277 -0.084327444 0.011205208 0.103837565 0.17193592 0.070076995 -0.011766502
0.13903728 -0.13557616 0.007795558 0.018035717 0.030637316 -0.03589135 -0.033023052 0.043664098
0.053020608 0.124911964 -0.081077494 0.020965563 -0.062278997 0.09839614 -0.019472703 0.0074699796
0.007689884 -0.0020668579 -0.012817684 -0.061216943 0.08048611 -0.0026372245 0.03004808 0.06225199
-0.06919408 0.004255842 -0.0064560696 -0.0066363458 0.02126475 0.053919893 -0.071112685 -0.033432513
-0.06707362 -0.114907034 -0.08163698 -0.07752561 0.01131714 0.028157363 -0.06256828 0.13302104
0.12070236 0.096159294 -0.10016646 0.05502494 -0.023383938 0.011020943 -0.075184666 -0.02935101
00000000: d5b8 1d3c baa4 7d3c f4ce 83bc 025d 6b3d
00000010: 6797 ef3c 6157 8a3c cdad 0b3c 0641 f2bb
00000020: 7ac7 253d eea7 e33a 2d93 87bd c0d9 8dbc
00000030: eed4 8d3d 8619 193c a190 e63c 4d7d e83c
00000040: 5b81 e9bb cd69 31bd d13c 563c ec0c c4bb
00000050: d975 29bd 22c0 02be 4a80 b13c 3bbd 1bbd
00000060: ac4e 76bd 07fd f53b 49c0 b6bd 3cb1 bb3c
00000070: 27be 17be 68a1 c93d 3583 ac3d c745 693c
00000080: 1bf0 ca3b 020c 203d 8b1d b0bc cbec cdbc
00000090: dd1d 7a3d b6a5 233c 0718 da3d 882e b43d
000000a0: 63a8 e3bd 1479 40bc 13ed bbbc 2f9b ffbc
000000b0: ef2d a03c 8f89 223d 8a73 22be afe4 dd3c
000000c0: cbec 50bd dc18 94bd a0f0 f93b 465c 1ebd
000000d0: aa09 143c a8e8 ca3c 7443 353d 7e74 a43d
000000e0: fd21 b63d 6545 5e3d a8b6 56bb bad2 0ebd
000000f0: 2bab c9bd 9a31 e73c 0953 b9bd 1f23 aa3c
00000100: 248d e5bb b1ab 143d dd18 853d 5825 613d
00000110: ecfe 0bbd d2a7 3b3d 1566 793d c57b 0fbd
00000120: 5131 833d b4f7 fa3d deb3 acbd 0c96 373c
00000130: caa8 d43d f80f 303e 8784 8f3d 49c8 40bc
00000140: ca5f 0e3e 7ad4 0abe e171 ff3b a4bf 933c
00000150: 1cfb fa3c cf02 13bd 2e43 07bd 20d9 323d
00000160: 232c 593d d8d1 ff3d f50b a6bd f9bf ab3c
00000170: 4318 7fbd ea83 c93d 3885 9fbc bbc6 f43b
00000180: 6cfb fb3b 1f74 07bb 4301 52bc 9ebe 7abd
00000190: e7d5 a43d 49d5 2cbb 6427 f63c f1fb 7e3d
000001a0: a0b5 8dbd 9774 8b3b 708d d3bb b475 d9bb
000001b0: 6a33 ae3c 1bdb 5c3d 87a3 91bd 88f0 08bd
000001c0: e55d 89bd 6154 ebbd 4a31 a7bd bfc5 9ebd
000001d0: 876b 393c 45aa e63c cc23 80bd ab36 083e
000001e0: cd32 f73d 2aef c43d 1324 cdbd d561 613d
000001f0: ac8f bfbc 2f91 343c 6bfa 99bd 8871 f0bc

out.bias f4 [2]
0.24171998 -0.4671156
00000000: 7185 773e c729 efbe
