server/models/wasting_model_v3.pth (torch, 342508 bytes, 8 tensors)

l1.weight f4 [512, 20]
-0.24162643 -0.0033707588 -0.61709625 0.9416415 0.20882452 -0.12875663 -0.7238791 0.1486361
-0.53424025 -0.15966094 -0.31465524 0.17870079 -0.1615931 0.086902075 -0.37069416 0.10963763
-1.3586476 0.14414251 0.005229303 -0.42894208 0.21281178 -0.060566794 0.21906546 -0.15245354
-0.123019286 0.09457642 0.100279525 0.201435 -0.21692142 0.06106694 -0.024455741 -0.22141296
-0.17484696 0.21208228 0.1524046 0.04923095 0.056841563 0.06967302 0.14208625 0.1624303
-0.24288413 -0.018600482 -0.15973628 -0.1970881 0.13963132 -0.0047236113 -0.3150878 -0.10947131
-0.27138367 -0.14156224 -0.26218715 0.036139984 0.1895027 -0.21648762 0.00034445597 0.115294434
-0.016773595 0.15567982 0.013462175 -0.23147294 0.025090367 -0.18265733 0.10596496 0.15726055
-0.22056636 -0.09894731 0.15447916 0.08014537 0.0661991 -0.03433299 -0.2031948 0.21645941
0.15029198 0.0638892 -0.16897048 0.047908977 -0.064009845 -0.032957885 0.16203596 -0.021465123
-0.026392272 -0.13779064 0.048457235 -0.12836187 -0.039187238 0.06193217 0.1692755 0.14561705
-0.084131345 0.056844175 -0.09885617 0.10290309 -0.005728136 -0.21253744 0.19894838 0.045812506
0.08683336 -0.20316164 -0.01070993 -0.14657296 0.17414959 0.0009301775 -0.17891388 1.5779828
-0.16600876 -0.0016400963 -0.13609311 0.035893433 -0.59021956 0.20931037 0.3778946 0.7793672
0.25161758 -0.000492523 0.05314545 0.28644067 -1.8349801 -0.092169814 -0.22329855 -0.36000648
0.011626058 -0.0030606543 -0.20024717 -1.3183609 -0.13394487 -0.2896135 0.07976396 -0.12056405
-0.00708439 -0.0019299517 -0.06816899 -0.5137763 -0.002206451 -0.046434123 0.07876142 0.07693678
1.3323306 -0.48734182 -0.025160948 0.20559062 0.06592647 -0.0036147246 -0.36027494 -0.7473678
0.08558212 -0.23003235 -0.21879344 -0.16680813 -0.0052115046 -0.10203295 -0.17272338 -0.23495983
-0.3050725 -0.061023623 0.018320888 0.06343275 0.91277117 -0.3918986 -0.15715976 -0.23330668
-0.20724958 -0.19185951 0.22160888 -0.006487086 0.21809204 -0.09231605 -0.042826608 -0.07382698
-0.112011716 -0.05528104 0.08461587 0.16580874 0.111233756 -0.1866336 0.19627549 -0.13059466
-0.16568442 0.13486433 -0.08597996 0.022618128 -0.103484616 -0.028693993 -0.09254486 -0.14036378
0.20157734 0.19365583 0.12196805 0.16316035 0.12955083 0.1584632 0.105442636 0.11677317
0.100133315 0.18386596 0.168837 0.009495056 0.035501588 -0.067856595 0.117130786 0.20972864
0.046342563 -0.00031954676 0.13615367 0.43201423 -0.025686689 0.17402223 -0.03021865 0.08673137
0.24871121 0.264347 0.2653586 0.18293816 0.003831035 0.20438848 0.09401471 -0.14834185
-0.5661536 -0.10652404 -0.058030907 0.013093768 -0.18960522 -0.051682692 -0.020525873 0.08817418
-0.07180515 0.083932675 0.08801656 -0.023677493 0.077686295 0.20231009 0.21216662 0.19343331
-0.002187072 0.13547103 -0.06405553 0.17818387 0.09562904 -0.007899641 -0.15899053 -0.16605495
-0.04921579 -0.00019929568 -0.41200507 -0.26140487 0.13895582 -0.30814847 -0.44560674 0.16355544
-0.11149005 -0.19963327 -0.21553959 -0.15678674 -0.17964396 -0.09652924 -0.21225673 -0.005161012
00000000: eb6c 77be f3e7 5cbb 05fa 1dbf 6b0f 713f
00000010: 18d6 553e c7d8 03be 2450 39bf 1034 183e
00000020: f8c3 08bf 287e 23be 7e1a a1be 57fd 363e
00000030: a978 25be b7f9 b13d a0cb bdbe b289 e03d
00000040: 2ae8 adbf 189a 133e 935a ab3b 4c9e dbbe
00000050: 55eb 593e e314 78bd b252 603e c81c 1cbe
00000060: 89f1 fbbd 48b1 c13d 5a5f cd3d fa44 4e3e
00000070: a620 5ebe 5421 7a3d 6857 c8bc 14ba 62be
00000080: 150b 33be 192c 593e f40f 1c3e 65a6 493d
00000090: b3d2 683d bab0 8e3d 0f7f 113e 2154 263e
000000a0: 9eb6 78be 0a60 98bc e891 23be 76d1 49be
000000b0: 83fb 0e3e 86c8 9abb 3053 a1be 7f32 e0bd
000000c0: cdf2 8abe b1f5 10be 653d 86be 8507 143d
000000d0: ff0c 423e eeae 5dbe 1998 b439 7d1f ec3d
000000e0: c768 89bc 886a 1f3e 7490 5c3c 3e07 6dbe
000000f0: 508a cd3c 860a 3bbe 2804 d93d e908 213e
00000100: 26dc 61be e3a4 cabd c92f 1e3e 4123 a43d
00000110: 6593 873d c0a0 0cbd 4c12 50be 89a7 5d3e
00000120: 24e6 193e 57d8 823d 9906 2dbe 343c 443d
00000130: 9817 83bd d9fe 06bd c1ec 253e a0d7 afbc
00000140: 9b34 d8bc fd18 0dbe 187b 463d 4b71 03be
00000150: cc82 20bd 96ac 7d3d 8f56 2d3e a31c 153e
00000160: 0e4d acbd 70d5 683d 1b75 cabd dbbe d23d
00000170: 16b3 bbbb 6aa3 59be 20b9 4b3e e5a5 3b3d
00000180: b0d5 b13d 9b09 50be b478 2fbc 3917 16be
00000190: 4554 323e 28d7 733a 3335 37be 57fb c93f
000001a0: 33fe 29be 80f8 d6ba fe5b 0bbe fe04 133d
000001b0: a118 17bf 7555 563e 677b c13e 9c84 473f
000001c0: 05d4 803e a91c 01ba 0baf 593d 5aa8 923e
000001d0: a1e0 eabf 87c3 bcbd 60a8 64be c552 b8be
000001e0: 397b 3e3c 4295 48bb 980d 4dbe 0dc0 a8bf
000001f0: d828 09be 3848 94be 495b a33d 49ea f6bd
00000200: 2c24 e8bb 6ff6 fcba 2f9c 8bbd d886 03bf
00000210: 1b9a 10bb b531 3ebd ab4d a13d 0891 9d3d
00000220: cf89 aa3f de84 f9be 551e cebc 5986 523e
00000230: 7504 873d 04e5 6cbb f575 b8be 7f53 3fbf
00000240: ae45 af3d 9a8d 6bbe 630b 60be c0cf 2abe
00000250: 45c5 aabb a7f6 d0bd 66de 30be 4f99 70be
00000260: 7632 9cbe e8f3 79bd b015 963c 08e9 813d
00000270: 5fab 693f efa6 c8be 7dee 20be f2e7 6ebe
00000280: 3c39 54be d276 44be 70ed 623e 9f91 d4bb
00000290: 8553 5f3e 3210 bdbd f46a 2fbd 9a32 97bd
000002a0: 6666 e5bd 5f6e 62bd 164b ad3d c4c9 293e
000002b0: 86ce e33d e11c 3fbe 71fc 483e 9bba 05be
000002c0: 2da9 29be e019 0a3e 4316 b0bd a749 b93c
000002d0: beef d3bd aa0f ebbc 2988 bdbd 86bb 0fbe
000002e0: 4a6a 4e3e b74d 463e 63ca f93d 8213 273e
000002f0: f9a8 043e 2d44 223e 4ff2 d73d c626 ef3d
00000300: b212 cd3d 5c47 3c3e 9be3 2c3e 2791 1b3c
00000310: 1d6a 113d 66f8 8abd 44e2 ef3d 1bc3 563e
00000320: b3d1 3d3d d788 a7b9 de6b 0b3e f830 dd3e
00000330: e46c d2bc e232 323e 1a8d f7bc 37a0 b13d
00000340: 27ae 7e3e 7d58 873e 15dd 873e 2454 3b3e
00000350: 1a12 7b3b 374b 513e c98a c03d ede6 17be
00000360: 71ef 10bf 4729 dabd d1b1 6dbd 3e87 563c
00000370: df27 42be 3bb1 53bd e025 a8bc aa94 b43d
00000380: 940e 93bd e5e4 ab3d 0742 b43d 4df7 c1bc
00000390: fe19 9f3d 602a 4f3e 3542 593e 6213 463e
000003a0: fb54 0fbb ebb8 0a3e 8c2f 83bd d575 363e
000003b0: 28d9 c33d 7f6d 01bc 6ace 22be 4f0a 2abe
000003c0: 7f96 49bd 07fa 50b9 54f2 d2be dcd6 85be
000003d0: 6f4a 0e3e a3c5 9dbe 9126 e4be 147b 273e
000003e0: e554 e4bd aa6c 4cbe 69b6 5cbe b48c 20be
000003f0: 96f4 37be 1fb1 c5bd d459 59be b51d a9bb

l1.bias f4 [512]
-0.30166858 -0.18026613 -0.025013683 -0.19788489 -0.11017639 -0.09957521 -0.17320536 -0.22629151
0.04971953 -0.14269 0.13305649 -0.05300347 -0.20660767 -1.0224352 -0.4495601 -0.18205242
0.1466345 -0.20962049 0.026030123 0.08827667 -0.46520436 -0.096471794 1.7875402 -0.0052525927
0.075068675 0.17449406 0.14830016 -0.051512476 0.02147072 -0.16900098 0.15773077 0.0014141812
0.013811675 -0.056963623 -0.14232671 -0.20736296 -0.30920154 -0.2981097 -0.885065 0.10851751
-0.29759198 -0.17733781 0.3808779 0.09943542 0.04810771 -0.00802724 0.11570628 0.119205825
0.052029394 -0.15516706 -0.11922262 -0.31177664 -0.021055 -0.06688874 -0.063330136 -0.1505673
0.16745828 -0.12950155 -0.030479012 -0.1664412 -0.10657557 -0.41427925 -0.25997597 -0.4224122
-0.22226551 0.26784053 -0.10370888 0.10039825 0.18854725 -0.13477235 -0.041738138 -0.22799028
-0.13418542 0.0014567774 -0.59888774 -0.15040676 -1.585129 -1.1475189 0.09457302 -0.26472056
-0.1207724 0.058132593 -0.116691045 -0.11463965 -0.034712516 0.06350301 0.11043235 -0.20929575
0.24862136 -0.09712519 0.21567516 -0.011189139 -0.13673943 -0.16687913 -0.12349555 0.0251058
-0.15382765 -0.21098934 -0.02104985 0.10622653 -0.11640526 -1.60233 -0.5334994 0.19927122
0.037775826 -0.133957 -0.25554258 -0.05344588 0.007017967 -0.14562358 0.021306733 -0.09195258
-0.2981235 -0.075215764 -0.22428472 0.23002264 0.1164944 0.103256576 -0.23241426 0.037282586
-0.07562941 0.16017781 -0.45898706 -0.18133008 -0.20568813 -0.19696255 -0.94582903 0.91044295
0.17912997 -0.034101263 -0.1539274 0.18922478 -0.10099686 0.09243163 -0.3175895 -0.22283162
-0.19882886 -0.1728902 0.08067571 0.17582919 0.21379341 -0.014382008 -0.32597798 0.0688251
-0.16943385 -0.25193864 -0.014901668 -0.20922759 -0.18226169 0.19926874 0.15109089 -0.045871444
1.5531266 -0.12184049 -0.014659312 -0.21511611 -0.15663522 -0.17987588 -0.34500217 0.19430014
0.14586109 -0.4898371 -0.9929885 -0.110258095 -0.25240192 -0.08320669 -0.20183063 0.029602706
-0.4011615 -0.06188885 0.12906913 -0.076319344 -0.18668377 1.6808219 -0.14448401 -0.0855093
0.14595999 -0.0151505135 -0.22263652 -0.0046479614 -0.022556234 -0.21645091 0.11283806 -0.10734577
-0.04968757 -1.2118448 -1.1893259 -0.25773892 -0.23583835 0.084343284 -0.02535035 0.12763315
-0.27208522 0.19030438 -0.21954815 -1.1425294 -0.2010535 -0.24944189 -0.03123388 -0.19313091
-0.25928617 -0.0680542 -0.012115369 -0.25422126 -0.028443506 -0.06016896 0.13294382 0.13673633
-0.045687355 -0.37301415 -0.06247323 0.13579063 0.13571802 0.15917554 -0.20032127 -0.21797502
-0.075680934 -0.29742062 -0.120710716 0.1508033 0.21272424 0.060421616 -0.36080647 0.5881568
-0.09734966 -0.13655943 -0.23892695 -0.09256507 0.05532848 0.08304007 -0.14546688 -0.13913882
-0.09741113 0.08609525 0.048503835 -0.20251289 -0.39316368 0.11570143 -0.08244642 0.15537705
0.15980923 0.048422694 -0.08043609 -0.05638028 0.15167947 -0.13609533 0.089549154 0.20953411
-0.039197206 0.5836644 0.21049441 0.00055364525 -0.093488485 -0.120303474 0.14916533 -0.17058776
00000000: 4e74 9abe af97 38be 7fe9 ccbc 56a2 4abe
00000010: 29a4 e1bd 16ee cbbd bf5c 31be f6b8 67be
00000020: b5a6 4b3d 541d 12be f63f 083e 2b1a 59bd
00000030: f690 53be 28df 82bf be2c e6be f36b 3abe
00000040: 5b27 163e c1a6 56be 203d d53c 66ca b43d
00000050: 442f eebe 0193 c5bd 1ece e43f f11d acbb
00000060: 9bbd 993d 92ae 323e ffdb 173e bffe 52bd
00000070: 5de3 af3c 980e 2dbe 2d84 213e 0c5c b93a
00000080: 5d4a 623c b052 69bd 18be 11be f556 54be
00000090: aa4f 9ebe d6a1 98be 9f93 62bf 6e3e de3d
000000a0: fa5d 98be 0b98 35be 6e02 c33e cca4 cb3d
000000b0: 970c 453d af84 03bc 6af7 ec3d 2f22 f43d
000000c0: c61c 553d 1de4 1ebe fd2a f4bd 30a1 9fbe
000000d0: 897b acbc f7fc 88bd 3bb3 81bd 502e 1abe
000000e0: 2f7a 2b3e 0e9c 04be 1faf f9bc 906f 2abe
000000f0: 4b44 dabd 691c d4be 921b 85be 6946 d8be
00000100: 9299 63be 6522 893e 5265 d4bd 999d cd3d
00000110: 8812 413e c301 0abe 9cf5 2abd 4976 69be
00000120: e767 09be 57f1 be3a b550 19bf 3b04 1abe
00000130: 82e5 cabf e6e1 92bf 80af c13d 7489 87be
00000140: 8557 f7bd 711c 6e3d b7fb eebd 31c8 eabd
00000150: b62e 0ebd de0d 823d 5b2a e23d a051 56be
00000160: 9996 7e3e 92e9 c6bd f3d9 5c3e a752 37bc
00000170: 6c05 0cbe 5de2 2abe 3ceb fcbd aeaa cd3c
00000180: ff84 1dbe 970d 58be bc70 acbc 4c8d d93d
00000190: e265 eebd 2619 cdbf 6b93 08bf c10d 4c3e
000001a0: d3ba 1a3d 062c 09be 7ad6 82be 11ea 5abd
000001b0: f9f6 e53b 591e 15be 758b ae3c a251 bcbd
000001c0: a5a3 98be b90a 9abd e5aa 65be 0e8b 6b3e
000001d0: 9e94 ee3d 2f78 d33d 01fe 6dbe a0b5 183d
000001e0: 98e3 9abd a705 243e 5a00 ebbe 98ae 39be
000001f0: e99f 52be 8db0 49be da21 72bf ca12 693f
00000200: d96d 373e c4ad 0bbd 259f 1dbe 24c4 413e
00000210: 71d7 cebd cb4c bd3d 179b a2be f92d 64be
00000220: cb99 4bbe 210a 31be 4f39 a53d 910c 343e
00000230: a9ec 5a3e 84a2 6bbc 96e6 a6be 2df4 8c3d
00000240: 1180 2dbe 1afe 80be 2026 74bc c23f 56be
00000250: cfa2 3abe 1b0d 4c3e 92b7 1a3e b2e3 3bbd
00000260: dacc c63f 8287 f9bd 9c2d 70bc 6647 5cbe
00000270: fc64 20be 6231 38be 20a4 b0be 9ef6 463e
00000280: 9c5c 153e eecb fabe 7f34 7ebf ffce e1bd
00000290: d33a 81be 4568 aabd b0ac 4ebe 6081 f23c
000002a0: 0a65 cdbe 2a7f 7dbd b32a 043e 514d 9cbd
000002b0: 082a 3fbe 2c25 d73f 9ef3 13be 801f afbd
000002c0: 8976 153e dc39 78bc d4fa 63be ed4d 98bb
000002d0: dac7 b8bc 4fa5 5dbe a417 e73d 19d8 dbbd
000002e0: 3285 4bbd bb1d 9bbf d53b 98bf 5bf6 83be
000002f0: 9c7f 71be 2cbc ac3d 8aab cfbc 44b2 023e
00000300: c14e 8bbe 27df 423e 3bd1 60be 673e 92bf
00000310: f8e0 4dbe b26d 7fbe 32de ffbc 1cc4 45be
00000320: 28c1 84be 0060 8bbd 8a7f 46bc 4a29 82be
00000330: 5b02 e9bc ba73 76bd 6d22 083e 9c04 0c3e
00000340: aa22 3bbd b6fb bebe eee3 7fbd b30c 0b3e
00000350: aaf9 0a3e eafe 223e 0521 4dbe d834 5fbe
00000360: 9bfe 9abd 8447 98be 2e37 f7bd 2e6c 1a3e
00000370: 62d4 593e a87c 773d a0bb b8be 7291 163f
00000380: 425f c7bd 3cd6 0bbe 44a9 74be c192 bdbd
00000390: 1ea0 623d ea10 aa3d 45f5 14be 687a 0ebe
000003a0: 7d7f c7bd b552 b03d f5ab 463d 8a5f 4fbe
000003b0: c04c c9be dff4 ec3d abd9 a8bd 291b 1f3e
000003c0: 08a5 233e e056 463d adbb a4bd 02ef 66bd
000003d0: dd51 1b3e 935c 0bbe 8c65 b73d 1c90 563e
000003e0: 408d 20bd 086b 153f d98b 573e 8122 113a
000003f0: e476 bfbd ab61 f6bd ccbe 183e 8fae 2ebe

l2.weight f4 [128, 512]
-0.058755454 -0.036837935 -0.047699228 -0.030205192 -0.008241758 -0.14111586 0.14567655 0.060150918
-0.018402267 0.011360588 0.022805441 -0.0063700587 0.01452425 -0.12439385 -0.0429223 -0.012566805
-0.065152735 -0.024084806 0.037085906 0.017729288 -0.03857714 0.030626908 -0.016394531 -0.0104985
0.0036920218 0.039901808 0.042711817 0.02577962 -0.02208292 0.025826173 0.009951853 -0.020716192
-0.10857798 -0.012050848 -0.04283596 -0.03625851 0.006813473 -0.088907845 -0.075129166 -0.013694043
0.11503765 -0.009989151 -0.0657664 -0.01690913 -0.034757845 -0.025797408 -0.017998965 -0.018039674
0.0475436 -0.037508853 -0.0061812196 0.0360441 -0.03561893 -0.041287653 0.0010785017 -0.04488709
-0.00071031135 -0.004750461 -0.0062544867 0.08450151 0.03039601 0.028374374 -0.0513628 -0.02900012
-0.043582126 -0.017257713 -0.015348038 -0.03221807 -0.025601957 -0.0072748885 0.036027912 0.009410984
0.003791204 -0.02535746 0.010969837 -0.018953918 -0.08526753 -0.07411302 -0.05644988 0.011555632
-0.011468716 -0.031957854 0.011523001 0.032767013 0.014483499 -0.064369336 0.0047424478 -0.033035465
0.02066083 -0.0043078293 -0.042297866 0.06361911 0.021168102 0.013858595 -0.0048950613 0.012319381
-0.02703283 0.031938076 -0.025201308 -0.03746461 -0.017191747 -0.117677554 0.009307568 0.0072371457
0.033380646 -0.04329847 0.006874043 0.0063410406 -0.037921432 -0.03800247 -0.0031374483 0.006656982
-0.04753415 -0.02799342 0.014502248 0.0025652114 0.025573164 -0.033995047 -0.03510771 -0.038803693
0.04148859 0.009650137 -0.12083564 -0.06549294 0.034883805 -0.011610603 -0.12024994 0.13246116
-0.0057688286 0.013581217 -0.024470795 0.019680439 -0.025289793 0.09316535 0.017556822 -0.040940475
0.0057594036 -0.036015045 -0.022618331 -0.017532483 0.0410796 -0.021560963 -0.039010692 -0.025913367
0.0039037834 -0.0433932 -0.003257651 0.009573054 0.008884109 0.011057231 0.03163571 -0.011802166
0.035973333 0.015063289 0.026363913 0.031026065 0.006787307 -0.010017568 0.0044784076 -0.017481295
0.022455629 0.0018408246 -0.14237574 0.019059943 0.020411504 -0.0719647 0.035413988 0.06478088
0.048940003 0.014495044 0.024681073 0.027229082 -0.00043911746 0.013488805 0.031764995 0.022418583
-0.033289943 -0.020066602 -0.023691434 -8.173157e-06 -0.025292682 -0.031418804 0.043512933 0.019563524
-0.030155633 -0.063437425 -0.03880215 0.01470121 0.11008642 0.03413904 0.0073906453 -0.009987344
-0.052556746 -0.008650967 -0.030157667 -0.18180461 -0.029320361 -0.043282278 0.03953329 -0.009043858
0.0031212294 -0.031410366 -0.08493412 -0.032513496 0.025086215 0.0041713286 -0.024980847 -0.018526258
-0.009699812 -0.048988048 -0.005787126 0.03609655 -0.017531877 0.03275528 -0.03235665 -0.012814059
-0.021927187 -0.006563333 0.01780982 -0.009371462 0.012525548 -0.066730134 0.015709762 0.04428769
0.0040654377 -0.048023872 -0.03235142 -0.041364767 -0.005719069 -0.009112749 -0.014435739 -0.043203346
0.02200966 0.028198391 -0.022950297 -0.008393618 -0.043532275 -0.027425839 -0.010189395 -0.0006188
-0.04228129 -0.0147087695 -0.06503441 -0.022160934 0.0059968377 0.0096342005 0.021968057 0.03315449
-0.04043897 -0.021961492 0.04027527 -0.019060312 0.003855283 -0.039370973 -0.008443136 -0.006013533
00000000: 8fa9 70bd 60e3 16bd 4460 43bd e170 f7bc
00000010: 7008 07bc ad80 10be 3c2c 153e cf60 763d
00000020: 5ac0 96bc c221 3a3c 7ad2 ba3c edbb d0bb
00000030: 1ff7 6d3c 34c2 febd 4bcf 2fbd 00e5 4dbc
00000040: cc6e 85bd 804d c5bc 64e7 173d 033d 913c
00000050: 1003 1ebd 48e5 fa3c d34d 86bc e701 2cbc
00000060: d9f5 713b 1470 233d 96f2 2e3d c82f d33c
00000070: 3de7 b4bc 6991 d33c 190d 233c 01b5 a9bc
00000080: 225e debd ec70 45bc c274 2fbd ce83 14bd
00000090: 8e43 df3b 5115 b6bd 52dd 99bd fb5c 60bc
000000a0: dc98 eb3d 89a9 23bc 89b0 86bd 0485 8abc
000000b0: 3e5e 0ebd 1655 d3bc 9172 93bc f0c7 93bc
000000c0: 14bd 423d e2a2 19bd d48b cabb faa2 133d
000000d0: 28e5 11bd 3e1d 29bd 835c 8d3a 86db 37bd
000000e0: 3034 3aba c1a9 9bbb 70f2 ccbb 210f ad3d
000000f0: 0e01 f93c 6071 e83c cd61 52bd a991 edbc
00000100: 2c83 32bd 0c60 8dbc 5676 7bbc 18f7 03bd
00000110: 32bb d1bc 3062 eebb 0192 133d 8730 1a3c
00000120: d975 783b 73ba cfbc d5ba 333c 3f45 9bbc
00000130: bea0 aebd 91c8 97bd fd37 67bd d553 3d3c
00000140: 48e7 3bbc 3de6 02bd f8ca 3c3c b436 063d
00000150: 334c 6d3c 12d4 83bd 8966 9b3b 3250 07bd
00000160: e740 a93c b128 8dbb 8740 2dbd bc4a 823d
00000170: ba68 ad3c 290f 633c c066 a0bb 3bd7 493c
00000180: f473 ddbc 80d1 023d f972 cebc 7e74 19bd
00000190: b5d5 8cbc ee00 f1bd c57e 183c 9425 ed3b
000001a0: 25ba 083d bd59 31bd a73f e13b 81c8 cf3b
000001b0: 8153 1bbd 7aa8 1bbd a69d 4dbb d022 da3b
000001c0: 2bb3 42bd 7552 e5bc d69a 6d3c 1b1d 283b
000001d0: d07e d13c 643e 0bbd 1acd 0fbd 9ff0 1ebd
000001e0: f1ef 293d 9c1b 1e3c ad78 f7bd 2a21 86bd
000001f0: 52e2 0e3d 663a 3ebc 9a45 f6bd e6a3 073e
00000200: 7108 bdbb c183 5e3c fa76 c8bc df38 a13c
00000210: 8a2c cfbc 7acd be3d 53d3 8f3c 33b1 27bd
00000220: 61b9 bc3b 8384 13bd 144a b9bc 48a0 8fbc
00000230: 1543 283d 9ea0 b0bc adc9 1fbd 4548 d4bc
00000240: 9ed6 7f3b 11bd 31bd 517e 55bb 4cd8 1c3c
00000250: a78e 113c 6329 353c 7294 013d df5d 41bc
00000260: c658 133d 03cc 763c 22f9 d73c 602a fe3c
00000270: 0f68 de3b ba20 24bc 9bbf 923b ef34 8fbc
00000280: def4 b73c d347 f13a f2ca 11be 9923 9c3c
00000290: 0736 a73c 3b62 93bd 420e 113d d7ab 843d
000002a0: 5075 483d 9f7c 6d3c f62f ca3c 860f df3c
000002b0: 5939 e6b9 2600 5d3c 031c 023d 2da7 b73c
000002c0: 095b 08bd b762 a4bc 8a14 c2bc 711f 09b7
000002d0: 9932 cfbc 01b1 00bd 9e3a 323d af43 a03c
000002e0: f208 f7bc 7beb 81bd 01ef 1ebd 58dd 703c
000002f0: fd74 e13d 61d5 0b3d 3a2d f23b f5a1 23bc
00000300: be45 57bd c9bc 0dbc 360d f7bc fd2a 3abe
00000310: 4131 f0bc c248 31bd a9ed 213d b12c 14bc
00000320: 8a8d 4c3b 28a8 00bd f1f1 adbd df2c 05bd
00000330: 9b81 cd3c a4af 883b a2a4 ccbc 61c4 97bc
00000340: f6eb 1ebc b1a7 48bd eea1 bdbb fad9 133d
00000350: 039f 8fbc 672a 063d 6888 04bd 0ff2 51bc
00000360: a5a0 b3bc 3a11 d7bb e6e5 913c c38a 19bc
00000370: f537 4d3c cfa9 88bd c2b1 803c 0267 353d
00000380: 5d37 853b aeb4 44bd ec82 04bd 1a6e 29bd
00000390: 0767 bbbb a44d 15bc e183 6cbc fef5 30bd
000003a0: 9a4d b43c 5000 e73c 4302 bcbc 6385 09bc
000003b0: e64e 32bd 27ac e0bc 6cf1 26bc f736 22ba
000003c0: 252f 2dbd 0dfd 70bc c330 85bd d98a b5bc
000003d0: 1f81 c43b c4d8 1d3c 5bf6 b33c 01cd 073d
000003e0: 55a3 25bd 96e8 b3bc aef7 243d 5f24 9cbc
000003f0: eaa8 7c3b 7543 21bd 1455 0abc 2c0d c5bb

l2.bias f4 [128]
0.11419209 -0.04272378 -0.007408576 -0.028645461 -0.017899591 0.10959992 -0.0107785715 0.15864782
-0.063487224 1.7424095 -0.0041629258 -0.039479665 0.0016599746 -0.05292673 -0.055168632 -0.03302613
-0.005452663 -0.024806352 0.0052001737 -0.011433802 -0.112471215 0.011177751 -0.025845692 0.012001137
-0.010346297 -0.035427447 -0.035388134 0.00259297 0.026001485 -0.0065956567 -0.5351258 -0.027155451
-0.019257143 -0.059570987 0.0064229867 -0.073674105 -0.028407304 -0.018796252 -0.058441684 -0.10978686
-0.046659105 -0.05887618 0.0076419977 -0.036222994 0.013100941 -0.032893825 -1.7437059 -0.025449516
-0.029892826 0.009159043 0.008630228 -0.12793918 0.002048951 -0.03133405 -0.017259698 -0.03565993
0.016792417 -0.03903173 -0.03028563 -0.06365971 0.023033239 -0.0009676403 -0.03497612 0.017390287
-0.008168866 -0.060838357 -0.054779224 -0.034253545 0.0070660384 -0.35187215 -0.07753842 -0.07002127
0.014652613 0.07988747 -0.0052380934 -0.059492342 0.027687611 0.0156123 -0.036614314 -0.03477519
-0.03164405 -0.028359927 -0.024261726 -0.14090241 0.02891746 -0.018030843 -0.006995674 -0.07906549
-0.03767852 -0.008144176 -0.055693056 -0.038037587 0.03687265 0.082083106 -0.054233186 0.010084476
-0.049457353 -0.058082793 0.0014111619 -0.012281338 -0.075131044 -0.030979283 -0.08367059 -0.0066695786
-0.016510362 -0.048609156 0.029995 0.025115583 0.00048717926 -0.021849623 -0.023896703 -0.0016560784
0.00042508717 -0.019526731 0.019979855 -0.060488265 -0.33948153 0.014251477 -0.033243977 -0.04034876
0.011933192 -0.0432144 0.03905276 -0.00802023 -0.0069280714 -0.029551147 -0.01762721 0.02495326
00000000: 8bdd e93d 21ff 2ebd a4c3 f2bb e3a9 eabc
00000010: 2aa2 92bc ec75 e03d 9b98 30bc 9374 223e
00000020: 9705 82bd 4607 df3f 2769 88bb 6eb5 21bd
00000030: 8193 d93a b3c9 58bd 81f8 61bd 6846 07bd
00000040: 41ac b2bb b136 cbbc 3866 aa3b d754 3bbc
00000050: 4f57 e6bd e322 373c 58ba d3bc 6ba0 443c
00000060: 8483 29bc 5f1c 11bd 26f3 10bd d1ee 293b
00000070: 1101 d53c 6120 d8bb 01fe 08bf 1c75 debc
00000080: 28c1 9dbc b500 74bd eb77 d23b 73e2 96bd
00000090: 6fb6 e8bc 99fa 99bc 8c60 6fbd efd7 e0bd
000000a0: 9e1d 3fbd 2628 71bd b969 fa3b 905e 14bd
000000b0: 54a5 563c adbb 06bd c131 dfbf 817b d0bc
000000c0: cde1 f4bc d00f 163c cd65 0d3c 7d02 03be
000000d0: b247 063b 2258 00bd 3664 8dbc 2610 12bd
000000e0: 4090 893c bcdf 1fbd 9219 f8bc 0660 82bd
000000f0: 34b0 bc3c 3ea9 7dba 1f43 0fbd 1376 8e3c
00000100: b5d6 05bc a431 79bd 2e60 60bd 724d 0cbd
00000110: 3a8a e73b 9628 b4be 77cc 9ebd 5067 8fbd
00000120: 8311 703c 0b9c a33d 50a4 abbb 3eae 73bd
00000130: 21d1 e23c bbca 7f3c e4f8 15bd 6e70 0ebd
00000140: 319d 01bd 1453 e8bc 87c0 c6bc b948 10be
00000150: 4fe4 ec3c 6bb5 93bc f83b e5bb 16ed a1bd
00000160: cb54 1abd 266f 05bc 671e 64bd 4dcd 1bbd
00000170: c707 173d 301b a83d 9e23 5ebd 5c39 253c
00000180: cb93 4abd 39e8 6dbd bcf6 b83a aa37 49bc
00000190: 4ede 99bd 44c8 fdbc 7c5b abbd 7b8c dabb
000001a0: bd40 87bc 651a 47bd 13b8 f53c 32bf cd3c
000001b0: 186c ff39 fbfd b2bc 05c3 c3bc c510 d9ba
000001c0: 3cde de39 86f6 9fbc cbac a33c 8bc2 77bd
000001d0: 86d0 adbe 077f 693c d62a 08bd be44 25bd
000001e0: 6f83 433c 9501 31bd c9f5 1f3d 4867 03bc
000001f0: e004 e3bb 3f15 f2bc f066 90bc c76a cc3c

l3.weight f4 [64, 128]
-0.07377289 -0.018022358 0.057689216 0.055725455 0.043476675 -0.055116672 -0.0086666355 -0.09384905
0.060325056 -0.042286813 0.07243278 -0.03478378 0.059066918 0.051787592 0.012051111 -0.001061637
0.035260633 0.0076287924 0.01274448 0.06846439 -0.07168922 -0.078367576 0.01533238 0.010624662
-0.05579386 -0.049073555 -0.014199712 0.018460331 0.047283508 0.03270528 -0.056592982 -0.024423037
0.008931423 0.061581403 -0.11543067 -0.0026870505 -0.011067696 -0.024433814 0.024364308 0.0036104657
-0.03785472 0.06651682 -0.023469968 -0.09190401 -0.085280605 -0.04370187 -0.0450444 0.0556103
-0.073488295 -0.04513476 -0.06846067 -0.011007121 -0.08456245 0.0072450885 -0.09360796 -0.06763178
-0.016158884 -0.008511545 0.054146577 -0.032420713 0.047856957 0.076774664 -0.0040541687 0.06685865
-0.029305799 -0.034639377 -0.03894418 0.0138310045 0.07252864 -0.14066458 0.076468766 -0.043163113
0.05401932 -0.13144422 -0.004925469 -0.022939391 -0.025896888 0.066324316 -0.05051101 -0.018487642
0.07894902 0.07109519 0.02813168 -0.040278025 -0.018432375 -0.10434496 -0.03216027 -0.083554834
-0.03661291 -0.037946027 -0.024532644 0.02048473 0.067366235 -0.074861445 0.03900965 0.015442921
0.026387554 0.06983611 0.043602612 -0.08366834 0.097816065 -0.049783777 0.055111803 0.109144226
-0.01449036 0.013332534 -0.06656243 -0.08363128 -0.078216776 -0.05337743 0.049650785 0.07725541
-0.02377099 -0.073891245 0.06360301 -0.03530606 -0.060078174 0.022847563 -0.0002782594 -0.004749287
-0.004243692 -0.1090185 -0.039663818 -0.005506749 -0.019899212 -0.05650434 0.07843362 0.074268445
0.0026329823 0.062341064 -0.07006945 -0.06881437 0.0010507947 -0.07858473 -0.052379616 0.050262503
-0.06739973 -0.039428324 0.01584849 0.023198087 0.005227636 0.01906351 -0.058394834 -0.06836787
-0.07864805 0.05097934 -0.00948087 -0.061088648 -0.07731029 0.021805909 -0.013848897 -3.8564367e-06
0.05628033 -0.06483781 0.016876731 0.079633616 0.014756878 -0.0743138 -0.050880115 -0.07766052
0.022988513 0.08297646 0.044126842 -0.049320728 -0.003135492 0.066686355 -0.046340384 -0.07556754
-0.014779386 -0.090467304 0.006660477 0.020862631 -0.02312627 -0.010177729 0.0040893373 -0.06432987
-0.016912686 0.007843536 0.062459923 0.020628477 0.014180259 -0.013800776 -0.05437052 -0.042560108
0.012011488 -0.07069947 -0.049096726 -0.022975711 -0.012048058 0.04092916 0.056687396 -0.030153867
-0.011985094 0.08869004 0.054638326 -0.0456471 0.034255046 -0.049484983 -0.03680008 0.03274027
0.017631302 -0.04789512 -0.05502525 -0.03022674 0.027410135 0.025078544 -0.02632507 0.0429326
-0.06437471 0.029385246 -0.07213385 -0.011308836 -0.052674707 0.05497287 -0.084686294 0.034952056
0.04802605 -0.07326449 -0.08043584 0.059809018 0.015795449 -0.036466703 0.06995923 0.048531108
-0.08468677 0.019062275 -0.055205036 0.057791207 0.0879023 -0.059779957 -0.007546966 -0.122994296
-0.050157007 -0.014892083 0.05749533 0.005037033 -0.001195103 -0.033061646 0.04348739 -0.054172724
-0.0066375807 0.03700945 0.072429776 0.0011501047 -0.040062923 -0.00608983 0.03392924 0.08408694
0.007747263 -0.037860584 -0.04290746 -0.04613164 -0.034485783 0.015558516 0.07318601 -0.027116384
00000000: 3e16 97bd a0a3 93bc 874b 6c3d 6040 643d
00000010: 9914 323d 05c2 61bd 81fe 0dbc ee33 c0bd
00000020: 6817 773d f034 2dbd a357 943d 7079 0ebd
00000030: 27f0 713d 3a1f 543d 0672 453c a026 8bba
00000040: 746d 103d f3fa f93b 39ce 503c 0f37 8c3d
00000050: ccd1 92bd 2e7f a0bd aa34 7b3c 1013 2e3c
00000060: 1a88 64bd 5a01 49bd e9a5 68bc 1f3a 973c
00000070: 5aac 413d f9f5 053d 0bce 67bd d212 c8bc
00000080: 1a55 123c c83c 7c3d ea66 ecbd 3a19 30bb
00000090: 4855 35bc 6c29 c8bc a897 c73c 909d 6c3b
000000a0: 8d0d 1bbd f839 883d 1744 c0bc 2b38 bcbd
000000b0: 99a7 aebd bb00 33bd 7a80 38bd a0c7 633d
000000c0: 0881 96bd 3adf 38bd 1c35 8cbd 3657 34bc
000000d0: 142f adbd 3568 ed3b 88b5 bfbd 8882 8abd
000000e0: a35f 84bc 0274 0bbc cdc8 5d3d 95cb 04bd
000000f0: a805 443d 093c 9d3d d5d8 84bb 30ed 883d
00000100: b712 f0bc 05e2 0dbd ef83 1fbd 709b 623c
00000110: e589 943d 600a 10be a89b 9c3d cecb 30bd
00000120: 5d43 5d3d 5099 06be d465 a1bb 64eb bbbc
00000130: b625 d4bc 0bd5 873d a2e4 4ebd 6573 97bc
00000140: 06b0 a13d 5b9a 913d 6974 e63c 92fa 24bd
00000150: 7eff 96bc cfb2 d5bd 7dba 03bd cc1e abbd
00000160: 6bf7 15bd 4b6d 1bbd aff8 c8bc 98cf a73c
00000170: 4ff7 893d f550 99bd 95c8 1f3d 4e04 7d3c
00000180: b62a d83c 3c06 8f3d a798 323d 4f5a abbd
00000190: ca53 c83d 13ea 4bbd eabc 613d 0287 df3d
000001a0: fa68 6dbc b370 5a3c e251 88bd e046 abbd
000001b0: 1e30 a0bd 4ba2 5abd 9f5e 4b3d 1638 9e3d
000001c0: 61bb c2bc 4b54 97bd 4b42 823d 169d 10bd
000001d0: 8814 76bd d02a bb3c 58e3 91b9 e89f 9bbb
000001e0: ab0e 8bbb 1745 dfbd 8776 22bd f571 b4bb
000001f0: ac03 a3bc 1871 67bd cea1 a03d 0e1a 983d
00000200: 1d8e 2c3b 5859 7f3d 9280 8fbd 8cee 8cbd
00000210: d2ba 893a 08f1 a0bd 028c 56bd 0ee0 4d3d
00000220: df08 8abd 987f 21bd b1d4 813c ea09 be3c
00000230: 974c ab3b 142b 9c3c 6c2f 6fbd 7404 8cbd
00000240: 3b12 a1bd b6cf 503d a755 1bbc 1738 7abd
00000250: db54 9ebd 4ea2 b23c 7ce6 62bc 8a66 81b6
00000260: 3486 663d b0c9 84bd 1241 8a3c f316 a33d
00000270: d5c6 713c d531 98bd ab67 50bd 7b0c 9fbd
00000280: 6852 bc3c 90ef a93d 59be 343d 8804 4abd
00000290: d47c 4dbb db92 883d 6acf 3dbd 28c3 9abd
000002a0: 3d25 72bc ec46 b9bd 2140 da3b 1ce8 aa3c
000002b0: 4e73 bdbc 7dc0 26bc d9ff 853b 61bf 83bd
000002c0: 798c 8abc 2d82 003c fad5 7f3d 0dfd a83c
000002d0: 5154 683c a61c 62bc 9fb3 5ebd 8253 2ebd
000002e0: d5cb 443c e2ca 90bd a619 49bd 8f37 bcbc
000002f0: 3865 45bc 56a5 273d 0b31 683d 3e05 f7bc
00000300: 215d 44bc 20a3 b53d 70cc 5f3d 74f8 3abd
00000310: 054f 0c3d c4b0 4abd aebb 16bd a91a 063d
00000320: 856f 903c ac2d 44bd 2862 61bd 119e f7bc
00000330: 388b e03c 8571 cd3c aca7 d7bc 18da 2f3d
00000340: e3d6 83bd 54b9 f03c e9ba 93bd b248 39bc
00000350: 6fc1 57bd 3b2b 613d 0270 adbd e329 0f3d
00000360: f7b6 443d b10b 96bd 8cbb a4bd 4dfa 743d
00000370: 7565 813c 1c5e 15bd c946 8f3d 8ec8 463d
00000380: 4270 adbd 7d28 9c3c ad1e 62bd 79b6 6c3d
00000390: 1f06 b43d d4db 74bd 8a4c f7bb 6fe4 fbbd
000003a0: 6f71 4dbd ecfd 73bc 3980 6b3d b20d a53b
000003b0: 01a5 9cba a66b 07bd d51f 323d 38e4 5dbd
000003c0: 1080 d9bb 3997 173d 1056 943d 1cbf 963a
000003d0: 0519 24bd 328d c7bb 63f9 0a3d c635 ac3d
000003e0: c1dc fd3b b313 1bbd bcbf 2fbd 88f4 3cbd
000003f0: f740 0dbd 25e9 7e3c 8ce2 953d 2e23 debc

l3.bias f4 [64]
-0.059784546 -0.3368463 -0.29901913 -0.35635096 -0.37135231 0.19718961 0.12028802 0.18814105
-0.36091357 -0.082365714 -0.24716637 -0.18947695 0.32080704 -0.55647576 -0.17332919 -0.30294728
-0.086023614 -0.105888076 -0.13101387 0.119968675 -0.2964216 -0.08621597 -0.55412334 -0.17442615
-0.40684193 -0.16215362 -0.077029854 -0.22947127 -0.32549468 -0.9426509 -0.13244662 -0.06324495
-0.03914618 0.627804 -0.35113892 -0.23107982 -0.08753306 -0.21647774 -0.20921451 0.29465315
-0.20751438 0.49869707 -0.2167851 -0.123901986 -0.33087617 1.4702215 0.36316702 -0.008984748
-0.32087344 -0.42564818 -0.4352118 -0.13406466 -0.23979746 0.85973406 -0.14669332 -0.15157929
-0.045529567 0.34016272 -0.15810396 -0.18074934 -0.21601546 -0.25501618 -0.5398272 -0.25934026
00000000: a4e0 74bd 1e77 acbe 0919 99be a273 b6be
00000010: e421 bebe 13ec 493e 9159 f63d 0ca8 403e
00000020: aac9 b8be 5baf a8bd 2e19 7dbe 3f06 42be
00000030: d240 a43e 3275 0ebf 357d 31be e81b 9bbe
00000040: 262d b0bd d9db d8bd 8028 06be 23b2 f53d
00000050: 92c4 97be 0092 b0bd 07db 0dbf c59c 32be
00000060: 964d d0be 990b 26be d4c1 9dbd 84fa 6abe
00000070: 3da7 a6be 9251 71bf 16a0 07be 9186 81bd
00000080: bf57 20bd c3b7 203f 7bc8 b3be 30a0 6cbe
00000090: 8844 b3bd 57ac 5dbe 543c 56be c7dc 963e
000000a0: a67e 54be 3955 ff3e eafc 5dbe 53c0 fdbd
000000b0: 9a68 a9be 3830 bc3f 07f1 b93e c434 13bc
000000c0: 8649 a4be 8fee d9be 15d4 debe 3f48 09be
000000d0: 778d 75be 8817 5c3f c636 16be 9a37 1bbe
000000e0: 367d 3abd cf29 ae3e 01e6 21be 5b16 39be
000000f0: 2833 5dbe 7b91 82be 1e32 0abf 3fc8 84be

out.weight f4 [2, 64]
7.3101604e-05 0.056527425 0.07089424 -0.02716117 -0.09999267 0.058558244 -0.060769867 0.051610872
0.007509043 0.0070870887 -0.112164006 -0.0140464045 0.09028773 -0.051556762 -0.011256614 0.0392267
0.085365936 0.08817489 0.045895703 -0.0059616626 0.0268271 0.094337344 0.029157972 0.098113045
-0.04577957 0.0671729 -0.022217242 0.07722261 -0.0122893965 0.087808475 0.0049247732 -0.033209067
-0.010607158 -0.104374446 0.047910377 0.056318305 0.04586248 -0.043599296 -0.025189243 0.093625635
-0.02767101 0.0750004 0.0408272 -0.032686874 0.008532024 -0.15780722 -0.028890565 -7.464306e-05
-0.061383784 -0.056271777 0.10707833 -0.014252711 0.06596386 0.025087437 0.061041508 0.013412451
0.011111743 0.14051905 -0.045546874 -0.03167119 -0.07992399 -0.022812614 0.1947503 0.07879434
0.061861876 0.081740186 0.042321123 -0.04488709 -0.061933823 0.005853342 -0.067265056 0.034228813
0.013970104 0.017482411 0.041307334 -0.07400775 -0.043258183 -0.031455558 0.012606412 0.017779008
0.062884286 0.042136572 0.05264869 0.031815533 0.03787158 0.042219047 0.02157113 0.07837119
-0.03548226 -0.0634427 0.13956963 0.0020051056 0.007894511 -0.096331894 0.009141545 -0.05027014
-0.033282395 0.11652705 -0.17913398 0.058859047 -0.09503318 -0.019687256 -0.024233904 0.089968756
-0.07054737 -0.099985965 0.008596491 -0.0056911595 0.0229489 0.101174645 0.0721615 -0.09178874
-0.037385628 -0.040552072 -0.10342427 -0.07863534 0.019481357 0.048441824 0.08795309 -0.033577405
0.07659661 -0.02315058 -0.08889912 -0.05912095 -0.03469804 -0.040489517 -0.04794534 0.03502234
00000000: 204e 9938 4d89 673d 0031 913d 1a81 debc
00000010: f5c8 ccbd c5da 6f3d d3e9 78bd ec65 533d
00000020: 6b0e f63b cf3a e83b 3eb6 e5bd e422 66bc
00000030: c6e8 b83d 2f2d 53bd a96d 38bc 2dac 203d
00000040: 56d4 ae3d 0995 b43d 22fd 3b3d 0d5a c3bb
00000050: 82c4 db3c f033 c13d b3dc ee3c 7eef c83d
00000060: 5c83 3bbd f291 893d ef00 b6bc e326 9e3d
00000070: 7759 49bc eed4 b33d fe5f a13b 3b06 08bd
00000080: a5c9 2dbc 45c2 d5bd ac3d 443d 06ae 663d
00000090: 4cda 3b3d 2d95 32bd ac59 cebc ccbe bf3d
000000a0: 50ae e2bc cf99 993d 6c3a 273d ace2 05bd
000000b0: e7c9 0b3c 3798 21be e8ab ecbc b089 9cb8
000000c0: 906d 7bbd 3c7d 66bd e24b db3d 3484 69bc
000000d0: 0f18 873d 2b84 cd3c a906 7a3d e6bf 5b3c
000000e0: 070e 363c 3ae4 0f3e 5c8f 3abd a6b9 01bd
000000f0: 30af a3bd 85e1 babc 9f6c 473e ed5e a13d
00000100: e162 7d3d 6667 a73d ea58 2d3d 86db 37bd
00000110: 52ae 7dbd 64cd bf3b 43c2 89bd 8333 0c3d
00000120: dde2 643c 4637 8f3c e131 293d 6091 97bd
00000130: 7e2f 31bd 8bd7 00bd 208b 4e3c 48a5 913c
00000140: 7ac9 803d 6697 2c3d 27a6 573d 0151 023d
00000150: 3b1f 1b3d e1ed 2c3d f0b5 b03c 1381 a03d
00000160: d955 11bd 3fee 81bd 57eb 0e3e 1768 033b
00000170: fb57 013c a849 c5bd 6bc6 153c 10e8 4dbd
00000180: 1f53 08bd bca5 ee3d e66e 37be 2f16 713d
00000190: c2a0 c2bd 2b47 a1bc 2e86 c6bc 8a41 b83d
000001a0: 247b 90bd 71c5 ccbd 4cd8 0c3c e87c babb
000001b0: 55ff bb3c a734 cf3d 69c9 933d bcfb bbbd
000001c0: ac21 19bd ee19 26bd 1bd0 d3bd 910b a1bd
000001d0: 5e97 9f3c ef6a 463d c020 b43d 7688 09bd
000001e0: afde 9c3d 49a6 bdbc be10 b6bd cf28 72bd
000001f0: 881f 0ebd 56d8 25bd 5562 44bd 9673 0f3d

out.bias f4 [2]
-0.7697954 0.5844202
00000000: 5011 45bf 909c 153f
