server/models/wasting_model_v1.pth (torch, 459436 bytes, 8 tensors)

l1.weight f4 [512, 77]
0.042776637 0.059549082 0.02943332 0.018764943 -0.13515455 -0.12497269 -0.06998213 -0.011423475
0.0048914626 -0.021152282 0.068177596 -0.010356815 0.22818743 0.014632212 -0.0203281 -0.100867204
-0.0743188 -0.052663226 -0.10414278 -0.0802484 -0.013293772 -0.08577314 -0.053978577 0.103473164
0.001373633 -0.026100123 0.037072763 0.07913309 0.10895514 -0.052863725 0.1068824 -0.1234081
-0.009742685 -0.07974136 0.03075759 -0.15633826 -0.0061332094 -0.023664018 -0.065148994 0.038217302
0.028306952 -0.05919042 0.0116510345 -0.007581837 0.03457267 -0.022254996 0.08578542 0.080958135
-0.16412522 0.08717573 -0.07599232 0.04002745 0.03880992 0.09458306 -0.0060697375 0.07913785
0.09839296 0.06549112 0.04232458 -0.072695166 0.06698103 -0.14291705 0.013740343 0.09437585
-0.1117584 -0.1584519 0.09853433 -0.14052816 0.052779872 0.06916562 -0.071969256 -0.032712355
0.052961554 -0.07160735 -0.11439025 -0.032344025 0.17970419 -0.038441475 -0.08376471 0.026290836
0.021634756 -0.01767234 -0.008724974 0.023136832 0.037500326 0.016303452 -0.11971837 0.2882946
-0.10177654 0.408945 -0.076059565 0.018189147 -0.18793298 -0.1484081 -0.074802935 -0.093638144
-0.1509985 0.070956655 -0.28383097 -0.009169667 0.049874872 0.096559435 -0.1629659 -0.05546668
-0.21448325 -0.0662975 0.008536144 0.10248711 0.07654923 -0.11644911 -0.08483978 0.09471594
-0.085965745 -0.30165738 0.07012914 0.03273003 -0.0046369676 -0.07026083 0.10468447 -0.041151673
-0.126798 0.054469086 -0.17710651 0.0066293217 0.082995735 -0.1508684 -0.03652237 -0.10158526
-0.008852586 0.07188679 -0.027204717 -0.06681381 0.0062202374 -0.0122039765 -0.015947673 -0.12603247
-0.05619058 -0.17706433 -0.13940737 0.14549842 -0.061704148 0.0042243684 -0.12738942 0.041130688
-0.15741307 0.14137663 -0.09813912 -0.010338993 0.116849616 0.044272013 -0.16837186 -0.0042370916
-0.11089036 0.37640402 -0.10325823 0.051028088 -0.055510037 0.011614601 -0.11207645 -0.015036911
0.040457923 -0.031916566 -0.23322767 -0.13703546 0.16279806 -0.05460099 0.24654976 0.0045635924
-0.19805652 -0.09211278 0.023752535 0.019529356 -0.10129261 -0.24914737 0.077448525 -0.26815602
-0.18565051 -0.040066466 0.023333859 -0.2051262 -0.21443066 -0.014299335 0.06396781 0.19935268
0.19194804 0.04594346 -0.041304357 -0.04514614 0.04312636 -0.03672973 -0.34158224 -0.04460723
-0.058694154 -0.024799537 -0.17793529 0.038600396 -0.15644039 -0.0634241 -0.039846577 -0.050233208
-0.136901 0.017167281 -0.048686236 -0.09528723 -0.10730851 -0.21566413 -0.016564097 -0.013831309
-0.014075077 -0.031731702 -0.06769297 -0.034426954 -0.16881403 -0.08093734 -0.039185844 -0.10629755
0.162314 0.10360745 -0.24476829 -0.11741156 0.09211196 -0.17276084 0.11626254 -0.13187023
-0.01925536 0.14888561 -0.06223495 -0.019302633 -0.013725614 -0.052621342 0.44589707 -0.14545664
0.119125724 0.09916307 -0.16859844 -0.17794283 -0.095138215 -0.002223483 -0.0013021951 -0.19107103
-0.18455577 -0.08698561 -0.23222807 -0.08799086 0.019395499 -0.22384912 -0.0503627 -0.027756242
-0.06270325 0.0744776 0.0044148555 -0.10905771 0.068994716 -0.13776442 0.004200572 -0.09835159
00000000: 8e36 2f3d bde9 733d 251e f13c f0b8 993c
00000010: f465 0abe aff1 ffbd ca52 8fbd 8729 3bbc
00000020: 9048 a03b 8d47 adbc b2a0 8b3d a1af 29bc
00000030: f7a9 693e f2bb 6f3c 1e87 a6bc 7793 cebd
00000040: 7434 98bd 65b5 57bd cf48 d5bd 4659 a4bd
00000050: 1fce 59bc d4a9 afbd a418 5dbd bde9 d33d
00000060: 7a0b b43a edcf d5bc 9cd9 173d 8810 a23d
00000070: df23 df3d a287 58bd 29e5 da3d 63bd fcbd
00000080: c89f 1fbc 704f a3bd 57f7 fb3c 2317 20be
00000090: 17f9 c8bb 0bdb c1bc d66c 85bd bf89 1c3d
000000a0: fbe3 e73c a771 72bd fbe3 3e3c 0f71 f8bb
000000b0: 129c 0d3d 1c50 b6bc 44b0 af3d 61cd a53d
000000c0: 7110 28be 3089 b23d dda1 9bbd d3f3 233d
000000d0: 27f7 1e3d c3b4 c13d a6e4 c6bb 0613 a23d
000000e0: 4082 c93d 3520 863d 8a5c 2d3d 34e1 94bd
000000f0: 5a2d 893d d958 12be 2d1f 613c 2048 c13d
00000100: 97e1 e4bd 3741 22be 5ecc c93d 9de6 0fbe
00000110: b52f 583d b4a6 8d3d 9e64 93bd 64fd 05bd
00000120: 37ee 583d e0a6 92bd 6f45 eabd 2b7b 04bd
00000130: 6004 383e cf74 1dbd d58c abbd e15f d73c
00000140: 5f3b b13c 95c5 90bc 31f3 0ebc 7489 bd3c
00000150: f199 193d d18e 853c e82e f5bd 5a9b 933e
00000160: 3870 d0bd 3d61 d13e 1ec5 9bbd 6801 953c
00000170: 8171 40be 4bf8 17be 4832 99bd 5bc5 bfbd
00000180: 5a9f 1abe b951 913d 4b52 91be 5f3c 16bc
00000190: 9849 4c3d f4c0 c53d 88e0 26be 0831 63bd
000001a0: 7fa1 5bbe fcc6 87bd 2fdb 0b3c c3e4 d13d
000001b0: d8c5 9c3d df7c eebd 7bc0 adbd 6efa c13d
000001c0: cf0e b0bd d672 9abe de9f 8f3d ed0f 063d
000001d0: b4f1 97bb e9e4 8fbd d064 d63d a88e 28bd
000001e0: 56d7 01be fa1a 5f3d 695b 35be c83a d93b
000001f0: abf9 a93d 3f7d 1abe 7b98 15bd ef0b d0bd
00000200: 700a 11bc 6239 933d 6ddc debc aed5 88bd
00000210: 22d3 cb3b 30f3 47bc b2a4 82bc a80e 01be
00000220: 1828 66bd 5a50 35be cec0 0ebe 8afd 143e
00000230: 7dbd 7cbd 926c 8a3b 5f72 02be a778 283d
00000240: e430 21be 09c5 103e 2afd c8bd e164 29bc
00000250: da4e ef3d 9256 353d ac69 2cbe 4dd7 8abb
00000260: 7c1a e3bd 07b8 c03e 0d79 d3bd d402 513d
00000270: 7e5e 63bd 2b4b 3e3c 5688 e5bd 605d 76bc
00000280: 35b7 253d f2ba 02bd 3cd3 6ebe 0653 0cbe
00000290: 89b4 263e 4aa5 5fbd 8a77 7c3e 308a 953b
000002a0: 54cf 4abe a0a5 bcbd ad94 c23c 07fc 9f3c
000002b0: 8072 cfbd 7d20 7fbe 559d 9e3d bf4b 89be
000002c0: 2b1b 3ebe bc1c 24bd a626 bf3c 9a0c 52be
000002d0: b693 5bbe c247 6abc 8e01 833d 1c23 4c3e
000002e0: 078e 443e 362f 3c3d c22e 29bd 29eb 38bd
000002f0: 44a5 303d ea71 16bd dee3 aebe 12b6 36bd
00000300: 4869 70bd 6628 cbbc ab34 36be 731b 1e3d
00000310: e931 20be 7fe4 81bd 2a36 23bd 56c1 4dbd
00000320: c72f 0cbe 66a2 8c3c 386b 47bd f425 c3bd
00000330: 90c4 dbbd 0fd7 5cbe 6eb1 87bc b79c 62bc
00000340: 279b 66bc 1af9 01bd 9da2 8abd 4703 0dbd
00000350: 96dd 2cbe 7ac2 a5bd 5681 20bd 88b2 d9bd
00000360: a435 263e 2530 d43d 8aa4 7abe 7975 f0bd
00000370: 32a5 bc3d 38e8 30be 0e1b ee3d fd08 07be
00000380: 6bbd 9dbc 7875 183e 13ea 7ebd 8e20 9ebc
00000390: 66e1 60bc 7a89 57bd 9f4c e43e 96f2 14be
000003a0: 30f8 f33d 0216 cb3d 12a5 2cbe a536 36be
000003b0: d3d7 c2bd dbb7 11bb 6bae aaba 20a8 43be
000003c0: 30fc 3cbe 8325 b2bd 32cd 6dbe 8d34 b4bd
000003d0: 4fe3 9e3c b438 65be 1e49 4ebd 0f61 e3bc
000003e0: 906a 80bd b687 983d 7eaa 903b a659 dfbd
000003f0: 1a4d 8d3d 1e12 0dbe f4a4 893b 8f6c c9bd

l1.bias f4 [512]
0.03492416 -0.117150076 -0.08371979 0.003084208 0.0565459 -0.040977277 -0.023949156 0.044463456
0.27568126 -0.14768781 -0.11870688 0.06915664 0.03425116 -0.0103330165 0.10556776 -0.041661084
0.58636945 -0.1748145 -0.06613469 0.05082303 -0.006737284 -0.044292033 -0.2797349 0.09078382
-0.027972214 0.07735844 -0.13868457 -0.28976244 0.07962233 0.18207553 -0.094806604 -0.088621855
0.054575354 -0.21820165 -0.04192527 -0.010989117 0.18355066 0.12658642 -0.3349506 -0.09605222
-0.0044389237 -0.014774501 -0.19147807 0.01762739 0.10327449 -0.119579464 0.41915202 -0.17467865
-0.07998453 -0.10923975 -0.050657384 -0.0086015435 -0.26653093 0.055774294 -0.0016491157 -0.044182573
-0.13094528 0.05257473 -0.28355706 -0.19629018 0.56311184 0.04746216 -0.059781674 0.001978649
-0.11695264 -0.21549216 -0.3410837 0.21792358 -0.18389262 0.057416677 -0.004711306 0.42361963
0.30602023 0.42881334 0.022183303 -0.09657295 0.07822167 -0.16450043 -0.15154132 -0.08399704
-0.18642463 -0.043486048 -0.25109082 0.8118286 0.079866424 -0.15237361 0.03240476 -0.671723
-0.149775 0.04157313 0.00373964 -0.11525576 -0.062257268 -0.26616603 -0.19036828 -0.083839096
0.08486293 0.21333052 -0.76916814 -0.077245936 -0.11639222 -0.083537 0.19097918 -0.035389137
-0.061002467 -0.038757198 -0.20403384 -0.22813338 -0.050284903 0.013027142 -0.28303716 -0.01495232
-0.1525246 -0.12125221 0.08532752 0.043873843 0.01532306 -0.13371208 -0.10060021 0.8089545
-0.066940226 0.12600474 -0.22550516 -0.40638262 0.09090555 0.016529026 0.054510377 0.012926802
-0.07715836 -0.24817142 0.025539069 -0.8127956 -0.11748402 0.021917176 -0.14382552 -0.043364905
-0.063484415 0.04172566 0.0649225 -0.15470429 -0.085090965 0.072736226 -0.026545238 -0.1077678
0.051907726 0.08368351 -0.0370189 -0.060116954 0.072556086 -0.12919615 -0.15467823 -0.09013819
0.020678427 0.10903705 -0.24923462 -0.088873304 -0.086693265 0.21836175 0.0020519025 0.0422036
0.14823775 0.00028055228 0.1818029 0.07100561 -0.03217469 -0.0032307764 0.073951796 0.022639355
0.08302768 -0.08379455 -0.0719601 -0.0005313564 -0.054595076 -0.04811081 0.15655887 0.11063151
-0.10696737 -0.06989661 -0.111765 -0.073460415 0.18564168 -0.009052729 0.048808824 -0.013243656
-0.091018476 -0.06991098 -0.23461054 0.032594927 -0.12784229 -0.1800712 -0.14137167 0.5737438
0.13710038 -0.06830409 -0.0015150856 0.016890312 -0.14198297 -0.22452998 -0.06838888 -0.07764735
0.0882463 -0.15793203 0.017187154 -0.10428583 -0.068788305 0.10824597 -0.0640663 0.01897799
0.043812875 0.036834326 0.11394908 0.20192763 -0.51369387 -0.09260591 0.03473376 -0.06305303
-0.13366467 0.12091287 -0.09256513 -0.20082727 -0.06463653 0.07174917 0.23193847 -0.20570664
-0.16785125 -0.14089231 -0.025162714 -0.072298266 0.25176015 0.18410431 -0.009998691 -0.10949711
-0.0023558706 -0.023241451 -0.12509833 -0.20749786 -0.096936755 -0.26050675 0.08548471 -0.10043726
0.04473536 0.06992667 0.05778869 0.09702885 0.12672873 -0.13737294 -0.051948145 -0.14313202
-0.045685343 -0.051424615 -0.034970388 -0.01180467 -0.021424878 0.18598177 -0.057171833 -0.036981326
00000000: a30c 0f3d 61ec efbd 4875 abbd 6c20 4a3b
00000010: ac9c 673d cad7 27bd 0531 c4bc 501f 363d
00000020: 1826 8d3e 793b 17be 981c f3bd ffa1 8d3d
00000030: f24a 0c3d d04b 29bc e933 d83d d0a4 2abd
00000040: 4f1c 163f 9302 33be a071 87bd cf2b 503d
00000050: 6fc4 dcbb 906b 35bd 6a39 8fbe deec b93d
00000060: fc25 e5bc 1a6e 9e3d 5403 0ebe be5b 94be
00000070: 0811 a33d 0272 3a3e f729 c2bd 607f b5bd
00000080: 688a 5f3d 4170 5fbe d5b9 2bbd b30b 34bc
00000090: b4f4 3b3e df9f 013e a57e abbe 07b7 c4bd
000000a0: 6474 91bb c010 72bc d412 44be 5167 903c
000000b0: 9381 d33d 14e6 f4bd 189b d63e f6de 32be
000000c0: eece a3bd 17b9 dfbd 1e7e 4fbd 7ded 0cbc
000000d0: be76 88be 9673 643d 2427 d8ba c9f8 34bd
000000e0: 8516 06be 9a58 573d 642e 91be 4b00 49be
000000f0: 1928 103f af67 423d a1dd 74bd 39ac 013b
00000100: de84 efbd faa9 5cbe 86a2 aebe 5c27 5f3e
00000110: 594e 3cbe c02d 6b3d 4d61 9abb ace4 d83e
00000120: afae 9c3e 6c8d db3e c2b9 b53c 0ac8 c5bd
00000130: af32 a03d cd72 28be a62d 1bbe a406 acbd
00000140: 19e6 3ebe 6d1e 32bd fa8e 80be 00d4 4f3f
00000150: 0291 a33d d407 1cbe dbba 043d 0af6 2bbf
00000160: 9e5e 19be 9648 2a3d bf14 753b 360b ecbd
00000170: 7a01 7fbd ea46 88be e7ef 42be d5b3 abbd
00000180: 9ecc ad3d 5173 5a3e 34e8 44bf 1e33 9ebd
00000190: 0b5f eebd 7215 abbd 0c90 433e 33f4 10bd
000001a0: b9dd 79bd debf 1ebd 3fee 50be cc9b 69be
000001b0: 8bf7 4dbd cb6f 553c 3fea 90be 93fa 74bc
000001c0: 692f 1cbe 1453 f8bd 32c0 ae3d 0fb5 333d
000001d0: 920d 7b3c d2eb 08be 7c07 cebd a417 4f3f
000001e0: f517 89bd 6307 013e d3ea 66be 6211 d0be
000001f0: b02c ba3d e167 873c 4646 5f3d f0ca 533c
00000200: 3405 9ebd a620 7ebe 4f37 d13c 5f13 50bf
00000210: 769b f0bd a68b b33c ff46 13be 669f 31bd
00000220: 1e04 82bd 87e8 2a3d 16f6 843d cd6a 1ebe
00000230: 2c44 aebd bbf6 943d 6675 d9bc 5db5 dcbd
00000240: 329d 543d 4362 ab3d 21a1 17bd 323d 76bd
00000250: 4998 943d ff4b 04be f863 1ebe 5f9a b8bd
00000260: ce65 a93c d14e df3d 5c37 7fbe 3503 b6bd
00000270: 3d8c b1bd 399a 5f3e 3679 063b afdd 2c3d
00000280: a3cb 173e 1717 9339 8a2a 3a3e 646b 913d
00000290: 9cc9 03bd 6fbb 53bb 0a74 973d 2b76 b93c
000002a0: 6b0a aa3d 7a9c abbd d15f 93bd b94a 0bba
000002b0: 169f 5fbd d70f 45bd f850 203e c692 e23d
000002c0: b511 dbbd f425 8fbd 0ce5 e4bd 6a72 96bd
000002d0: da18 3e3e e651 14bc c3eb 473d ebfb 58bc
000002e0: e567 babd 7d2d 8fbd bf3d 70be 4282 053d
000002f0: 17e9 02be 9664 38be bcc3 10be e0e0 123f
00000300: 0b64 0c3e 04e3 8bbd d695 c6ba 8d5d 8a3c
00000310: fc63 11be 30eb 65be 780f 8cbd 9305 9fbd
00000320: 7aba b43d efb8 21be 13cc 8c3c cf93 d5bd
00000330: e2e0 8cbd 10b0 dd3d 3135 83bd bb77 9b3c
00000340: 2175 333d 97df 163d 235e e93d 1ec6 4e3e
00000350: 7181 03bf 2ba8 bdbd fd44 0e3d f221 81bd
00000360: 64df 08be 2ba1 f73d c992 bdbd aaa5 4dbe
00000370: 2860 84bd 3bf1 923d 4781 6d3e c3a4 52be
00000380: 33e1 2bbe 1346 10be 0922 cebc 1d11 94bd
00000390: b5e6 803e d785 3c3e 8dd1 23bc 0540 e0bd
000003a0: f364 1abb db64 bebc c719 00be 527a 54be
000003b0: c786 c6bd 2461 85be 9c12 af3d 0db2 cdbd
000003c0: 6d3c 373d b735 8f3d d5b3 6c3d 10b7 c63d
000003d0: 2dc5 013e 7eab 0cbe 94c7 54bd 3391 12be
000003e0: 8e20 3bbd 9ea2 52bd 1c3d 0fbd 6068 41bc
000003f0: 3a83 afbc 0172 3e3e 032d 6abd bb79 17bd

l2.weight f4 [128, 512]
-0.015208276 0.019241383 -0.007698938 0.009493296 -0.006709085 0.06688687 0.07096972 -0.044420883
0.0047478178 0.0059231627 -0.014116885 0.079392575 -0.029588463 -0.038490795 0.01919132 0.010885517
0.39731726 -0.0410615 0.024616582 0.023986176 -0.04009883 0.03324363 -0.035412047 -0.039664887
-0.022142556 -0.049144574 -0.015282417 -0.0008492808 -0.028519081 0.050808504 0.022560144 -0.046751257
0.032820184 0.030127466 0.023032926 0.020858724 0.0579814 0.06258407 -0.051558107 -0.00522179
-0.013448859 -0.041064676 -0.07699165 0.020050094 -0.001202524 0.006726419 0.08522761 -0.029865501
0.02843171 -0.015710525 0.03269344 -0.04350413 -0.093186006 0.08297709 0.004471849 -0.05889135
0.021978654 0.009278323 -0.04168207 -0.0085945595 0.15394783 -0.008290274 -0.03673731 0.00020249351
-0.035717882 -0.031831674 -0.011646065 0.17317283 -0.011585019 -0.027035907 -0.015394004 0.17075446
0.13777308 0.1338124 -0.016654633 0.028294997 0.071669355 -0.022847684 0.013647589 0.014366539
0.011345409 0.008153464 0.0035598117 0.34019965 0.072523884 0.019263174 0.0032643734 -0.45104453
-0.04519715 -0.0041075805 0.049134966 -0.020180875 0.021948446 -0.030267052 -0.03224761 0.039739877
0.004091312 0.024465788 -0.26623422 0.04093142 0.0154052125 0.03442521 -0.07202778 0.13127053
-0.0200875 0.006204697 0.019133747 -0.02532184 0.036967587 0.097405426 -0.014935795 0.032257102
-0.028538838 -0.017088208 -0.04151822 0.0020430738 -0.009972662 0.02372905 0.008535055 0.38563424
-0.0177583 0.047284644 -0.031853747 -0.03687531 -0.015450987 0.01873296 -0.034225456 0.004232276
0.06189583 -0.01187922 -0.04281634 0.026368435 -0.005108655 0.061773013 -0.044447616 -0.03419168
0.21524127 0.007457437 0.030770341 -0.041927442 0.028109454 0.02056602 0.062817395 0.034938317
-0.039060786 0.04272688 -0.06868899 0.03383305 -0.01805409 -0.029440051 0.013610902 -0.034920175
0.009420508 0.06533738 0.055175733 0.02954425 -0.03153659 -0.0044796015 -0.038169812 -0.01682157
0.038332768 0.017683608 0.06980963 0.12552246 -0.03244193 -0.048311558 -0.010228719 0.016011627
0.14757605 0.0046155727 0.056993846 0.0034437398 0.02007154 0.0894639 0.07298051 0.030457936
0.033807248 0.01269589 -0.010806047 -0.027149709 0.2209808 -0.021424485 0.035874657 0.034978066
0.01913517 -0.0073425183 -0.013474645 -0.027590422 -0.03486737 0.013319003 -0.031475384 0.42610285
0.03573089 -0.008606722 -0.0018760654 0.04518829 -0.014234334 -0.0031244673 -0.033781547 -0.005989436
0.013725505 -0.014988284 0.014503376 -0.023269417 -0.0082276305 0.0155270565 0.02658796 0.014780253
-0.035238385 0.016121175 -0.0020750738 0.01602986 -0.20087129 -0.04738768 -0.013633783 0.04339253
-0.03881542 0.0009433282 0.005783502 0.025731562 0.029060917 0.020474495 0.09134609 0.028780995
-0.008429598 -0.0637481 -0.0302347 0.03062409 -0.04704172 0.038674727 -0.03931062 -0.0027357277
0.0032624926 0.0040267203 -0.009272458 0.007882877 -0.0021655313 0.03513407 0.0333448 -0.03610591
0.018397989 -0.04412398 0.012637348 -0.029135106 0.022784675 -0.012051546 -0.025498068 0.011492978
-0.055439495 -0.029508634 0.028836284 -0.002536631 0.021561852 0.10551042 0.0050256457 -0.013240708
00000000: 222c 79bc 1ba0 9d3c 5f47 fcbb c589 1b3c
00000010: e2d7 dbbb fcfb 883d 9358 913d acf2 35bd
00000020: 9593 9b3b 1717 c23b 824a 67bc 9398 a23d
00000030: 8163 f2bc 86a8 1dbd 1d37 9d3c 2b59 323c
00000040: 2b6d cb3e 1a30 28bd b7a8 c93c a87e c43c
00000050: ac3e 24bd 792a 083d 390c 11bd a677 22bd
00000060: 4e64 b5bc d24b 49bd 1a63 7abc 45a2 5eba
00000070: d9a0 e9bc 941c 503d 0dd0 b83c 3f7e 3fbd
00000080: 756e 063d e0cd f63c 8caf bc3c eadf aa3c
00000090: e87d 6d3d 142c 803d 982e 53bd 8d1b abbb
000000a0: 9a58 5cbc 6f33 28bd ccad 9dbd 1840 a43c
000000b0: 039e 9dba 4b69 dc3b d08b ae3d 7fa8 f4bc
000000c0: 9ee9 e83c 5cb3 80bc 8ee9 053d 6331 32bd
000000d0: 4ed8 bebd e4ef a93d 9788 923b 0e38 71bd
000000e0: 940c b43c 1b04 183c d1ba 2abd 32d0 0cbc
000000f0: 80a4 1d3e eed3 07bc dd79 16bd 7054 5439
00000100: ea4c 12bd ee61 02bd 23cf 3ebc 3854 313e
00000110: 17cf 3dbc 687a ddbc 2237 7cbc 42da 2e3e
00000120: 6314 0d3e 1e06 093e 4c6f 88bc e9ca e73c
00000130: 62c7 923d 112b bbbc 239a 5f3c a261 6b3c
00000140: 18e2 393c 1b96 053c bb4b 693b a62e ae3e
00000150: 6787 943d cecd 9d3c 19ef 553b 4fef e6be
00000160: a620 39bd e298 86bb bf41 493d 5d52 a5bc
00000170: 3acd b33c 9cf2 f7bc 1216 04bd 48c6 223d
00000180: 6a10 863b 7a6c c83c da4f 88be b4a7 273d
00000190: 2566 7c3c 7301 0d3d 4d83 93bd c86b 063e
000001a0: 8a8e a4bc c550 cb3b 60be 9c3c bf6f cfbc
000001b0: 536b 173d 7f7c c73d 44b5 74bc 0620 043d
000001c0: 48ca e9bc 92fc 8bbc 020f 2abd 17e5 053b
000001d0: 6064 23bc 6d63 c23c 9ed6 0b3c da71 c53e
000001e0: db79 91bc 8bad 413d 1379 02bd 910a 17bd
000001f0: 2326 7dbc dd75 993c fe2f 0cbd e8ae 8a3b
00000200: 7b86 7d3d 0fa1 42bc 3060 2fbd 9e02 d83c
00000210: 8166 a7bb b305 7d3d b40e 36bd 930c 0cbd
00000220: 3568 5c3e 845d f43b 1512 fc3c 1cbc 2bbd
00000230: cc45 e63c 127a a83c 68a6 803d 7b1b 0f3d
00000240: 34fe 1fbd 6202 2f3d d0ac 8cbd 8694 0a3d
00000250: 2ce6 93bc 432c f1bc 4300 5f3c 7508 0fbd
00000260: 7958 1a3c 9bcf 853d f3ff 613d c806 f23c
00000270: 832c 01bd 9fc9 92bb f357 1cbd 64cd 89bc
00000280: d202 1d3d 37dd 903c 5af8 8e3d f688 003e
00000290: d4e1 04bd 57e2 45bd 5b96 27bc d12a 833c
000002a0: 2d1e 173e 3b3e 973b 6172 693d 5eb0 613b
000002b0: 126d a43c d938 b73d ce76 953d ec82 f93c
000002c0: 7879 0a3d 6c02 503c d90b 31bc 1169 debc
000002d0: ca48 623e 6782 afbc 4ef1 123d 2945 0f3d
000002e0: 5cc1 9c3c 8299 f0bb c2c4 5cbc 4f05 e2bc
000002f0: 16d1 0ebd f337 5a3c 55ec 00bd 272a da3e
00000300: 8e5a 123d 3503 0dbc 4fe6 f5ba 5b17 393d
00000310: 2037 69bc ddc3 4cbb 855e 0abd 0843 c4bb
00000320: f1e0 603c 6b91 75bc 919f 6d3c 819f bebc
00000330: 2fcd 06bc 3265 7e3c fece d93c e028 723c
00000340: 2056 10bd 8e10 843c f6fd 07bb 0e51 833c
00000350: 34b1 4dbe 9519 42bd 3b60 5fbc 5ebc 313d
00000360: ebfc 1ebd af49 773a 8883 bd3b ffca d23c
00000370: 2911 ee3c 21ba a73c a913 bb3d 1fc6 eb3c
00000380: 4c1c 0abc 5d8e 82bd c3ae f7bc 5fdf fa3c
00000390: d2ae 40bd 6469 1e3d 2c04 21bd e549 33bb
000003a0: 8bcf 553b 94f2 833b 82eb 17bc 2f27 013c
000003b0: 96eb 0dbb bee8 0f3d 8f94 083d cae3 13bd
000003c0: 61b7 963c 59bb 34bd e10c 4f3c bfac eebc
000003d0: eda6 ba3c d973 45bc 53e1 d0bc 0b4d 3c3c
000003e0: 8614 63bd 17bc f1bc 123a ec3c 9b3d 26bb
000003f0: 7ba2 b03c d915 d83d 2cae a43b 8eef 58bc

l2.bias f4 [128]
0.38097894 -0.04803646 -0.07235151 0.11790863 -0.050294444 -0.0046309833 -0.21589528 -0.17988746
-0.36665615 -0.29248178 -0.058028724 -0.16347712 0.6057421 -0.097766735 0.11031263 -0.041642718
-0.28673202 -0.11632594 -0.11666486 -0.015648905 -0.18647441 -0.16204043 -0.11534749 -0.08885815
0.6124399 0.8245931 -0.23585796 -0.54087704 -0.100784555 -0.12589769 -0.11491497 0.16986383
0.2497271 0.018875303 -0.24051808 -0.45945206 0.08565142 0.111268386 -0.11051351 -0.12218487
-0.13281621 -0.02930917 -0.17800932 -0.10758487 -0.13745606 0.8761096 -0.06595922 0.64881396
-0.21169892 0.16813906 -0.11324603 0.06822538 0.4112319 -0.2215128 -0.24660553 -0.024150757
-0.13400926 -0.115532026 -0.33202618 -0.037429895 -0.15599558 0.082920246 -0.67055106 -0.11328007
0.15058328 -0.17708743 -0.23648573 -0.10879202 -0.032940086 -0.29788482 0.55349237 -0.058400486
0.22049245 -0.07792663 -0.15908933 -0.05199266 -0.067733355 -0.06365653 -0.16730364 -0.046822265
-0.2793576 -0.053918585 0.24987854 -0.08047991 -0.069117285 -0.07276745 -0.023178365 -0.14123711
0.027297977 -0.27748886 -0.07565788 -0.21508823 -0.47389224 -0.12832265 -0.21217445 -0.102771804
-0.33442086 0.80822474 -0.60882974 -0.049099967 -0.29867175 -0.093414664 -0.07158306 -0.10955969
-1.1773622 0.2971345 -0.020512061 -0.08223577 -0.1397811 0.19928433 -0.1869575 -0.27830258
0.26024258 -0.20438853 -0.26072848 -0.06550031 -0.46043637 0.09528286 -0.15762949 -0.056941293
-0.09005606 -0.022235766 -0.19500871 -0.059682395 0.60565287 -0.07653386 -0.6342928 -0.15127702
00000000: ac0f c33e e1c1 44bd 072d 94bd 147a f13d
00000010: 8c01 4ebd 81bf 97bb a713 5dbe 6b34 38be
00000020: 5bba bbbe 2cc0 95be 87af 6dbd 8c66 27be
00000030: ea11 1b3f ed39 c8bd 97eb e13d 8e91 2abd
00000040: 8ace 92be 4b3c eebd fced eebd 2232 80bc
00000050: 26f3 3ebe eded 25be 4e3b ecbd 43fb b5bd
00000060: dcc8 1c3f 8918 533f c084 71be eb76 0abf
00000070: 2268 cebd 53eb 00be 8a58 ebbd c9f0 2d3e
00000080: 76b8 7f3e 61a0 9a3c 5f4a 76be 4d3d ebbe
00000090: 036a af3d aee0 e33d e854 e2bd 103c fabd
000000a0: f900 08be c919 f0bc 1348 36be 7555 dcbd
000000b0: 48c1 0cbe b848 603f a115 87bd ac18 263f
000000c0: 9ac7 58be a52c 2c3e 89ed e7bd bfb9 8b3d
000000d0: fd8c d23e 40d4 62be 2986 7cbe cfd7 c5bc
000000e0: b939 09be 0e9c ecbd 56ff a9be 1750 19bd
000000f0: 4ebd 1fbe 17d2 a93d 3ca9 2bbf 62ff e7bd
00000100: 8132 1a3e 6856 35be 5129 72be 5ace debd
00000110: 2fec 06bd 5c84 98be adb1 0d3f 5935 6fbd
00000120: c6c8 613e ff97 9fbd 50e8 22be 41f6 54bd
00000130: c9b7 8abd 5b5e 82bd a551 2bbe b4c8 3fbd
00000140: f607 8fbe bcd9 5cbd 29e0 7f3e a7d2 a4bd
00000150: 5d8d 8dbd 1a07 95bd 8ee0 bdbc 76a0 10be
00000160: 02a0 df3c 0513 8ebe 85f2 9abd 1740 5cbe
00000170: 01a2 f2be 0367 03be 4244 59be 067a d2bd
00000180: 3639 abbe d1e7 4e3f 44dc 1bbf 0c1d 49bd
00000190: 81eb 98be 3050 bfbd 249a 92bd d560 e0bd
000001a0: ceb3 96bf 0322 983e e908 a8bc 3a6b a8bd
000001b0: c722 0fbe 3111 4c3e c971 3fbe ad7d 8ebe
000001c0: 843e 853e 3a4b 51be 347e 85be 0725 86bd
000001d0: 51be ebbe a923 c33d a069 21be 463b 69bd
000001e0: 506f b8bd c827 b6bc 5db0 47be 8775 74bd
000001f0: 110c 1b3f c9bd 9cbd 0361 22bf 5de8 1abe

l3.weight f4 [64, 128]
-0.12161618 0.055980075 -0.028319068 0.06317845 -0.0748669 -0.10784822 0.10027509 -0.0547521
-0.102103814 -6.1815575e-05 0.12162979 -0.082755946 -0.13316359 -0.02017131 -0.07088995 0.049801394
0.0810595 0.049530257 0.018805379 0.07211211 0.0679509 -0.057901923 0.06823076 -0.027453741
-0.14818138 0.13385747 -0.026315404 0.0027857847 0.017844362 -0.11863755 -0.09063062 -0.071604
-0.08057757 -0.11711877 0.026883293 -0.16827078 -0.043370176 0.023147428 -0.080596134 -0.04002101
-0.05548209 -0.034547076 0.046894412 0.079565495 -0.13089138 -0.14030713 -0.028166622 -0.14245121
0.12641308 0.0031693254 0.044496506 -0.1524014 -0.16371396 0.008878695 -0.06914361 -0.05799195
-0.06992957 -0.037431292 0.036863938 -0.1459536 0.12547854 0.04208179 0.030361442 -0.0471038
0.104524076 0.029090729 0.062136922 -0.01320366 -0.04877111 0.0064782435 -0.13656242 0.02450481
0.04953709 -0.029591745 -0.003911141 0.012771418 -0.032566503 0.0099595515 -0.1322906 0.04480244
-0.05559235 -0.12158982 -0.05202667 0.029952578 -0.05964151 0.014077349 0.0973463 -0.010428632
0.09151825 -0.07127507 -0.026441839 -0.047718823 0.075193055 -0.03119885 0.07301292 -0.016957404
-0.054515176 -0.025419146 0.10943609 -0.14235175 -0.033502176 -0.010149319 0.083007686 -0.04464968
-0.12221569 0.08025219 -0.029326357 -0.0010463144 -0.08312757 0.089562826 0.028174896 -0.07053659
0.1430336 0.00990761 0.091321416 -0.043110162 -0.08035182 0.05698588 0.0037221103 0.018919291
0.07569794 -0.006699473 0.041120593 -0.27054527 -0.025607394 0.03222667 -0.059228327 -0.077416934
-3.223832e-05 -0.054212343 -0.014721407 0.06365814 0.10182605 0.07946889 0.06217373 -0.08385473
-0.054234024 0.06646892 0.041086704 0.039011642 -0.025524661 -0.02034337 -0.012278307 -0.10917312
-0.043409184 0.026849454 0.027824553 0.05841074 0.0026965467 0.026727352 0.07081336 -0.06035711
-0.026520599 0.06896634 -0.005338206 -0.09549769 0.04707255 0.08447972 -0.060440008 0.0056109447
-0.008956288 -0.026234813 -0.11285612 -0.09844849 -0.075265884 0.04008981 -0.022563925 -0.08822909
0.06663524 0.015012204 -0.099961676 0.0023538691 -0.034741074 -0.095605746 -0.027664358 -0.036963582
0.017137254 0.11198678 0.000842006 -0.041623525 -0.13901271 -0.047432344 -0.053454835 0.10526681
0.008828205 0.031802315 0.045417484 -0.020638576 0.018547827 0.057571456 -0.012449374 -0.1456772
-0.030039132 -0.053215344 -0.007495425 0.0044043534 0.010045779 -0.09263132 -0.08669734 -0.071601816
-0.035421327 0.054403115 0.0028103907 0.045202434 -0.05229605 0.04832008 0.03557077 0.16452223
0.042016555 0.08435533 -0.116618715 0.055171028 -0.032789152 -0.09245756 -0.029224813 0.03992199
0.057868596 -0.031129437 0.06759945 -0.021569587 -0.11401668 -0.08129131 0.08052909 0.00018084158
-0.046961483 -0.062229905 0.011737561 -0.00073934055 -0.04618143 -0.032370903 0.060251683 -0.0105657615
-0.06371563 -0.12064991 -0.097520225 -0.0058178212 0.09207733 0.046884634 0.010305176 0.02358319
-0.00108419 0.0024577135 0.0047095716 -0.027498785 -0.09965342 -0.05168339 -0.045731973 -0.037043024
0.0021912297 0.07937206 -0.008381646 -0.06929614 -0.0010771806 0.058423635 -0.06965249 0.038796328
00000000: e711 f9bd 5d4b 653d 64fd e7bc b463 813d
00000010: d153 99bd 87df dcbd 075d cd3d bd43 60bd
00000020: ce1b d1bd fca2 81b8 0a19 f93d f37b a9bd
00000030: 095c 08be 4e3e a5bc c02e 91bd 8cfc 4b3d
00000040: 8602 a63d 3de0 4a3d bd0d 9a3c 84af 933d
00000050: d729 8b3d 912a 6dbd 92bc 8b3d abe6 e0bc
00000060: dcbc 17be ef11 093e 6793 d7bc b691 363b
00000070: 572e 923c 3ef8 f2bd 8c9c b9bd 1ea5 92bd
00000080: da05 a5bd f7db efbd 5a3a dc3c 2d4f 2cbe
00000090: eda4 31bd ad9f bd3c 960f a5bd 12ed 23bd
000000a0: 3041 63bd 3c81 0dbd 5b14 403d 3cf3 a23d
000000b0: 6408 06be acac 0fbe b0bd e6bc bbde 11be
000000c0: 6e72 013e 75b4 4f3b f841 363d 1d0f 1cbe
000000d0: a2a4 27be f277 113c 2a9b 8dbd f888 6dbd
000000e0: 3c37 8fbd 8e51 19bd a4fe 163d dc74 15be
000000f0: 727d 003e f45d 2c3d 8fb8 f83c eaef 40bd
00000100: b810 d63d ae4f ee3c 4983 7e3d 2a54 58bc
00000110: 37c4 47bd 7247 d43b 05d7 0bbe 50be c83c
00000120: 67e7 4a3d 636a f2bc 0729 80bb 363f 513c
00000130: 7464 05bd 632d 233c 3077 07be c382 373d
00000140: ceb4 63bd 1504 f9bd eb19 55bd 1c5f f53c
00000150: a84a 74bd aea4 663c 7f5d c73d dadc 2abc
00000160: ec6d bb3d aaf8 91bd 8e9c d8bc d074 43bd
00000170: d1fe 993d bb94 ffbc cc87 953d 41ea 8abc
00000180: 4e4b 5fbd d03b d0bc 0720 e03d a8c4 11be
00000190: 9439 09bd 5449 26bc efff a93d 95e2 36bd
000001a0: 384c fabd 435b a43d d43d f0bc 7c24 89ba
000001b0: ca3e aabd b76c b73d 0acf e63c 7d75 90bd
000001c0: 6677 123e 8753 223c b906 bb3d 4894 30bd
000001d0: 7f8f a4bd 076a 693d a6ee 733b a1fc 9a3c
000001e0: 8607 9b3d 4187 dbbb 116e 283d e984 8abe
000001f0: 99c6 d1bc 1d00 043d 6799 72bd c58c 9ebd
00000200: a237 07b8 c30d 5ebd 0e32 71bc 335f 823d
00000210: 2d8a d03d 96c0 a23d e2a9 7e3d 07bc abbd
00000220: 7f24 5ebd db20 883d 884a 283d acca 1f3d
00000230: 1819 d1bc 24a7 a6bc f42a 49bc 2896 dfbd
00000240: d4cd 31bd 63f3 db3c 51f0 e33c 1a40 6f3d
00000250: 8cb8 303b 52f3 da3c 9806 913d 0439 77bd
00000260: ba41 d9bc 393e 8d3d 1eec aebb 4b94 c3bd
00000270: 25cf 403d b403 ad3d f18f 77bd 04dc b73b
00000280: 65bd 12bc 64ea d6bc 1c21 e7bd 5d9f c9bd
00000290: 0025 9abd 3635 243d fbd7 b8bc 74b1 b4bd
000002a0: 0f78 883d bff5 753c b5b8 ccbd 5f43 1a3b
000002b0: a84c 0ebd f2cc c3bd 5da0 e2bc 2067 17bd
000002c0: 6d63 8c3c 5359 e53d 11ba 5c3a 6e7d 2abd
000002d0: 5959 0ebe 6b48 42bd 75f3 5abd 2096 d73d
000002e0: 2da4 103c 2543 023d af07 3a3d 3b12 a9bc
000002f0: 9df1 973c 0cd0 6b3d 76f8 4bbc 672c 15be
00000300: a014 f6bc 55f8 59bd 2f9c f5bb 6552 903b
00000310: 0d97 243c 7db5 bdbd 608e b1bd f9a3 92bd
00000320: f415 11bd cdd5 5e3d 882e 383b 3026 393d
00000330: 6234 56bd 47eb 453d a8b2 113d 8478 283e
00000340: 8d19 2c3d 7dc2 ac3d cbd5 eebd 04fb 613d
00000350: eb4d 06bd 645a bdbd e068 efbc 3e85 233d
00000360: 9f07 6d3d 2903 ffbc 9571 8a3d b4b2 b0bc
00000370: 9481 e9bd 0f7c a6bd 6fec a43d 4ba0 3d39
00000380: af5a 40bd c9e4 7ebd e64e 403c 4ed0 41ba
00000390: bd28 3dbd 5a97 04bd 78ca 763d 041c 2dbc
000003a0: 577d 82bd 4d17 f7bd afb8 c7bd 6ca3 bebb
000003b0: 0a93 bc3d 1a0a 403d 0ad7 283c 8931 c13c
000003c0: 611b 8eba 9711 213b c052 9a3b 2245 e1bc
000003d0: 1817 ccbd f6b1 53bd 7351 3bbd 6dba 17bd
000003e0: bc9a 0f3b d28d a23d 2c53 09bc 22eb 8dbd
000003f0: 2f30 8dba 9f4d 6f3d f7a5 8ebd e6e8 1e3d

l3.bias f4 [64]
0.64969885 -0.21812202 -0.22459471 -0.3236468 -0.098973855 -0.12720484 -0.23759608 -0.28703502
-0.43354228 -0.24506693 -0.17094448 -0.19342577 -0.28032678 -0.20013772 -0.21928626 0.54273826
-0.22787713 0.1406048 0.5983872 0.68744624 -0.21994239 -0.16978791 -0.23247175 -0.32356688
1.7494843 -0.23213516 -0.17593466 0.574843 -0.31365398 -0.19472699 0.14989425 -0.27536526
0.09685364 0.36095512 -0.08363202 -0.6405217 -0.1574045 -0.24265975 -0.104600094 -0.24566379
-0.23956472 -0.08854751 -0.27706918 -0.1077535 -0.22567539 -0.23873104 0.29388356 -0.40255234
-0.26040256 -0.16051655 -0.06935534 -0.058031034 0.3023832 -0.34176177 -0.012207032 -0.26061708
0.72869545 -0.2008509 -0.18365856 -0.16886921 0.39994705 0.891068 -0.17982465 -0.08157105
00000000: aa52 263f 615b 5fbe 28fc 65be 09b5 a5be
00000010: ceb2 cabd fc41 02be 634c 73be 41f6 92be
00000020: 41f9 ddbe d3f2 7abe 120c 2fbe 6811 46be
00000030: fe86 8fbe e7f0 4cbe 948c 60be e5f0 0a3f
00000040: 9f58 69be b4fa 0f3e e72f 193f 7afc 2f3f
00000050: 9438 61be e2dc 2dbe 130d 6ebe 8faa a5be
00000060: 1aef df3f d7b4 6dbe 3728 34be e928 133f
00000070: 4197 a0be 8366 47be e17d 193e adfc 8cbe
00000080: 345b c63d 1ccf b83e 4447 abbd 3bf9 23bf
00000090: a52e 21be cc7b 78be 9338 d6bd 4a8f 7bbe
000000a0: 7450 75be 6658 b5bd 03dc 8dbe dead dcbd
000000b0: 7317 67be e975 74be e877 963e 571b cebe
000000c0: 7c53 85be 735e 24be 2c0a 8ebd f3b1 6dbd
000000d0: f9d1 9a3e 66fb aebe 0100 48bc 9a6f 85be
000000e0: c98b 3a3f dcab 4dbe fd10 3cbe 0dec 2cbe
000000f0: dcc5 cc3e 081d 643f f423 38be b90e a7bd

out.weight f4 [3, 64]
-0.010844281 -0.03156088 0.13055246 0.062249668 0.0237887 -0.08352314 -0.055892237 -0.06519086
-0.012511533 0.09560388 -0.03484561 -0.02686301 -0.080301315 -0.12402989 -0.079436325 0.08405639
-0.0312183 -0.035763755 -0.069479786 0.009035163 0.032992158 -0.1440093 0.010244344 -0.10017498
0.09891713 0.021432476 -0.08162987 -0.08987887 -0.073883474 -0.03320483 -0.004701375 -0.027743394
0.16111813 0.0382287 0.010087155 -0.093786225 -0.07006936 0.026841728 -0.0038054022 0.05527809
-0.08676849 -0.022345139 -0.044639185 0.06758873 0.010558708 -0.023391552 0.04381078 0.034413513
-0.193642 0.08309384 0.04568538 0.024937864 0.04883219 -0.016284313 0.03709689 -0.011939235
-0.017000722 -0.051553167 -0.11424245 -0.054849617 -0.0002492757 0.017971221 0.0141908005 -0.020107633
-0.059736133 0.053702578 0.099689186 0.02869324 0.051445257 -0.04883584 -0.02994634 -0.011209837
-0.008684613 0.075806856 -0.03537625 -0.029250976 0.29636958 -0.025272723 -0.10049877 0.05795401
-0.013199288 -0.009872405 -0.10338699 0.010650173 0.031208849 -0.083275035 0.0042891623 -0.05982253
-0.0006020963 -0.00646915 -0.06653099 -0.048360016 -0.108595185 -0.07265006 0.17479572 -0.024429277
-0.11255817 -0.0155972475 -0.0109143 0.06419186 0.036570698 -0.012431578 -0.034324486 0.07837603
-0.074548006 -0.048017085 -0.023581311 0.108719304 0.028153062 -0.01799313 -0.032948222 0.058101423
0.08835217 0.038718924 0.03348325 0.083179295 0.0980773 0.015004706 0.0735957 -0.025957067
0.1396485 -0.018811382 -0.11307009 -0.08655603 -0.020614449 0.003666142 -0.029474981 -0.030046519
-1.8966929 0.09842432 -0.37727332 -1.0746456 -0.19819686 -0.13060644 -0.09570443 -0.05958385
0.029064016 0.021467958 -1.5125697 -0.1592964 -0.9573603 -1.4697744 -0.32738823 -1.7668712
-0.0750868 -1.7270685 -1.3582063 -2.3274505 -0.36368865 -0.096518084 -0.33184248 -0.1812683
-3.8864486 -0.16728044 0.05571023 -2.0150976 -0.21584193 0.033774048 -1.0100594 -0.39067215
-0.24809453 -1.6733357 -1.7972946 -5.2337937 -0.40754086 -0.15367025 0.014818695 -0.15916556
-0.04770981 -0.5076349 -0.12255937 0.11366967 -0.009994893 0.10381034 -3.0381165 -0.10859753
-0.15695329 -0.2409239 -0.7544639 0.049948916 -2.9375846 -1.268269 -1.0422817 -0.16800833
-1.9835938 -0.12704232 -0.33888033 -0.047997948 -0.64797676 -1.9619136 -0.1436837 -0.35775757
00000000: 36ac 31bc fb45 01bd 8baf 053e 82f9 7e3d
00000010: 85e0 c23c 2e0e abbd 42ef 64bd c982 85bd
00000020: 2cfd 4cbc f8cb c33d 45ba 0ebd d10f dcbc
00000030: 0475 a4bd 6203 febd 83af a2bd c225 ac3d
00000040: 85bd ffbc 047d 12bd 6b4b 8ebd 3808 143c
00000050: c922 073d 2d77 13be e5d7 273c 8a28 cdbd
00000060: 1095 ca3d 2993 af3c 902d a7bd 6a12 b8bd
00000070: 3850 97bd ca01 08bd fe0d 9abb 1d46 e3bc
00000080: 27fc 243e b395 1c3d 9844 253c fe12 c0bd
00000090: 8680 8fbd 2fe3 db3c 0e64 79bb 476b 623d
000000a0: aeb3 b1bd 270d b7bc 94d7 36bd f66b 8a3d
000000b0: 6efe 2c3c a49f bfbc ef72 333d 2ff5 0c3d
000000c0: 174a 46be 1a2d aa3d 9820 3b3d 7e4a cc3c
000000d0: 4304 483d ae66 85bc e9f2 173d c89c 43bc
000000e0: 1945 8bbc 6a29 53bd f2f7 e9bd fea9 60bd
000000f0: 38b1 82b9 6238 933c 8880 683c c3b8 a4bc
00000100: e0ad 74bd 3cf7 5b3d d829 cc3d 160e eb3c
00000110: 43b8 523d 1708 48bd 0752 f5bc 77a9 37bc
00000120: e849 0ebc a040 9b3d b0e6 10bd be9f efbc
00000130: c1bd 973e be08 cfbc 4dd2 cdbd 2f61 6d3d
00000140: d441 58bc debf 21bc 8fbc d3bd 107e 2e3c
00000150: b3a9 ff3c 1a8c aabd 1a8c 8c3b 7808 75bd
00000160: 00d6 1dba 2afb d3bb 6641 88bd 2715 46bd
00000170: 2767 debd 8ec9 94bd a6fd 323e e81f c8bc
00000180: e684 e6bd 998b 7fbc e4d1 32bc 0677 833d
00000190: 28cb 153d d1ad 4bbc d597 0cbd 9d83 a03d
000001a0: a0ac 98bd 90ad 44bd 982d c1bc 3aa8 de3d
000001b0: 40a1 e63c 5466 93bc b7f4 06bd c2fb 6d3d
000001c0: fcf1 b43d bc97 1e3d bb25 093d e859 aa3d
000001d0: c0dc c83d 4cd6 753c 58b9 963d eaa3 d4bc
000001e0: 0400 0f3e 541a 9abc 4b91 e7bd 4a44 b1bd
000001f0: a2df a8bc a843 703b 8475 f1bc 1e24 f6bc
00000200: d5c6 f2bf b192 c93d f829 c1be fd8d 89bf
00000210: 1ef4 4abe b2bd 05be af00 c4bd 320e 74bd
00000220: a917 ee3c 92dd af3c e29b c1bf 981e 23be
00000230: 9115 75bf 9121 bcbf 6e9f a7be d628 e2bf
00000240: 1cc7 99bd 9510 ddbf b4d9 adbf f3f4 14c0
00000250: 6635 babe 46ab c5bd 42e7 a9be 669e 39be
00000260: 93bb 78c0 904b 2bbe 6930 643d 5cf7 00c0
00000270: ab05 5dbe a856 0a3d a049 81bf 2e06 c8be
00000280: 7e0c 7ebe dd2f d6bf c00d e6bf 3d7b a7c0
00000290: 32a9 d0be bc5b 1dbe 1dca 723c 4cfc 22be
000002a0: 5d6b 43bd 5cf4 01bf 6800 fbbd a5cb e83d
000002b0: 9fc1 23bc 849a d43d 8070 42c0 6268 debd
000002c0: 5db8 20be c1b4 76be 8c24 41bf 3c97 4c3d
000002d0: 6301 3cc0 a356 a2bf 7d69 85bf 600a 2cbe
000002e0: 67e6 fdbf 6217 02be b981 adbe 7f99 44bd
000002f0: cee1 25bf fc1f fbbf d221 13be 002c b7be

out.bias f4 [3]
0.89931244 -0.75868756 -9.149656
00000000: 5739 663f 5939 42bf fe64 12c1
